configfiles/results/hb_05/Hummingbird/Hummingbird-1999896.onnx (onnx, 401856 bytes, 7 tensors)

network_body._body_endoder.seq_layers.0.weight f4 [256, 125]
0	0x3dc502d3	0.09619679
1	0x3cd2ba4b	0.025723597
2	0x3db12c48	0.08651024
3	0x3e10a87e	0.14126775
4	0xbe3ae422	-0.18251088
5	0x3e2971d5	0.1654733
6	0xbd1101b4	-0.035402015
7	0xbd1fc2fa	-0.039004304
8	0x3c9531ab	0.01821216
9	0x3e5367f2	0.2064512
10	0x3e7bc399	0.24586333
11	0x3b4bc36c	0.0031091822
12	0xbc55656d	-0.01302467
13	0x3dee5707	0.11637693
14	0xbd259625	-0.040426392
15	0xbd68f737	-0.056876387
16	0xbc99a121	-0.01875359
17	0xbd114f91	-0.03547627
18	0x3ca8e0ed	0.020615065
19	0x3db8ef1e	0.09029983
20	0xbd84c4f0	-0.06482875
21	0x3d2716e6	0.040793322
22	0x3d8dea16	0.06929414
23	0xbe1168d8	-0.14200151
24	0xbceba8be	-0.028766986
25	0xbcbcf93a	-0.02306806
26	0x3d8c93b6	0.06864111
27	0x3d9c9a61	0.07646633
28	0xbc57c515	-0.013169547
29	0x3e92126b	0.28529677
30	0x3e1fbdde	0.15599772
31	0x3e2e7d87	0.17040072
32	0x3c86509e	0.016395863
33	0xbd6020f3	-0.054718923
34	0xbc26f186	-0.01018942
35	0xbda87cad	-0.08226905
36	0xbd2bfebe	-0.041990988
37	0x3daa2be9	0.083091564
38	0xbd6500b6	-0.05590888
39	0xbe0c0201	-0.1367264
40	0xbdf2138c	-0.118201345
41	0x3e38ccf4	0.18046933
42	0xbd88f0e8	-0.06686574
43	0xbe09f041	-0.13470556
44	0x3b53bcde	0.0032308619
45	0xbde4397f	-0.11143779
46	0xbc431bbd	-0.011908469
47	0x3d01d41d	0.031696428
48	0x3be4638b	0.0069698743
49	0x3c8fc1cb	0.017548462
50	0xbe3d9453	-0.18513612
51	0x3d6ca2a9	0.057772312
52	0xbdec54d3	-0.115396164
53	0x3d5f6836	0.054542743
54	0xbdca428b	-0.09875973
55	0x3ddff221	0.10934854
56	0xbd15d7a4	-0.036582604
57	0xb9b5a674	-0.00034647027
58	0xbd87031f	-0.06592392
59	0xbc2b8cae	-0.010470552
60	0xbcd61b67	-0.026136113
61	0xbdeb192d	-0.11479411
62	0x3d69351e	0.056935422
63	0xbd746041	-0.059662107
64	0xbd0b6f20	-0.034041524
65	0xbcf16d83	-0.029471165
66	0xbd6d6645	-0.05795886
67	0x3dc54ad0	0.0963341
68	0xbe00519c	-0.12531132
69	0xbbbfa5b5	-0.0058486112
70	0xbe09aa70	-0.13443923
71	0xbde5242c	-0.1118854
72	0xbdf37d31	-0.11889113
73	0xbd3092ef	-0.043108877
74	0x3c50666d	0.012719733
75	0x3c66055f	0.0140393665
76	0x3dde18fc	0.10844609
77	0x3dd979fe	0.10618971
78	0x3c11b635	0.008893539
79	0x3da234f2	0.07920255
80	0xbcfa3e58	-0.030547306
81	0x3e23e0ab	0.16003673
82	0xbd375be7	-0.04476538
83	0x3d1f2a77	0.038858857
84	0x3c96f7c3	0.018428689
85	0x3cbca348	0.023027077
86	0xbcc01646	-0.02344812
87	0x3da97cc1	0.08275748
88	0xbe1775eb	-0.14791076
89	0xbe0dd30d	-0.1385004
90	0x3e36779b	0.17819063
91	0xbdf91cb6	-0.12163679
92	0xbd413d53	-0.047177624
93	0x3b0d95fd	0.0021604293
94	0x3caaa497	0.020830436
95	0xbd527f62	-0.051391013
96	0x3db7236f	0.08942305
97	0x3dc916f7	0.09818833
98	0xbda344eb	-0.079721294
99	0xbd6685cb	-0.05627994
100	0x3df68bb8	0.12038368
101	0xbcb4208a	-0.021988172
102	0xbd642f64	-0.055709258
103	0x3e248954	0.16068012
104	0xbd500b2a	-0.050791897
105	0x3df7ce49	0.12099893
106	0xbcf093e1	-0.02936739
107	0x3e4f1fdb	0.20226996
108	0xbd8aa3d9	-0.06769533
109	0x3d57d8c9	0.052696977
110	0xbe5d8be0	-0.2163539
111	0x3dd19cac	0.10234961
112	0x3d2e30af	0.042526897
113	0x3db4213d	0.08795402
114	0x3d3595b8	0.044332236
115	0x3d20660c	0.03915982
116	0xbdc4f028	-0.09616119
117	0x3d6f76bd	0.058462847
118	0xba28db8d	-0.0006441407
119	0xbe32bb9a	-0.17454377
120	0x3c47a084	0.012184266
121	0xbde246fe	-0.11048697
122	0x3d9f63c7	0.07782703
123	0xbc7f8642	-0.015595974
124	0x3dafcd8d	0.085841276
125	0xbe25fc6a	-0.1620957
126	0x3d469de1	0.04849041
127	0x3e432008	0.19055188
128	0x3ce57899	0.028011607
129	0x3d372aa2	0.044718392
130	0x3e2490ee	0.16070911
131	0x3cad2aff	0.021138666
132	0x3e4fee69	0.2030579
133	0x3bde8f33	0.006791973
134	0xbcbe4516	-0.023226302
135	0x3d9a00cc	0.07519683
136	0xbadb1550	-0.0016714726
137	0x3b925c17	0.0044665444
138	0xbd4305c1	-0.04761291
139	0xbc816f20	-0.015800059
140	0x3d8daf54	0.06918207
141	0x3e0cb4f3	0.13740902
142	0xbd42e2be	-0.04757952
143	0xbda796bb	-0.081830464
144	0x3d116d44	0.035504594
145	0x3c381f65	0.011237954
146	0xbcded2b2	-0.027200077
147	0x3de4ec34	0.11177865
148	0x3d27b14c	0.040940568
149	0x3da3cd04	0.07998088
150	0x3dc40bc1	0.095725544
151	0xbcdad4ab	-0.026712736
152	0xbe33d938	-0.17563331
153	0x3df84c9f	0.12123989
154	0x3d1a4e94	0.037672594
155	0x3e81d9ee	0.2536158
156	0xbbfec3f8	-0.007774826
157	0xbd506ccd	-0.05088501
158	0x3e0f58fa	0.13998786
159	0x3bbe0864	0.00579934
160	0x3c61a0f6	0.013771286
161	0x3c0f326e	0.008740051
162	0x3d9e869b	0.07740518
163	0xbe0c5389	-0.13703741
164	0xbbae7533	-0.00532403
165	0xbd71f721	-0.05907357
166	0xbe2210aa	-0.1582667
167	0x3ca1dc92	0.019758496
168	0x3d296c3f	0.041362997
169	0xbd83505a	-0.0641181
170	0xbc92eb93	-0.017934596
171	0x3dc9fd73	0.09862795
172	0x3c8b2b63	0.016988462
173	0xbd4da25c	-0.050203666
174	0x3d816e12	0.06319822
175	0x3cce46a1	0.025180163
176	0x3ddf9225	0.10916547
177	0xbdb2514b	-0.08706912
178	0xbd98f8d1	-0.07469333
179	0x3c2d19d3	0.010565239
180	0xbda82098	-0.08209342
181	0x39e0592f	0.00042791056
182	0x3d9df418	0.07712573
183	0x3d874034	0.06604043
184	0x3ca77bc6	0.020444762
185	0x3cc6bbcb	0.024259469
186	0x3d9953e5	0.07486705
187	0x3dfe9c25	0.12432126
188	0xbc5f4d07	-0.013629205
189	0xbb5ad589	-0.0033391437
190	0xbc853f3a	-0.0162655
191	0xbd2eea16	-0.04270371
192	0x3ce16b3c	0.027516954
193	0x3bae7340	0.0053237975
194	0x3da09b6b	0.078421436
195	0x3b9e7854	0.0048361216
196	0xbdbae49c	-0.09125635
197	0x3cecfce9	0.02892919
198	0x3d8c8058	0.06860417
199	0x3d915c28	0.070976555
200	0xbd846596	-0.064646885
201	0xbc912fe0	-0.017723024
202	0xbc7a966d	-0.015294653
203	0x3d3f2d33	0.046673965
204	0xbd50374a	-0.050833978
205	0xbd4d9ad9	-0.050196502
206	0x3d85df81	0.065367706
207	0xbd4b4242	-0.049623735
208	0xbcad2157	-0.021134062
209	0x3b365d53	0.0027826622
210	0xbd82faac	-0.06395468
211	0x3bd67d84	0.0065457243
212	0x3ce4ad2f	0.027914612
213	0xbc553ceb	-0.013015012
214	0x3d1286cd	0.035773087
215	0x3d1be546	0.03806045
216	0xbb29c770	-0.0025906228
217	0x3d84c5da	0.0648305
218	0x3cba8b2d	0.022771442
219	0xbdae176d	-0.08500562
220	0x3dff7bca	0.12474783
221	0xbcf247f7	-0.029575331
222	0x3cbd1f81	0.023086311
223	0xbd2a3801	-0.041557316
224	0x3d90e92c	0.07075724
225	0xbc8e7208	-0.017388359
226	0xbdbd788f	-0.0925151
227	0xbdcb5cd2	-0.099298134
228	0xbe4320ae	-0.19055435
229	0x3d31860a	0.04334072
230	0xbd44e23c	-0.048067316
231	0x3d8a5138	0.067537725
232	0x3e788d87	0.24272738
233	0xbd80bf21	-0.06286455
234	0x3d445b82	0.04793883
235	0xbdbed35e	-0.09317659
236	0x3d5c578e	0.053794436
237	0x3d1e271c	0.038611516
238	0xbdc6f45f	-0.09714579
239	0xbcc9f5bf	-0.024653314
240	0x3b982e83	0.0046442165
241	0xbca20106	-0.019775879
242	0xbdd5e775	-0.104445376
243	0xbd35fec5	-0.04443242
244	0xbda8f162	-0.08249165
245	0xbe05d855	-0.13070805
246	0x3d922027	0.07135039
247	0x3d797b84	0.06090881
248	0xbe3984ab	-0.18117015
249	0x3e7998b7	0.24374662
250	0x3d9a5f26	0.075376794
251	0x3cee50ef	0.029091327
252	0xbd6e6846	-0.05820491
253	0xbd906633	-0.07050743
254	0x3d1e3c95	0.038631994
255	0xbd39f329	-0.04539791

network_body._body_endoder.seq_layers.0.bias f4 [256]
0	0x3c027a6d	0.007963759
1	0x3aa11f66	0.0012292683
2	0xb9b557e3	-0.0003458849
3	0xbbbbe827	-0.005734462
4	0x3c2a86ea	0.010408143
5	0x3c54849b	0.012971069
6	0xb894d36a	-7.096569e-05
7	0xbbac9612	-0.005266913
8	0xbbb23df8	-0.005439516
9	0x3bfbbb6f	0.007682256
10	0xbb8fe37c	-0.004391132
11	0x3cbf6632	0.02336416
12	0xbc736f7a	-0.014858121
13	0x3ab6e88a	0.00139548
14	0x3aec2983	0.0018017743
15	0x37f5c678	2.9298695e-05
16	0xbc5a7f29	-0.013335981
17	0xbb933d8c	-0.004493421
18	0x3c8bd4ae	0.017069187
19	0x3b81a6d0	0.003956653
20	0x3c1cfc1f	0.009581595
21	0xbc3b6ea6	-0.011439955
22	0x3b0dd5dd	0.0021642365
23	0xbb8836c6	-0.00415692
24	0x3b6307c4	0.003464208
25	0xba96cd5e	-0.0011505296
26	0xbad2f208	-0.001609386
27	0xbc8d791a	-0.01726966
28	0xbb5d7b52	-0.0033795428
29	0xbad3aa3f	-0.001614876
30	0x3bd5dc49	0.006526504
31	0xba9d930c	-0.0012021973
32	0xbb7348dc	-0.0037122285
33	0x3c1b5e71	0.009482966
34	0xbbad143f	-0.0052819545
35	0xbcae17d7	-0.021251602
36	0x3c4052ba	0.011738474
37	0x3c1aca90	0.009447709
38	0x3b84ad6d	0.0040489943
39	0xbbc0f77a	-0.0058888765
40	0x3b860fd9	0.0040912447
41	0x3b6fbb7c	0.0036580255
42	0x3c027172	0.007961618
43	0x3b09c4e6	0.0021021902
44	0x3b319357	0.0027095878
45	0x3c0d4191	0.008621589
46	0xbafe31a1	-0.0019393453
47	0x3b0155d4	0.0019734995
48	0xbc7074ef	-0.014676317
49	0x3b540203	0.0032349832
50	0x3c52f0ae	0.012874765
51	0x3c9a593e	0.018841382
52	0xbb7cb150	-0.0038557835
53	0x3c95a099	0.018265055
54	0xbb91bf48	-0.0044478513
55	0xbacffe41	-0.001586862
56	0x3c1aa5a1	0.009438903
57	0xbb917a46	-0.004439625
58	0x3c46f4c7	0.01214332
59	0xbb50c48c	-0.0031855432
60	0x3bd24714	0.0064171646
61	0x3bda5d61	0.0066639637
62	0xbc366ed3	-0.011134821
63	0x3c65f04a	0.01403434
64	0x3c01e1b2	0.007927345
65	0x3c0c2edf	0.008556097
66	0xb86ca718	-5.6422403e-05
67	0xba565f70	-0.00081776734
68	0xbb855364	-0.004068779
69	0xbc409857	-0.011755071
70	0x3c06b7d9	0.008222544
71	0x3b3de3dd	0.0028974928
72	0x3c6e8a66	0.014559364
73	0xbc70e9fc	-0.014704224
74	0x3c4f530c	0.012654077
75	0x3bc4c28f	0.0060046385
76	0x3c0fc940	0.008776009
77	0x3c3533fe	0.011059759
78	0x3a1a2f52	0.0005881685
79	0x3c72faec	0.014830332
80	0xbb34aeb6	-0.0027569956
81	0x3c9e4985	0.019322166
82	0x3b64d1d8	0.0034915116
83	0x3b6f67f8	0.0036530476
84	0xbc26ff11	-0.0101926485
85	0x3c1358de	0.008993356
86	0xbbf5c50e	-0.0075002974
87	0x3cae2bf9	0.021261202
88	0xbb73ba22	-0.0037189801
89	0xbbd42e42	-0.006475241
90	0x3c2278df	0.009916513
91	0xbba6f56c	-0.0050951745
92	0x3c700804	0.014650349
93	0x3c73933a	0.0148666445
94	0x3c01a1b7	0.007912091
95	0x3c5caae3	0.013468477
96	0x3bb3d9e2	0.00548862
97	0x3a014f82	0.0004932807
98	0xbc25125e	-0.01007518
99	0xba391767	-0.0007060677
100	0xbb103231	-0.0022002573
101	0x3a2bb39e	0.00065498974
102	0x3c11306c	0.008861642
103	0x3c1fc9a4	0.009752665
104	0xbc005f78	-0.0078352615
105	0x3bb434b4	0.0054994468
106	0xbbbc1791	-0.005740114
107	0xbc248351	-0.010041074
108	0x3b203704	0.0024446854
109	0x3c354a2a	0.011065045
110	0x3af659e3	0.0018795099
111	0xbc20e872	-0.009821044
112	0xbc18e62a	-0.009332219
113	0x3bb7d4cc	0.005610084
114	0xbcda8210	-0.026673347
115	0x3bea424a	0.0071490156
116	0xbb72e428	-0.0037062261
117	0xbbb4b0b7	-0.00551423
118	0x3b8d18a4	0.004305916
119	0x3ab444c3	0.0013753403
120	0x3c590076	0.013244739
121	0x3b28ba1a	0.002574569
122	0x3c2b9504	0.01047254
123	0x3b7669ab	0.0037599604
124	0x3adda037	0.001690871
125	0xbb827459	-0.003981155
126	0x3c3c1816	0.011480352
127	0x3b6919e1	0.0035568404
128	0x3b542410	0.0032370128
129	0xbb4c6724	-0.0031189406
130	0xbbc902da	-0.006134373
131	0x3c570c5d	0.013125506
132	0xbc097f78	-0.008392207
133	0xbb45cbf1	-0.0030181373
134	0x3c19deba	0.009391481
135	0xbb9832e8	-0.0046447404
136	0xbc439445	-0.011937206
137	0xbbe9ca42	-0.0071347067
138	0xbc89ef07	-0.01683761
139	0x3b1609cb	0.002289402
140	0x3c4d14dc	0.01251718
141	0x3cb11729	0.021617489
142	0x3b86ee92	0.0041177953
143	0x3b8fa651	0.00438384
144	0xbc692a32	-0.014231252
145	0xbaaef2f1	-0.0013347549
146	0x3cf2b122	0.02962548
147	0x3c9f28e5	0.01942868
148	0x3b637709	0.0034708402
149	0xbc985415	-0.018594781
150	0xbbe1240e	-0.006870753
151	0x3c804baa	0.01566108
152	0x3c056f0c	0.008144151
153	0x3c145fc8	0.009056039
154	0x3afd56c3	0.0019328225
155	0xbaee44ca	-0.001817846
156	0x3c29adfe	0.010356424
157	0x3b6911c5	0.003556357
158	0xbc2017ef	-0.009771331
159	0x3c6e4299	0.014542245
160	0xbbbb94c4	-0.0057245214
161	0x3c0d320c	0.008617889
162	0xbc3b5f5b	-0.011436309
163	0x3a159d46	0.00057073345
164	0xbbb80d2b	-0.005616804
165	0x3c695341	0.014241041
166	0x3c35783e	0.011076031
167	0xbb41a35a	-0.0029546828
168	0x3b765638	0.0037588011
169	0x3cfc333d	0.030786151
170	0xbc37a4d9	-0.011208736
171	0x3bcd5aa9	0.006266911
172	0x3a26f144	0.0006368349
173	0xba0c4feb	-0.0005352485
174	0xbbc86cac	-0.0061164703
175	0x3a58e67c	0.0008274091
176	0xbc53095c	-0.012880649
177	0xbc65b54e	-0.014020277
178	0x3c3ebe2a	0.011642018
179	0xbb6c498e	-0.0036054584
180	0xba6abe15	-0.0008954716
181	0xbbae22d5	-0.005314211
182	0x3c107eea	0.008819321
183	0x3a0ca724	0.0005365482
184	0xbc1a187f	-0.009405254
185	0xbbea602f	-0.0071525793
186	0x398228d8	0.00024825963
187	0xbbb47346	-0.0055069057
188	0x3b1aa2d2	0.0023595584
189	0x3bb24022	0.005439774
190	0x3c3d0933	0.011537838
191	0xbc8d687a	-0.017261732
192	0x3b61a7de	0.0034432332
193	0x3bda4941	0.0066615646
194	0x3bba09e7	0.00567745
195	0x3adc3073	0.0016799107
196	0xbc055d73	-0.008139956
197	0xbb0e6ded	-0.0021733001
198	0x3c4cb097	0.012493274
199	0x3cc00f55	0.02344481
200	0xbac01734	-0.0014655353
201	0xbc26f5c8	-0.010190435
202	0xbb81f54d	-0.0039660097
203	0xbc0956ac	-0.008382481
204	0xbc1fcb81	-0.009753109
205	0xb9e75717	-0.0004412464
206	0x3c8d42f5	0.017243842
207	0xbb509130	-0.003182482
208	0xbb909930	-0.0044127926
209	0x3bf0e861	0.0073519205
210	0x3c063dc8	0.008193441
211	0xbb097d7e	-0.002097934
212	0x3bc26607	0.0059325728
213	0x3b351d33	0.0027635812
214	0xbb22a1a9	-0.0024815595
215	0x3c51b7d1	0.012800173
216	0xbb7314a7	-0.0037091167
217	0x3b060670	0.0020450614
218	0xbb2a9ef2	-0.002603468
219	0x3b761d1d	0.0037553974
220	0x3b2ed542	0.0026677405
221	0x3c3d0c81	0.011538626
222	0x3bc9faa2	0.006163911
223	0x3b55c807	0.0032620446
224	0x3c59114f	0.013248756
225	0xb8d83a72	-0.00010310569
226	0xbc4225ba	-0.011849815
227	0x3bc612eb	0.0060447357
228	0xbb38c3f2	-0.0028192964
229	0x3b8874bf	0.004164308
230	0x3bd7e5fa	0.0065886946
231	0x3b38d127	0.0028200836
232	0x3cb3b93f	0.021938918
233	0x3c4748e1	0.012163372
234	0x3b8215fc	0.003969906
235	0x3c09c831	0.008409546
236	0x3b76ff80	0.003768891
237	0x3b49de91	0.0030802826
238	0x3b8fd0fa	0.0043889256
239	0xbb6c97d9	-0.003610125
240	0x3c263a49	0.010145732
241	0x3a5e2ebc	0.0008475592
242	0xbc3f3933	-0.011671352
243	0xbc0132ab	-0.007885615
244	0x3b48a17f	0.0030613837
245	0xbae3d7e2	-0.0017383064
246	0x3c4f78c5	0.012663071
247	0xbc5984f4	-0.013276327
248	0x3c21d78d	0.0098780515
249	0x3c62c84c	0.0138417
250	0xbc17b8f1	-0.009260402
251	0xbbbd88ff	-0.0057841535
252	0x3b9a4581	0.0047079925
253	0x3b9474ec	0.0045305397
254	0x38ea925b	0.0001118525
255	0xb9277862	-0.00015971207

network_body._body_endoder.seq_layers.2.weight f4 [256, 256]
0	0x3bd31fcb	0.006442999
1	0x3cdb6a35	0.026784042
2	0xbb1536ae	-0.0022768187
3	0xbcb42c32	-0.02199373
4	0xbc6f1b98	-0.014593981
5	0xbd4706b7	-0.04859039
6	0x3d22a2fc	0.039706215
7	0xbad9e0a0	-0.001662273
8	0xbc0dba21	-0.008650334
9	0x3ce2fc08	0.027708068
10	0x3d643423	0.055713784
11	0xbe0fd39d	-0.14045568
12	0x3d083955	0.0332578
13	0xbc8afdde	-0.016966756
14	0x3c867c9a	0.016416837
15	0xbe138fcd	-0.14410324
16	0xbc23df95	-0.010002037
17	0xbd0321cd	-0.032014657
18	0x3daee703	0.08540156
19	0x3d5f6007	0.05453494
20	0x3cf9c42f	0.030489055
21	0xbbd639e0	-0.006537661
22	0xbca78e83	-0.020453697
23	0xbdb6ca1f	-0.0892527
24	0xbb5ce567	-0.003370607
25	0xbdd8a9a6	-0.10579233
26	0xbd194044	-0.037414804
27	0x3d350c60	0.044201255
28	0x3d345f25	0.04403605
29	0xbd91fe24	-0.071285516
30	0xbdda5522	-0.10660769
31	0x3d8322ac	0.064030975
32	0x3c0c593d	0.008566198
33	0x3b12c59a	0.0022395612
34	0xbd775eb8	-0.060393065
35	0xbb8701ac	-0.0041200723
36	0xbe1527f4	-0.14566022
37	0x3cbe32c6	0.02321757
38	0xbde3ce6a	-0.11123355
39	0x3d349036	0.044082843
40	0x3d814f3e	0.063139424
41	0xbd931596	-0.071818516
42	0xbdb76f6d	-0.089568
43	0xbd1a08b9	-0.037605975
44	0x3b8fe1ae	0.004390917
45	0xbdb11a82	-0.08647634
46	0xbd990dab	-0.0747331
47	0x3d0a4ecf	0.033766564
48	0x3d0273bd	0.031848658
49	0x3ccf89ac	0.025334202
50	0xbd67a4ae	-0.056553535
51	0xbe050f04	-0.1299401
52	0xbd09bb6d	-0.03362601
53	0x3d951c99	0.07280845
54	0x3d621b7c	0.055201992
55	0x3d8a8029	0.06762726
56	0xbdc58d80	-0.096461296
57	0xba685658	-0.0008862964
58	0xbda7988f	-0.08183395
59	0x3d459e8d	0.04824691
60	0xbd0729af	-0.032998737
61	0xbdc23910	-0.0948354
62	0xbc965731	-0.018352123
63	0x3d377231	0.044786636
64	0xbbdc8f40	-0.006730944
65	0x3d8ff174	0.070284754
66	0xbb0461c1	-0.0020199867
67	0xbdef1897	-0.11674612
68	0x3e03301e	0.12811324
69	0xbb445682	-0.002995879
70	0x3e1bbc0d	0.15208454
71	0xbd21063c	-0.039312586
72	0xbcb0fa58	-0.021603748
73	0x3d7587fb	0.059944134
74	0x3df011b0	0.117221236
75	0xbd180f03	-0.03712369
76	0x3ba5a999	0.005055618
77	0xbcd3d427	-0.025857998
78	0x3d397cc1	0.04528499
79	0xbd23d141	-0.039994482
80	0x3d5d65e0	0.054052234
81	0xbd081345	-0.0332215
82	0xbdfcd9a7	-0.123462014
83	0xbd8f9a9e	-0.07011913
84	0xbd2d94cf	-0.042378243
85	0xbc8e2aff	-0.017354487
86	0xbb8ac677	-0.0042350846
87	0x3e0984ce	0.13429567
88	0xbd5d4837	-0.054023948
89	0x3c89feb5	0.016845087
90	0x3d3a728a	0.04551939
91	0xbc0f96a4	-0.008763943
92	0x3dce7c8d	0.1008235
93	0xbd453580	-0.048146725
94	0x3cd6e284	0.026231058
95	0x3d0d2140	0.034455538
96	0x3cb24c56	0.021764915
97	0xbd57a0a1	-0.052643422
98	0x3dd0039b	0.10156938
99	0xbd7fdc3f	-0.062465902
100	0x3e47ea6a	0.19523016
101	0x3c56db7e	0.013113854
102	0x3e0568c0	0.1302824
103	0x3d924a8c	0.07143125
104	0xbd2437f8	-0.04009244
105	0xbda6eac0	-0.08150244
106	0xbc88f62f	-0.016718952
107	0xbd783cb2	-0.06060476
108	0xbc367836	-0.011137059
109	0x3b602d7c	0.0034206798
110	0x3d1fe4e2	0.03903664
111	0x3d94910c	0.07254228
112	0x3cf33918	0.02969031
113	0xbd6bd8a7	-0.057579663
114	0x3d0ffc31	0.035152618
115	0x3d68956f	0.056783136
116	0xbbd15425	-0.0063882046
117	0xbd0004c7	-0.031254556
118	0xbd12b4d6	-0.03581699
119	0x3d0189f0	0.031625688
120	0x3d7f98a5	0.062401433
121	0x3db93c1f	0.0904467
122	0xbd1215c3	-0.035665285
123	0x3d9b4dbc	0.07583186
124	0xbc72031d	-0.01477125
125	0x3c9f2c62	0.019430343
126	0x3da4370d	0.080183126
127	0xbd5805ba	-0.052739836
128	0xbd965d4d	-0.073420145
129	0x3e0796c4	0.13241106
130	0xbca48410	-0.020082504
131	0x3c235aa5	0.009970342
132	0x3deee8a0	0.116654634
133	0x3c9357a0	0.017986119
134	0x3cea7bf4	0.028623559
135	0x3d1e96e5	0.038718123
136	0x3c9a7635	0.018855194
137	0x3c895db0	0.016768306
138	0x3cce9392	0.025216851
139	0xbdc62a33	-0.096760176
140	0xbdaaf217	-0.08346956
141	0x3cf1e68a	0.029528875
142	0x3e1061bd	0.14099784
143	0x3d7a4ae5	0.06110658
144	0x3df133a3	0.11777427
145	0xbcb6085f	-0.022220789
146	0xbd618906	-0.055062316
147	0xbdaa5560	-0.08317065
148	0xbe106c93	-0.14103918
149	0x3c1ffb18	0.009764455
150	0xbd89b6d1	-0.067243226
151	0xbce7e108	-0.028305545
152	0xbc90ab62	-0.017659847
153	0x3ad4d114	0.0016236627
154	0x3ce985dd	0.028506214
155	0x3c8ef294	0.017449655
156	0x3c8f1654	0.017466702
157	0xbc8efa31	-0.017453285
158	0x3d5495db	0.051900726
159	0xbd0b9a6c	-0.034082815
160	0xbd19ccf3	-0.03754897
161	0x3b9b9b97	0.0047487724
162	0x3d8107ad	0.06300292
163	0x3c09bee6	0.00840733
164	0x3d991bf2	0.07476033
165	0x3e06eff0	0.13177466
166	0xbe2b1e38	-0.16710746
167	0xbd347f50	-0.044066727
168	0xbc4d6152	-0.01253541
169	0xbca3a72d	-0.019977177
170	0x3da55737	0.080732755
171	0xbdc9c631	-0.09852255
172	0x3e15ed6e	0.14641353
173	0x3c080f5e	0.008304445
174	0x3d263a1f	0.040582772
175	0xbd6a30ef	-0.057175573
176	0xbb05d4a0	-0.0020420924
177	0xbc842113	-0.016129052
178	0xbd26a37c	-0.040683255
179	0x3d49c46a	0.04925958
180	0xbbb23627	-0.0054385844
181	0x3d257de4	0.04040326
182	0x3ccb82ec	0.024842702
183	0xbcea36a6	-0.028590512
184	0x3df579c4	0.119861156
185	0x3df38646	0.11890845
186	0x3d45ea05	0.04831888
187	0x3d640ab0	0.055674255
188	0x3a8b96f0	0.0010649841
189	0x3c20ac6c	0.009806734
190	0x3d7426eb	0.059607428
191	0xbc27fded	-0.010253412
192	0x3c900e44	0.017584927
193	0xbe11acf2	-0.1422613
194	0x3e09fb2e	0.13474724
195	0xbd3e303e	-0.046432726
196	0xbc3bae30	-0.011455104
197	0x3c6583a1	0.014008434
198	0xbcd5eeb6	-0.026114803
199	0xbd01386d	-0.031547952
200	0xbc3d55a9	-0.0115560675
201	0xbdb34584	-0.087534934
202	0xbd4e8b4a	-0.050425805
203	0x3c45aa33	0.012064504
204	0x3c1a8a65	0.00943241
205	0xbd4a984f	-0.04946166
206	0xbc51d181	-0.012806297
207	0xbc89f7f5	-0.016841868
208	0x3d83dd4c	0.064386934
209	0xbdac4512	-0.084116116
210	0xbd11eaea	-0.035624422
211	0x3da2402a	0.079223946
212	0x3d77bd4a	0.060483254
213	0xbd1f3e14	-0.03887756
214	0xbca4d9d2	-0.020123396
215	0x3d849f04	0.06475642
216	0x3d56e38d	0.052463103
217	0xbbddd0ed	-0.0067692907
218	0xbd89455f	-0.067026846
219	0xbcfffbcc	-0.031247996
220	0xbc2fdffc	-0.010734554
221	0x3d00354d	0.03130083
222	0x3de81780	0.11332607
223	0x3c3634f3	0.0111210225
224	0xb9add2d9	-0.00033154225
225	0x3d307e3f	0.043089148
226	0x3d10be6e	0.035337858
227	0x3d0e3bb5	0.03472491
228	0x3d29c16f	0.04144424
229	0xbd833f61	-0.06408573
230	0x3d08b86b	0.033379
231	0x3d30773c	0.04308246
232	0xbd876dcd	-0.0661274
233	0x3c4240e2	0.01185629
234	0x3d5cb935	0.053887565
235	0xbe01f250	-0.12690091
236	0x3d03d732	0.032187648
237	0x3d913b27	0.070913605
238	0x3d91e8e3	0.07124498
239	0x3d3f7f70	0.046752393
240	0x3d9ce383	0.07660582
241	0x3e006d41	0.12541677
242	0x3d12c218	0.035829633
243	0xba553536	-0.0008133234
244	0x3d6cfc96	0.057858072
245	0xbc81c2ff	-0.015840052
246	0x3c772147	0.0150836175
247	0xbccbd67f	-0.024882553
248	0x3dd46bfa	0.103721574
249	0x3cfac0ea	0.030609567
250	0x3e0a21d2	0.13489464
251	0xbd43b799	-0.047782514
252	0xbd792d78	-0.060834378
253	0xbcabdaea	-0.02097841
254	0xbdba5fdb	-0.09100314
255	0xbc6aed81	-0.014338852

network_body._body_endoder.seq_layers.2.bias f4 [256]
0	0x3b59473b	0.003315403
1	0x3b54bea3	0.003246226
2	0x3aa77304	0.0012775366
3	0x3ad5ab6c	0.0016301698
4	0xba727882	-0.00092495244
5	0x3b0b0ad0	0.0021216162
6	0x3b9bc993	0.004754254
7	0x3be69c51	0.0070376773
8	0x3bcc829d	0.0062411563
9	0xbbf1ae34	-0.007375503
10	0x3b4f64b6	0.0031645722
11	0xbb3d4387	-0.002887936
12	0x380406cc	3.1477583e-05
13	0xbbf08f5e	-0.0073413095
14	0xbc1dfdab	-0.009642999
15	0x3c353c82	0.0110617895
16	0x3b1e50c5	0.002415703
17	0xbbbfd014	-0.0058536623
18	0x3b156485	0.002279551
19	0x3c162cee	0.0091659855
20	0xbb82f316	-0.0039962633
21	0x3b034786	0.0020031645
22	0x3c6dd7c9	0.014516779
23	0x3b08322a	0.0020781853
24	0x3c11f8c5	0.008909409
25	0x3b3e7b88	0.002906533
26	0xbc23de4f	-0.010001733
27	0xbb484e28	-0.0030564163
28	0xb94d0db7	-0.00019555433
29	0xbc50da25	-0.012747322
30	0x3a9bafdd	0.0011877973
31	0x3a4f3af4	0.0007905208
32	0x3b47eafb	0.003050505
33	0x3b582b2d	0.003298472
34	0x3b1d8622	0.0024036248
35	0xbb98c33e	-0.0046619466
36	0x3ba0049e	0.004883363
37	0xbbbae5a7	-0.005703646
38	0x3bd08a18	0.0063641183
39	0x3be17ecc	0.0068815704
40	0xbc4767fa	-0.012170786
41	0xbc2787e0	-0.010225266
42	0x3a8bc91e	0.0010664796
43	0x366c93f0	3.5252851e-06
44	0xbb5aeb5a	-0.003340444
45	0xbc231b9b	-0.009955312
46	0xbac63573	-0.001512213
47	0x3b1fdc92	0.0024392945
48	0x3c670deb	0.014102439
49	0xbbf185fa	-0.0073707076
50	0xbb8eb3a8	-0.004354913
51	0xbbe2fbfd	-0.006927012
52	0xbbd988ab	-0.0066386065
53	0x3ad65334	0.0016351701
54	0xbb6c8c09	-0.003609421
55	0xbc112fbc	-0.008861478
56	0x3bb5aad9	0.0055440483
57	0x3b2fcdfc	0.0026825657
58	0x3c3a4109	0.011368045
59	0xbc3db978	-0.011579864
60	0xbc294e03	-0.010333541
61	0xba15b97e	-0.00057115394
62	0x3b98e2f0	0.004665725
63	0x3afe22c6	0.0019389025
64	0x3b4a1200	0.0030833483
65	0x3a99e55e	0.001174133
66	0x3c14d508	0.009083994
67	0xbc9b4513	-0.018953836
68	0xbbd4fd2e	-0.006499908
69	0x3ab46cd8	0.0013765348
70	0xbbf41e7e	-0.007449924
71	0xbbe77ce5	-0.007064449
72	0x3be47f3b	0.006973175
73	0x3b6514f1	0.003495511
74	0x3bcd036a	0.0062565105
75	0x3ab82a1b	0.0014050634
76	0xbba69b0a	-0.0050844
77	0x3a0f8bee	0.0005475868
78	0x3c170f1a	0.009219909
79	0x3c03f925	0.008055006
80	0x3ae58e50	0.0017513726
81	0xbaa46044	-0.0012540896
82	0x3c13bb2a	0.009016791
83	0x3c1d1588	0.009587653
84	0xbb145d68	-0.0022638682
85	0x3bd1707a	0.006391582
86	0xbae4002b	-0.001739507
87	0x3b9fddac	0.0048787203
88	0xbbfe46b0	-0.0077598915
89	0x3c109390	0.008824244
90	0xbc00df84	-0.00786579
91	0x3b88cd89	0.0041748923
92	0x3c1effb6	0.009704521
93	0x3c293d6a	0.010329584
94	0x3c1a4c9a	0.009417677
95	0xbafe5968	-0.0019405307
96	0x3a2b6686	0.00065384095
97	0x3c2340ab	0.0099641485
98	0x3c54476e	0.012956483
99	0xbc25ffe6	-0.010131812
100	0xbbf5632d	-0.0074886293
101	0x3bc9dab9	0.006160107
102	0xbb1060dc	-0.002203039
103	0x38d1ce8c	0.00010004369
104	0x3b37b1b5	0.0028029506
105	0x3b873732	0.004126453
106	0x3ac490d0	0.0014996771
107	0xbba358c7	-0.0049849483
108	0x3c385942	0.0112517495
109	0xbbb8b3ad	-0.0056366534
110	0x3c054a06	0.008135324
111	0x3c38fd2b	0.011290829
112	0x3c389cc6	0.011267846
113	0xbc1294c4	-0.008946601
114	0x3c25edbd	0.010127482
115	0x3c88ffd0	0.016723543
116	0x3b270058	0.0025482383
117	0x3b192e50	0.0023373552
118	0xbb6abe6c	-0.0035819067
119	0xbc2bfb01	-0.010496856
120	0x3b7eddae	0.0038889456
121	0x3c01158f	0.007878675
122	0xbc0ece5b	-0.008716191
123	0x3a7e54cd	0.00097019674
124	0xbbe883df	-0.0070957984
125	0xbb3180af	-0.0027084758
126	0x3c4613c8	0.012089677
127	0x3c45d868	0.012075521
128	0xbabc2bd3	-0.0014356322
129	0x3aecfc41	0.0018080549
130	0x3bffebfd	0.0078101144
131	0x3a68dcc6	0.00088829955
132	0x3bcadd4a	0.0061909305
133	0xbc03f82e	-0.008054776
134	0xbb8b1010	-0.004243858
135	0xbbcd9242	-0.006273539
136	0xbc70703f	-0.014675199
137	0x3b51307f	0.0031919775
138	0x3ba70292	0.005096742
139	0x3c002447	0.007821149
140	0x3c2ee40d	0.010674489
141	0x3c4c0131	0.012451456
142	0xbc11057c	-0.008851405
143	0x3bdfdf93	0.006832072
144	0x3b2bd495	0.0026219238
145	0x3b6b35a3	0.0035890124
146	0xbb8ceadb	-0.004300458
147	0x3bd5d6e1	0.0065258597
148	0xba42985b	-0.00074232154
149	0x3c62f75f	0.013852923
150	0xbc1e2510	-0.009652391
151	0xbbe7940d	-0.0070672096
152	0x3aeb9972	0.0017974807
153	0xba6c9030	-0.0009024171
154	0x3b909d5a	0.004413289
155	0x3b1fd2a5	0.0024387029
156	0xbc109615	-0.008824845
157	0xbbdba81f	-0.006703391
158	0x3c00bd45	0.007857625
159	0x3bdef797	0.0068044174
160	0x3ba48329	0.0050205183
161	0x3c3f9660	0.011693567
162	0x3c3c7e0b	0.01150466
163	0xbbf0852d	-0.0073400945
164	0xbc0dcd01	-0.008654834
165	0xbc035a49	-0.008017131
166	0x3b228808	0.002480032
167	0x3b865c1c	0.0041003358
168	0x3a29a6e7	0.0006471709
169	0xbb2e743b	-0.0026619572
170	0xb9790e81	-0.00023751894
171	0x3c327c1e	0.01089385
172	0x3b6c97b2	0.003610116
173	0xbb3890df	-0.0028162522
174	0x3be4ed37	0.006986286
175	0xbb98ae8a	-0.0046594786
176	0x3bcd883f	0.0062723453
177	0xbba0dea9	-0.0049093557
178	0x3b99332c	0.0046752896
179	0x3babdaa6	0.005244571
180	0xbb7cb97f	-0.0038562713
181	0xbb8da20f	-0.0043222974
182	0x3b2c1415	0.0026257087
183	0x39ce5cb8	0.00039360463
184	0x3ac7733c	0.0015216838
185	0xbc3816b3	-0.011235881
186	0x3c1b452c	0.009476941
187	0xb99b43bf	-0.0002961438
188	0x3bd8e26e	0.0066187894
189	0xbbca415c	-0.006172342
190	0x3aec4dbb	0.0018028537
191	0xbb2b709e	-0.0026159654
192	0xbc003250	-0.007824495
193	0xbb829eb1	-0.0039862026
194	0x3b5d9494	0.0033810483
195	0xbc005744	-0.007833306
196	0x3c265534	0.01015215
197	0x3bf19551	0.007372536
198	0xbc20b9d5	-0.009809931
199	0x3bdd1246	0.006746563
200	0x3aafd626	0.0013415262
201	0x3aa716c2	0.0012747871
202	0x3c368fdb	0.011142696
203	0xbba7bffd	-0.0051193223
204	0x3bcd91d5	0.006273488
205	0x3b99a657	0.0046890187
206	0xbc67cffe	-0.01414871
207	0x3b083a53	0.0020786717
208	0x3b7fab13	0.003901188
209	0x3c6e3aa9	0.014540353
210	0xbbcae1a2	-0.0061914483
211	0x3bb7b40a	0.005606179
212	0xbc02312e	-0.007946296
213	0xbb019ea3	-0.0019778393
214	0x3b9bf562	0.0047594765
215	0xbbf357db	-0.0074262447
216	0xbbc6f8e3	-0.00607215
217	0x3be28333	0.006912613
218	0xbc3d5fbe	-0.011558471
219	0x3c436403	0.0119257
220	0x3c3bdda0	0.011466414
221	0x3baf399e	0.0053474447
222	0xbb6cb734	-0.003611994
223	0x39117ca9	0.00013874717
224	0x3bbcf479	0.005766448
225	0xbbf46dab	-0.0074593625
226	0xbb1439cc	-0.0022617457
227	0x3ba56c7a	0.005048332
228	0x3c6d7fd9	0.014495813
229	0x3b862760	0.0040940493
230	0x3b59f61c	0.0033258265
231	0x3bf11295	0.0073569515
232	0x3c1906d6	0.009340009
233	0x3c51c69d	0.012803701
234	0x3a50c8ce	0.00079644925
235	0x3b16e23e	0.0023023034
236	0x3b5074aa	0.0031807818
237	0xbc12f230	-0.008968875
238	0xbba279df	-0.004958376
239	0xbb8e30cf	-0.0043393145
240	0xbba7adb7	-0.005117144
241	0x3beb7347	0.007185373
242	0x3a06b06c	0.0005137983
243	0xbc0d5317	-0.008625767
244	0xbbbcd466	-0.0057626246
245	0x3b5c1cb3	0.0033586442
246	0xbbf99028	-0.0076160617
247	0xbbf7a89d	-0.007557942
248	0x3b94c1f6	0.0045397235
249	0xbb7674ee	-0.0037606317
250	0xbb9d7409	-0.0048050922
251	0xbc1e19e3	-0.009649727
252	0x3c0f59d1	0.008749441
253	0x3b9116e0	0.0044277757
254	0xbae1e9f1	-0.0017235858
255	0x3b8823d6	0.0041546626

action_model._continuous_distribution.log_sigma f4 [1, 5]
0	0x3d0b1178	0.033952206
1	0x3d41f664	0.047354117
2	0x3daaca4a	0.08339365
3	0xbc14b271	-0.009075747
4	0xbc7c2970	-0.015390739

action_model._continuous_distribution.mu.weight f4 [5, 256]
0	0xbcaf2d45	-0.02138389
1	0xbc7e4cb7	-0.01552122
2	0xbce8759a	-0.02837639
3	0xbcd65d0b	-0.026167413
4	0xbc23f2f1	-0.010006652
5	0x3c551e6d	0.013007742
6	0xbc969b76	-0.018384676
7	0x3bda768e	0.006666965
8	0x3c837808	0.016048446
9	0xbc5425e1	-0.012948484
10	0xbbfb7359	-0.0076736626
11	0xbcb13848	-0.021633282
12	0x3c393415	0.011303921
13	0xb9eed723	-0.00045555187
14	0xbc76e819	-0.015069985
15	0x3b8eb4b8	0.0043550394
16	0xbd359e59	-0.044340465
17	0x3bc9e8e9	0.0061617983
18	0x3c0b50d0	0.008503154
19	0xbd1b5943	-0.037926923
20	0xbac88cf0	-0.0015300792
21	0xbd12c417	-0.035831537
22	0x3ca161f2	0.019700024
23	0xbc4c9616	-0.012486955
24	0xbb484163	-0.0030556552
25	0x3b726ad8	0.0036989953
26	0xbbfbb379	-0.007681307
27	0xbc218b93	-0.009859937
28	0x3c1d4244	0.0095983185
29	0xbc6db151	-0.014507608
30	0xbb6521f1	-0.0034962858
31	0x3a8192be	0.0009885652
32	0x3c3ab375	0.011395325
33	0x3c835594	0.016032018
34	0xbcd888c2	-0.026432399
35	0xbcdb3b1f	-0.02676159
36	0x3c149226	0.009068048
37	0xbc3dac12	-0.011576669
38	0x3cc6aa31	0.024251075
39	0x3c818a0b	0.015812894
40	0xbc8b8068	-0.017029002
41	0xbc3fb6d7	-0.011701307
42	0xbd12d8ed	-0.035851408
43	0x3bd64a92	0.006539651
44	0xbd058cc2	-0.03260494
45	0xbc133dda	-0.0089869145
46	0x3ccc617a	0.024948824
47	0xbcf2e3d9	-0.029649662
48	0xbd0bc52b	-0.03412358
49	0xbc0425fe	-0.008065699
50	0xbbc1338c	-0.0058960374
51	0x3c7d0ead	0.0154453935
52	0x3c3fb1ca	0.011700103
53	0xbb9566d6	-0.004559378
54	0xbc88860f	-0.016665487
55	0xbcb1a0e2	-0.02168316
56	0x3c171f33	0.009223747
57	0xbbd3179a	-0.0064420225
58	0x3c3d3bd7	0.011549911
59	0xbb9a6382	-0.0047115693
60	0xbbf83257	-0.0075743604
61	0x3bc92fa7	0.006139714
62	0x3cf39826	0.029735636
63	0x3d26f9a3	0.040765416
64	0xbc785def	-0.015159114
65	0xbc155a6b	-0.009115796
66	0x3a86e030	0.0010290202
67	0xbc6b267f	-0.01435244
68	0x3c830ad0	0.015996367
69	0xbd257046	-0.040390275
70	0xbce47ea5	-0.02789242
71	0x3cb1c25f	0.021699129
72	0x3c0fb77d	0.008771774
73	0x3c9a4d06	0.018835556
74	0xbcc7b657	-0.024378939
75	0xbc900413	-0.017580068
76	0xbc82e733	-0.015979385
77	0x3c8d687b	0.017261734
78	0xbc12a11a	-0.008949542
79	0xb8a4247a	-7.826924e-05
80	0xbc11bb96	-0.008894822
81	0xbd2966b8	-0.041357726
82	0x3cdf64c0	0.027269721
83	0xbb6db6b1	-0.0036272223
84	0xbc8b668e	-0.017016675
85	0x3cc79a31	0.024365516
86	0xbb3f1fe8	-0.0029163305
87	0x3c10264b	0.008798192
88	0xbc3d7b4e	-0.011565043
89	0x3cb002be	0.021485683
90	0x3cc8989c	0.024486832
91	0xbbfa65d7	-0.007641535
92	0xbc8726a2	-0.016497914
93	0xbc523e56	-0.012832245
94	0xbb92ea00	-0.0044834614
95	0x3d0917de	0.033470027
96	0x3c89447d	0.01675629
97	0xbc62cdd8	-0.013843022
98	0xbce6a630	-0.028155416
99	0xbb8838ec	-0.0041571762
100	0xbc990166	-0.018677425
101	0xbc334371	-0.010941372
102	0xbbcdf1eb	-0.0062849424
103	0x3ce8e7f1	0.02843091
104	0x3c0e05c1	0.008668364
105	0x3c2e1650	0.010625437
106	0xbc494900	-0.012285471
107	0x3cc41ce9	0.023939567
108	0x3cead0e4	0.02866406
109	0xbcc4f9e8	-0.024044946
110	0xbc41ee97	-0.011836669
111	0x3cd2e4ee	0.025743928
112	0x3c1c385d	0.009534922
113	0x3c108a8d	0.008822096
114	0xbcdb877f	-0.026798008
115	0xbc317a52	-0.010832386
116	0xbb3ddb6a	-0.0028969892
117	0x3c08146e	0.008305652
118	0x3c738906	0.014864212
119	0x3cc246e2	0.02371544
120	0x3c1a13f2	0.009404169
121	0xbb9e7cdb	-0.0048366613
122	0x3c0be21d	0.008537796
123	0xba5028e5	-0.0007940664
124	0x3bdd3a73	0.0067513525
125	0x3c1e66d0	0.009668067
126	0xbba11917	-0.004916321
127	0x3ba167b8	0.0049256943
128	0xbd069cab	-0.032864254
129	0xbd0abc5e	-0.033871047
130	0x3be7f4fb	0.0070787645
131	0xbc61d1e7	-0.013782955
132	0x3c8edc42	0.017439011
133	0xbca81bbe	-0.020521041
134	0x3a5f6160	0.0008521285
135	0xbca86276	-0.020554762
136	0xbc8f312e	-0.017479505
137	0x3bb7d4df	0.005610093
138	0x3cb2fc2c	0.02184876
139	0x3cc40f8c	0.023933195
140	0x3d76f464	0.060291663
141	0x3d0dd085	0.034622688
142	0xbc25417f	-0.010086416
143	0x3c39a9c1	0.011331976
144	0x3c94452d	0.018099392
145	0xbc746aae	-0.014918013
146	0xbc1cb041	-0.009563507
147	0x3c2c3d7a	0.010512704
148	0x3c0cb9c6	0.008589214
149	0x3c0bd8b5	0.008535554
150	0xb9a943b6	-0.0003228464
151	0xbcf14efa	-0.029456604
152	0xbb55b178	-0.0032607
153	0x3c99751b	0.018732598
154	0xbd3b7a0c	-0.04577069
155	0x3c3e309c	0.011608269
156	0x3c88b40a	0.016687412
157	0xbc522c6f	-0.012827977
158	0x3b8b01b7	0.004242148
159	0xbd20418e	-0.039125018
160	0x3d5c6841	0.05381036
161	0x3c9eb30c	0.019372486
162	0xbc6b9e6f	-0.014381035
163	0x3cf041e8	0.029328302
164	0xbd25ef5e	-0.04051148
165	0xbcac00f3	-0.020996546
166	0x3d392e0b	0.045209926
167	0xba748565	-0.00093277387
168	0x3b8c992f	0.004290722
169	0xbc3f9a92	-0.011694567
170	0xbc8edd4b	-0.017439505
171	0xbd12391a	-0.035698988
172	0xbbdb1f4a	-0.0066870796
173	0x3b86a29e	0.004108741
174	0x3ccb7d40	0.024839997
175	0x3ca8cd07	0.020605577
176	0x3bd44f99	0.0064792153
177	0xbc2556d9	-0.010091507
178	0x3d3dad5b	0.046307903
179	0xbc5710bf	-0.013126551
180	0x3c98c5d8	0.018649027
181	0x3b2362bb	0.0024930674
182	0x3cdb77b0	0.02679047
183	0x3a76abf9	0.0009409781
184	0xbce074ec	-0.027399503
185	0xbcd0bf34	-0.025481798
186	0x3dbd3124	0.092378885
187	0xbc8ea078	-0.017410502
188	0xbbe5f194	-0.0070173237
189	0x3c333418	0.010937713
190	0xbca3564f	-0.019938616
191	0xb9d2b544	-0.00040189375
192	0xbc0fac67	-0.008769131
193	0xbbc097c3	-0.0058774664
194	0x3cc026ce	0.023456004
195	0xbc850280	-0.016236544
196	0x3d4503b3	0.04809923
197	0xbc1c1a37	-0.0095277345
198	0xbb9dc4fc	-0.004814742
199	0xbc0a674c	-0.008447479
200	0xbca834c0	-0.020532966
201	0xbcb045b5	-0.021517614
202	0x3d0267e8	0.031837374
203	0x3babf549	0.005247746
204	0x3d2018ea	0.03908626
205	0xbd02bd41	-0.031918768
206	0xbc98dbf6	-0.018659573
207	0x3ce42b14	0.027852573
208	0xbab1e065	-0.0013570903
209	0x3c99a430	0.018755049
210	0xbb4a52a5	-0.0030872014
211	0xbc86ff40	-0.016479135
212	0x3ba723e9	0.0051007164
213	0x3c81ced1	0.015845688
214	0xbc85a02f	-0.016311733
215	0x3b92c927	0.0044795456
216	0x3c746f6e	0.014919145
217	0x3c5ea1af	0.013588353
218	0xbcce1ec0	-0.025161147
219	0x3cf61318	0.030038401
220	0x3ce8e1fe	0.028428074
221	0x3c4e190c	0.012579214
222	0x3c533640	0.012891352
223	0x3b9ff36b	0.0048813126
224	0xbc0f388d	-0.00874151
225	0x3bab5fb4	0.0052299146
226	0x3ccb9d2c	0.024855219
227	0xbc6a702a	-0.014308969
228	0xbba5d14e	-0.0050603515
229	0xbce8cc1d	-0.028417641
230	0xbb5f4741	-0.003406957
231	0xbbd61aa0	-0.0065339357
232	0xbd3568f7	-0.044289555
233	0x3b9e1070	0.004823737
234	0xbb80c0cc	-0.003929233
235	0xbc92b64e	-0.017909195
236	0x3d4d0747	0.05005577
237	0xbc94afdf	-0.018150268
238	0xbc9c62fa	-0.019090164
239	0xbc9129d2	-0.017720137
240	0x3c463b77	0.012099138
241	0xbafc1166	-0.0019231259
242	0xbc8767e3	-0.01652903
243	0x3c8ae8f6	0.016956788
244	0xb95aad3e	-0.00020854638
245	0xbcffad67	-0.031210614
246	0xbd30d2a7	-0.043169644
247	0x3b9e681f	0.0048341895
248	0x3d15b73e	0.036551706
249	0x3bd086ae	0.0063637113
250	0xbc06439e	-0.008194832
251	0x3afcfd5a	0.0019301579
252	0x3caf411f	0.021393357
253	0x3c6c9b23	0.014441284
254	0x3c444cc2	0.011981191
255	0x3c33ea7e	0.0109812

action_model._continuous_distribution.mu.bias f4 [5]
0	0x3bc3706b	0.005964329
1	0xbb5825b8	-0.0032981467
2	0xbaa6d5d6	-0.0012728523
3	0x3ca0dff4	0.01963804
4	0x3b13f9aa	0.0022579231
