configfiles/results/hb_05/Hummingbird/Hummingbird-2499968.onnx (onnx, 401856 bytes, 7 tensors)

network_body._body_endoder.seq_layers.0.weight f4 [256, 125]
0.08862553 0.028767202 0.09484921 0.13665567 -0.19068119 0.16287561 -0.03350659 -0.039004304
0.01901162 0.20417352 0.24414414 0.005419112 -0.01302467 0.116650425 -0.042809874 -0.060009997
-0.016128307 -0.03547627 0.022631057 0.088678926 -0.06482212 0.041818243 0.06929414 -0.14114816
-0.03126607 -0.02147878 0.06704316 0.07646633 -0.012289136 0.2828274 0.15522823 0.16984737
0.016395863 -0.049000837 -0.0129328845 -0.080956295 -0.042865634 0.083091564 -0.053443458 -0.13834491
-0.11872348 0.17941682 -0.06686574 -0.13072906 0.00038971315 -0.11440594 -0.010000452 0.031696428
0.011295378 0.016158953 -0.18497385 0.056221373 -0.115396164 0.059882823 -0.102005765 0.10772928
-0.03365319 -0.00034647027 -0.06918416 -0.01157748 -0.028144494 -0.11564967 0.05930542 -0.057995394
-0.03819224 -0.030341059 -0.05649766 0.0963341 -0.13345946 -0.007437906 -0.13866127 -0.11146573
-0.1145127 -0.040770244 0.009421452 0.0020136628 0.11643631 0.10618881 0.0023946818 0.080442116
-0.032397408 0.1587892 -0.040551946 0.041913573 0.014546232 0.012537403 -0.016914954 0.08255389
-0.14807935 -0.13710412 0.17278808 -0.11956974 -0.042191356 -0.00064231583 0.015914058 -0.05597799
0.09194469 0.098142505 -0.08390219 -0.051899444 0.12136472 -0.02969772 -0.06177096 0.16362709
-0.052684266 0.107704766 -0.028858054 0.19753698 -0.06090991 0.055281535 -0.21691729 0.0990871
0.041773614 0.08952433 0.04437204 0.027638998 -0.09792628 0.059896655 -0.010721845 -0.17167653
0.014532284 -0.121930316 0.07737446 -0.017437471 0.082486466 -0.16012245 0.049550153 0.1931412
0.020109199 0.042375788 0.16209532 0.023450773 0.2030579 0.010624538 -0.022645824 0.07515532
-0.0010867077 0.0044665444 -0.04305557 -0.015251643 0.06531657 0.14354193 -0.04757952 -0.07711116
0.036295306 0.007683047 -0.028307611 0.11177865 0.049064707 0.08157277 0.09351974 -0.024804825
-0.17563331 0.12643151 0.038067464 0.25157964 -0.009786994 -0.05088501 0.15099353 0.007941575
0.009402233 0.011501106 0.07740518 -0.13309853 -0.0045977677 -0.05772727 -0.16250172 0.019758496
0.056534097 -0.06197135 -0.022409767 0.101073295 0.016988462 -0.04313571 0.063380696 0.024460841
0.107573316 -0.08706912 -0.066046365 0.013045709 -0.08884634 0.004021769 0.07712573 0.077331096
0.020131303 0.027524233 0.06998325 0.122210495 -0.0050679394 -0.0023013488 -0.025612209 -0.036814373
0.027516954 0.010412421 0.077650785 0.010721135 -0.098675765 0.023436345 0.07413015 0.07338726
-0.06819962 -0.014732895 -0.015292613 0.04606655 -0.05305394 -0.045562744 0.06028611 -0.05270245
-0.015944852 0.005445399 -0.06864582 0.01028763 0.026613925 -0.012708317 0.03398546 0.04304453
-0.004627017 0.05027354 0.026483417 -0.07988669 0.11776181 -0.024499642 0.018190663 -0.03959973
0.071236596 -0.01611388 -0.09743108 -0.10477814 -0.18692276 0.047759622 -0.05486927 0.06918997
0.25014916 -0.061680008 0.047494844 -0.09577905 0.05500847 0.034974422 -0.09699599 -0.019049883
0.002217778 -0.009974805 -0.113921665 -0.045926332 -0.08351397 -0.1347751 0.065012775 0.060592245
-0.18262553 0.24545625 0.08210296 0.024312899 -0.071694456 -0.067584015 0.04618517 -0.041357227
00000000: 4d81 b53d 32a9 eb3c 4d40 c23d 77ef 0b3e
00000010: ee41 43be ddc8 263e 353e 09bd fac2 1fbd
00000020: 42be 9b3c dd12 513e ec00 7a3e ce92 b13b
00000030: 6d65 55bc 6be6 ee3d 6859 2fbd 0bcd 75bd
00000040: 831f 84bc 914f 11bd c464 b93c 4c9d b53d
00000050: 76c1 84bd 9b49 2b3d 16ea 8d3d 2589 10be
00000060: da10 00bd 44f4 afbc ed4d 893d 619a 9c3d
00000070: 5f58 49bc c1ce 903e 26f4 1e3e 78ec 2d3e
00000080: 9e50 863c 1ab5 48bd 73e4 53bc 6acc a5bd
00000090: e093 2fbd e92b aa3d 87e7 5abd 4aaa 0dbe
000000a0: 4c25 f3bd 0bb9 373e e8f0 88bd d7dd 05be
000000b0: 6a52 cc39 a94d eabd f0d8 23bc 1dd4 013d
000000c0: 4010 393c c85f 843c c969 3dbe 6248 663d
000000d0: d354 ecbd b147 753d 66e8 d0bd 2ba1 dc3d
000000e0: edd7 09bd 74a6 b5b9 6db0 8dbd 78af 3dbc
000000f0: 488f e6bc bcd9 ecbd 3dea 723d 948c 6dbd
00000100: 776f 1cbd d08d f8bc 176a 67bd d04a c53d
00000110: 99a9 08be aeb9 f3bb 38fd 0dbe 2548 e4bd
00000120: a285 eabd b3fe 26bd 6f5c 1a3c a8f7 033b
00000130: 2976 ee3d 8579 d93d 18f0 1c3b d6be a43d
00000140: 25b3 04bd a399 223e cc19 26bd 91ad 2b3d
00000150: 5253 6e3c ae69 4d3c 3b91 8abc 0412 a93d
00000160: 1da2 17be 0665 0cbe 5cef 303e fbe0 f4bd
00000170: d8d0 2cbd 1661 28ba 335e 823c 2d49 65bd
00000180: 7f4d bc3d f0fe c83d e9d4 abbd 8394 54bd
00000190: 118e f83d a248 f3bc 8c03 7dbd dc8d 273e
000001a0: 75cb 57bd 5194 dc3d ba67 ecbc 2247 4a3e
000001b0: ab7c 79bd e46e 623d 911f 5ebe 2dee ca3d
000001c0: cf1a 2b3d 8858 b73d 75bf 353d 2e6b e23c
000001d0: 938d c8bd 3256 753d adaa 2fbc f9cb 2fbe
000001e0: d118 6e3c 9ab6 f9bd 8076 9e3d 07d9 8ebc
000001f0: aaee a83d 24f7 23be 1af5 4a3d cfc6 453e
00000200: 0cbc a43c 3c92 2d3d 51fc 253e d61b c03c
00000210: 69ee 4f3e 8b12 2e3c bc83 b9bc 08eb 993d
00000220: dc6f 8eba 175c 923b 0a5b 30bd 07e2 79bc
00000230: b2c4 853d a8fc 123e bee2 42bd 75ec 9dbd
00000240: 63aa 143d 12c2 fb3b 5de5 e7bc 34ec e43d
00000250: 13f8 483d a00f a73d 4787 bf3d 7d33 cbbc
00000260: 38d9 33be 4377 013e a1ec 1b3d 0ccf 803e
00000270: a159 20bc cd6c 50bd 0c9e 1a3e 611d 023c
00000280: d30b 1a3c 236f 3c3c 9b86 9e3d fb4a 08be
00000290: dfa8 96bb 6e73 6cbd da66 26be 92dc a13c
000002a0: 4c90 673d acd5 7dbd b094 b7bc 84ff ce3d
000002b0: 632b 8b3c 12af 30bd bdcd 813d 1a62 c83c
000002c0: 664f dc3d 4b51 b2bd 5143 87bd abbd 553c
000002d0: 12f5 b5bd 0bc9 833b 18f4 9d3d c45f 9e3d
000002e0: 67ea a43c 807a e13c 6153 8f3d 7f49 fa3d
000002f0: f510 a6bb 3ad2 16bb b2d0 d1bc abca 16bd
00000300: 3c6b e13c dc98 2a3c 6007 9f3d b3a7 2f3c
00000310: 8516 cabd 94fd bf3c 8cd1 973d 0f4c 963d
00000320: 3eac 8bbd 3e62 71bc de8d 7abc 47b0 3c3d
00000330: 174f 59bd 00a0 3abd 91ee 763d 86de 57bd
00000340: c79e 82bc 516f b23b 2e96 8cbd 738d 283c
00000350: 7205 da3c 8b36 50bc 5634 0b3d 764f 303d
00000360: 3b9e 97bb a1eb 4d3d c0f3 d83c a29b a3bd
00000370: 1b2d f13d 79b3 c8bc 9604 953c 5433 22bd
00000380: 7ee4 913d 4101 84bc f289 c7bd ec95 d6bd
00000390: ae68 3fbe 989f 433d 9abe 60bd 79b3 8d3d
000003a0: 8d13 803e 2da4 7cbd f489 423d ce27 c4bd
000003b0: 9050 613d 5741 0f3d d5a5 c6bd 800e 9cbc
000003c0: 2458 113b 5d6d 23bc c34f e9bd 401d 3cbd
000003d0: 5f09 abbd 7c02 0abe 6b25 853d 932f 783d
000003e0: 3002 3bbe e258 7b3e 9925 a83d d82b c73c
000003f0: 8bd4 92bd 7d69 8abd a92c 3d3d 3266 29bd

network_body._body_endoder.seq_layers.0.bias f4 [256]
0.006197425 0.0006942599 -0.00074195326 -0.008253237 0.010529201 0.012587023 0.0026156455 -0.0070493645
-0.0021329557 0.0070522754 -0.0054955985 0.025490867 -0.014351426 -0.0021121264 -0.00031186006 -0.004616174
-0.01213331 -0.0028905051 0.015736328 0.0025941047 0.009159231 -0.010650865 -0.00013475688 -0.0036557978
0.0054409504 0.0014642188 -0.0018854119 -0.019465877 -0.0011199473 -0.00063085963 0.006778029 -0.0019493743
-0.0064540096 0.017802337 -0.0050550806 -0.021203505 0.011254606 0.009973363 0.003302474 0.00046887557
0.001790446 0.0055636493 0.006982304 0.00042589207 0.0013905715 0.0105082495 -0.0010606564 0.0031015598
-0.015540632 0.0016271443 0.013359078 0.01850029 -0.0017783112 0.019135669 -0.0048029344 -0.0045093955
0.014782654 -0.005913811 0.017271278 -0.0023409936 0.008851396 0.007732293 -0.012220437 0.014110729
0.0076073674 0.008072907 -0.00061675854 0.0023238831 -0.0053569246 -0.012143443 0.007990379 0.0017322975
0.011514033 -0.010096464 0.01301931 0.0063873976 0.011853547 0.013964454 0.00016764645 0.013475636
-0.0032619098 0.02084933 0.005602265 0.0014963392 -0.011568448 0.010597675 -0.0075493064 0.029895764
-0.0018946544 -0.006180778 0.0073983427 -0.005085175 0.015489655 0.015479719 0.006815488 0.012692932
0.0035529286 -0.0009092629 -0.009636409 -0.002791862 -0.0005095482 -0.00062283326 0.0075124227 0.009918884
-0.009237008 0.0028271375 -0.0046962686 -0.008873468 0.0018425623 0.011000594 0.0012268521 -0.010087804
-0.010129925 0.0053635733 -0.026266672 0.0059590354 -0.006334555 -0.006173631 0.0056588063 0.0014416752
0.015750118 0.0076664514 0.014162703 0.0039327573 0.0036902486 0.00022967132 0.011228078 0.0013656247
0.0044837715 -0.00029450006 -0.0087503735 0.013793901 -0.010531713 0.0027612657 0.009196002 -0.010288113
-0.013097665 -0.00809521 -0.015634358 0.0015627621 0.018664671 0.023408711 0.0030430565 0.005977398
-0.014976524 -0.0036365374 0.030155325 0.021858122 0.0019156246 -0.012321294 -0.010257467 0.017353917
0.0074079554 0.009775158 0.0021037431 -0.0014729655 0.010792777 0.0048521333 -0.011393162 0.0151224835
-0.005245297 0.011040448 -0.008453827 0.00058773084 -0.0049415836 0.015588665 0.0120741315 -0.0055411044
0.0037701877 0.03645112 -0.008052129 0.009779711 0.00033969706 -0.0023245178 -0.006483776 -0.0014068197
-0.012838684 -0.012753355 0.014505985 -0.005673971 -0.00077513256 -0.00510087 0.010670876 0.0028349354
-0.009742762 -0.009289211 0.002021119 -0.0056898226 0.0048762443 0.007484014 0.013036849 -0.01692924
0.0031183457 0.0053819073 0.0047143414 0.0027087922 -0.004444614 -0.0013037416 0.010464944 0.020641236
-0.0017951101 -0.008525102 -0.0044578137 -0.0084661385 -0.007404303 0.00053366413 0.014654205 -0.0018970013
-0.009034957 0.0064203814 0.008360226 -0.000735091 0.00607216 0.0009450599 -0.0023145527 0.016577601
-0.006525281 0.0037266738 -0.0007036755 0.001966202 0.002864239 0.013771442 0.0053501767 0.005699964
0.013640604 -0.0027340718 -0.011467893 0.0076155225 0.00072640425 0.011707949 0.005515451 0.0016774202
0.022147017 0.015688967 0.0048071924 0.0082562035 0.012503108 0.0015836253 0.0050960025 -0.0048925225
0.010613836 0.0022079905 -0.010737218 -0.00665611 0.0041238866 -5.6305184e-05 0.014451266 -0.008067771
0.010935842 0.013169386 -0.01016988 -0.0058382065 0.003915181 0.0021792897 0.004356624 0.00044646123
00000000: c513 cb3b fefe 353a a47f 42ba 9638 07bc
00000010: ab82 2c3c cd39 4e3c 406b 2b3b 5bfe e6bb
00000020: 0fc9 0bbb c616 e73b 6c14 b4bb 39d2 d03c
00000030: 3e22 6bbc 9a6b 0abb 2681 a3b9 4643 97bb
00000040: caca 46bc a16e 3dbb 79e9 803c db01 2a3b
00000050: 9910 163c f780 2ebc 864d 0db9 1c96 6fbb
00000060: 004a b23b 08eb bf3a ed1f f7ba e776 9fbc
00000070: 32cb 92ba 4660 25ba 3a1a de3b 2682 ffba
00000080: 287c d3bb 35d6 913c 17a5 a5bb f9b2 adbc
00000090: 3d65 383c 5167 233c 526e 583b 6ad3 f539
000000a0: 66ad ea3a 464f b63b d0cb e43b 444a df39
000000b0: d643 b63a cb2a 2c3c b905 8bba 8a43 4b3b
000000c0: 239e 7ebc e745 d53a 09e0 5a3c ec8d 973c
000000d0: 3916 e9ba 68c2 9c3c ef61 9dbb 8dc3 93bb
000000e0: f232 723c a4c8 c1bb 7f7c 8d3c 5b6b 19bb
000000f0: 7205 113c 2d5f fd3b 3a38 48bc b030 673c
00000100: 3947 f93b 3a44 043c f7ad 21ba 4a4c 183b
00000110: 2489 afbb 4bf5 46bc 14ea 023c 420e e33a
00000120: 5ba5 3c3c a46b 25bc f24e 553c 604d d13b
00000130: 6135 423c 2acb 643c 40ca 2f39 eac8 5c3c
00000140: c4c5 55bb 37cc aa3c 3493 b73b d020 c43a
00000150: 9689 3dbc dfa1 2d3c 2c60 f7bb f6e7 f43c
00000160: 0d56 f8ba 2088 cabb cc6d f23b 8aa1 a6bb
00000170: 52c8 7d3c a69e 7d3c 7554 df3b 04f6 4f3c
00000180: 40d8 683b 9a5b 6eba 07e2 1dbc acf7 36bb
00000190: 3393 05ba a245 23ba c52a f63b d182 223c
000001a0: d256 17bc 7f47 393b 28e3 99bb 0662 11bc
000001b0: 2282 f13a d63b 343c 53ce a03a 5147 25bc
000001c0: fcf7 25bc eac0 af3b 342d d7bc 0344 c33b
000001d0: 1992 cfbb 2c4c cabb 826d b93b 98f6 bc3a
000001e0: 6406 813c db36 fb3b af0a 683c 5cde 803b
000001f0: 19d8 713b edd3 7039 f9f5 373c c3fe b23a
00000200: 9aec 923b 2167 9ab9 ba5d 0fbc d0ff 613c
00000210: 358d 2cbc 5af6 343b d4aa 163c 798f 28bc
00000220: 9797 56bc c6a1 04bc a013 80bc 98d5 cc3a
00000230: a7e6 983c a0c3 bf3c 046e 473b 0cde c33b
00000240: 1860 75bc f952 6ebb 4d08 f73c ce0f b33c
00000250: b215 fb3a 41df 49bc ef0e 28bc cd29 8e3c
00000260: 6fbe f23b fc27 203c f4de 093b 8510 c1ba
00000270: 30d4 303c a5fe 9e3b 63aa 3abc 4bc4 773c
00000280: bee0 abbb ffe2 343c ec81 0abc f311 1a3a
00000290: 02ed a1bb 9a67 7f3c 94d2 453c 2792 b5bb
000002a0: 4115 773b c54d 153d 14ed 03bc 153b 203c
000002b0: 5e19 b239 f056 18bb db75 d4bb 0965 b8ba
000002c0: 5859 52bc 73f3 50bc 83aa 6d3c b8ec b9bb
000002d0: 4432 4bba 3325 a7bb e6d4 2e3c 53ca 393b
000002e0: 1ba0 1fbc c631 18bc c074 043b b171 babb
000002f0: e7c8 9f3b 763c f53b 8298 553c 31af 8abc
00000300: 295d 4c3b b65a b03b c37a 9a3b fe85 313b
00000310: 20a4 91bb 4fe2 aaba 2875 2b3c cf17 a93c
00000320: e649 ebba dfac 0bbc da12 92bb 8fb5 0abc
00000330: cc9f f2bb 98e5 0b3a 3118 703c cda4 f8ba
00000340: 5b07 14bc 1062 d23b 54f9 083c 1fb3 40ba
00000350: f8f8 c63b e5bd 773a c0af 17bb c0cd 873c
00000360: 06d2 d5bb 363b 743b dd76 38ba 65db 003b
00000370: f5b5 3b3b 9da1 613c 8950 af3b c3c6 ba3b
00000380: d77c 5f3c 1d2e 33bb d4e3 3bbc a28b f93b
00000390: 2a6c 3e3a b3d2 3f3c f5ba b43b e2dc db3a
000003a0: a96d b53c 2686 803c a785 9d3b 0745 073c
000003b0: d6d9 4c3c a691 cf3a 5efc a63b 7451 a0bb
000003c0: a8e5 2d3c efb3 103b 28eb 2fbc 7f1b dabb
000003d0: ab21 873b 3b29 6cb8 01c5 6c3c af2e 04bc
000003e0: 3f2c 333c 69c4 573c 929f 26bc 6d4e bfbb
000003f0: eb4a 803b 6ad2 0e3b 03c2 8e3b 0313 ea39

network_body._body_endoder.seq_layers.2.weight f4 [256, 256]
0.0019765436 0.033297792 0.00055061723 -0.014581242 -0.020028027 -0.044154815 0.042797085 -0.0022154122
-0.009385638 0.024731694 0.058696102 -0.14079005 0.0380398 -0.01782345 0.019891055 -0.14613488
-0.012979297 -0.029079733 0.081214696 0.05767337 0.034213126 -0.010642264 -0.019859958 -0.096350595
-0.0013072453 -0.10944803 -0.035033528 0.047958266 0.043235928 -0.06824164 -0.106396906 0.06671518
0.01011999 -0.00043030866 -0.060327508 -0.0037505806 -0.14998978 0.017655864 -0.10934401 0.03516448
0.06427698 -0.074261926 -0.08751141 -0.0432422 0.0052985833 -0.08821913 -0.07591525 0.03483068
0.03856529 0.033780947 -0.05714176 -0.12976323 -0.032460436 0.06834905 0.06462113 0.06989257
-0.09918621 0.0038043796 -0.08733875 0.048437003 -0.031364005 -0.0974416 -0.01765643 0.042721067
-0.007673746 0.06885944 0.00031432987 -0.11752683 0.13311662 -0.0016627291 0.14774536 -0.03841405
-0.022518596 0.05382963 0.108151145 -0.035801884 0.0045186155 -0.021474766 0.043277442 -0.039368298
0.061912816 -0.034305435 -0.12949407 -0.07015037 -0.037800156 -0.022294588 -0.004990609 0.13571288
-0.058452822 0.019062143 0.049908616 -0.012076228 0.10866145 -0.041554492 0.02360243 0.033401147
0.01832903 -0.052189924 0.1040557 -0.06380609 0.19925255 0.019417617 0.13307397 0.07383848
-0.037064202 -0.076394744 -0.018773295 -0.05888128 -0.0058076438 0.0076504583 0.04084016 0.073340066
0.033449512 -0.05941125 0.03247694 0.06369675 -0.004046914 -0.032560587 -0.0401476 0.03306123
0.06533452 0.081879355 -0.039250772 0.07377451 -0.016001984 0.019545702 0.078012764 -0.05364938
-0.071281314 0.12797706 -0.018329859 0.011387936 0.117065676 0.016864285 0.032942068 0.041392587
0.020880962 0.023111552 0.03269356 -0.09894671 -0.08476291 0.025675792 0.14495893 0.061095294
0.12410582 -0.0213275 -0.05774669 -0.084849276 -0.14231762 0.007040001 -0.06665455 -0.031534106
-0.02073772 0.0006022992 0.032497894 0.021398516 0.021715974 -0.018433243 0.05159096 -0.031392004
-0.039290853 0.0025822907 0.06420205 0.012223149 0.069402605 0.13256055 -0.16798836 -0.046495598
-0.010611944 -0.016489381 0.07380377 -0.10194887 0.15053567 0.014469437 0.03598189 -0.058217015
-0.00019528308 -0.01176295 -0.036399905 0.047070626 -0.0022625702 0.045400076 0.021136122 -0.030739328
0.12066582 0.113481835 0.04826464 0.052252978 0.0059878407 0.0022554374 0.056730025 -0.012190198
0.016850865 -0.14120886 0.13185325 -0.04842341 -0.0014319461 0.010860527 -0.027329706 -0.02516733
-0.015919993 -0.09152072 -0.052731514 0.009683259 0.009018516 -0.049281348 -0.014097273 -0.014448791
0.059730724 -0.079293475 -0.040510893 0.0784819 0.055557795 -0.033637956 -0.012652599 0.05633808
0.058585007 -0.0059763365 -0.06507631 -0.034677893 -0.009758928 0.03606734 0.11785837 0.008243659
-0.0015095306 0.03771307 0.037992854 0.033679806 0.035028286 -0.063921794 0.040084526 0.041848462
-0.06472737 0.015378889 0.054326292 -0.12794954 0.02465464 0.0763312 0.07320276 0.051299512
0.079236746 0.12733743 0.030577602 -0.008192443 0.053007953 -0.013847092 0.0059864516 -0.03389611
0.101114735 0.021328775 0.14218476 -0.046385877 -0.061709452 -0.012518321 -0.09185873 -0.0149873765
00000000: e688 013b 4463 083d 4c57 103a 29e6 6ebc
00000010: d111 a4bc aedb 34bd ff4b 2f3d 7330 11bb
00000020: 38c6 19bc 1f9a ca3c 536b 703d 442b 10be
00000030: 9fcf 1b3d 7c02 92bc 91f2 a23c 62a4 15be
00000040: 1ea7 54bc 9f38 eebc e453 a63d e93a 6c3d
00000050: 1023 0c3d e45c 2ebc 5ab1 a2bc 7653 c5bd
00000060: e057 abba 4a26 e0bd 517f 0fbd e36f 443d
00000070: 2818 313d 46c2 8bbd 9fe6 d9bd f8a1 883d
00000080: 51ce 253c 0d9b e1b9 fa19 77bd 4dcc 75bb
00000090: ec96 19be 08a3 903c c1ef dfbd a108 103d
000000a0: a6a3 833d a316 98bd 2f39 b3bd bc1e 31bd
000000b0: bd9f ad3b 3bac b4bd 7479 9bbd 9daa 0e3d
000000c0: a3f6 1d3d e45d 0a3d 7a0d 6abd a7e0 04be
000000d0: 3cf5 04bd 96fa 8b3d 1558 843d d623 8f3d
000000e0: 2422 cbbd e652 793b a9de b2bd e165 463d
000000f0: 8b77 00bd 768f c7bd 38a4 90bc 49fc 2e3d
00000100: 0c74 fbbb 2e06 8d3d a4cc a439 e8b1 f0bd
00000110: b94f 083e eeef d9ba 8f4a 173e 0d58 1dbd
00000120: eb78 b8bc 757c 5c3d 597e dd3d ffa4 12bd
00000130: e510 943b d9eb afbc b043 313d a740 21bd
00000140: 4b98 7d3d db83 0cbd 189a 04be ffaa 8fbd
00000150: 56d4 1abd 24a3 b6bc 4388 a3bb 51f8 0a3e
00000160: 3a6c 6fbd 3628 9c3c fa6c 4c3d 5fdb 45bc
00000170: e589 de3d 0b35 2abd e259 c13c a4cf 083d
00000180: c326 963c 1ac5 55bd 281b d53d c4ac 82bd
00000190: dc08 4c3e b211 9f3c 8b44 083e a138 973d
000001a0: a2d0 17bd d974 9cbd 74ca 99bc 7f2d 71bd
000001b0: 0c4e bebb b2b0 fa3b 0348 273d 5133 963d
000001c0: 5b02 093d 3659 73bd 8a06 053d 7173 823d
000001d0: fa9b 84bb 405e 05bd cf71 24bd 366b 073d
000001e0: 1bce 853d 5db0 a73d 6bc5 20bd 1717 973d
000001f0: 9816 83bc 4f1e a03c 28c5 9f3d 74bf 5bbd
00000200: f0fb 91bd 6b0c 033e 8028 96bc 7794 3a3c
00000210: 21c0 ef3d f826 8a3c 43ee 063d 468b 293d
00000220: 8d0e ab3c 7054 bd3c afe9 053d 93a4 cabd
00000230: 2d98 adbd 0a56 d23c 1d70 143e 0f3f 7a3d
00000240: 312b fe3d 02b7 aebc cb87 6cbd 75c5 adbd
00000250: b6bb 11be cfaf e63b 2e82 88bd e829 01bd
00000260: 27e2 a9bc 9de3 1d3a 831c 053d f14b af3c
00000270: b3e5 b13c 5001 97bc 0b51 533d e794 00bd
00000280: 72ef 20bd a63b 293b 5d7c 833d 9a43 483c
00000290: f422 8e3d f4bd 073e 2405 2cbe 2b72 3ebd
000002a0: b8dd 2dbc bd14 87bc 6e26 973d 92ca d0bd
000002b0: 0626 1a3e 3811 6d3c bf61 133d f774 6ebd
000002c0: e7c4 4cb9 63b9 40bc 1118 15bd 21cd 403d
000002d0: a147 14bb 6ef5 393d a925 ad3c 0bd1 fbbc
000002e0: a41f f73d 2a69 e83d 25b1 453d 3807 563d
000002f0: a635 c43b f6cf 133b be5d 683d 65b9 47bc
00000300: d30a 8a3c 0e99 10be 8a04 073e a057 46bd
00000310: 23b0 bbba 5af0 313c 8ce2 dfbc b72b cebc
00000320: a56a 82bc 376f bbbd 00fd 57bd 88a6 1e3c
00000330: 66c2 133c 3ddb 49bd 40f8 66bc 9fba 6cbc
00000340: 34a8 743d 9e64 a2bd c0ee 25bd 1ebb a03d
00000350: 9290 633d f4c7 09bd d94c 4fbc c2c2 663d
00000360: d5f6 6f3d 25d5 c3bb ba46 85bd 680a 0ebd
00000370: e9e3 1fbc 59bb 133d bb5f f13d 6910 073c
00000380: 71db c5ba 0579 1a3d 659e 1b3d d6f3 093d
00000390: d279 0f3d 6ee9 82bd ac2f 243d 4b69 2b3d
000003a0: c98f 84bd bcf7 7b3c 3f85 5e3d 3405 03be
000003b0: 87f8 c93c 8853 9c3d 54eb 953d 701f 523d
000003c0: e046 a23d be64 023e e17d fa3c 9939 06bc
000003d0: de1e 593d eade 62bc ff29 c43b a6d6 0abd
000003e0: 3e15 cf3d afb9 ae3c e298 113e 1eff 3dbd
000003f0: 0dc3 7cbd a519 4dbc 6e20 bcbd 9d8d 75bc

network_body._body_endoder.seq_layers.2.bias f4 [256]
0.0019933116 0.001483697 0.004483499 0.0016970246 0.0040052873 0.0024711185 0.00875236 0.008912222
0.0071749645 -0.010161516 0.0027507038 -0.003087012 0.0011422267 -0.009939903 -0.006222434 0.012309989
0.0018930715 -0.0044501307 0.0016041802 0.0070304023 -0.0069849435 0.002952435 0.01536621 -0.000629848
0.0068538287 0.0016052917 -0.0046747928 0.0035547488 -0.002009854 -0.011520025 0.00078408717 0.0023680052
0.004716974 0.0052284435 0.00706121 -0.0005093258 0.0049314965 -0.0011226743 0.0061751497 0.007881996
-0.014078823 -0.009424289 0.0059813983 0.002953353 -0.0031942462 -0.010031783 -0.0004879467 0.0011032341
0.014340599 -0.005348471 -0.0034732416 -0.0038772956 -0.004417439 0.0030012631 -0.003684794 -0.009825426
0.0056150807 0.0017376716 0.011356623 -0.014258644 -0.00950842 -0.002651517 0.004860132 0.0011853968
0.0029424815 0.002505124 0.010748699 -0.01959712 -0.004014223 0.0017968499 -0.008028741 -0.007575211
0.008108355 0.0011229115 0.0053910925 0.004463799 -0.0051895 0.0009877067 0.009664389 0.0082585495
-0.0007283714 -0.0010013493 0.008887919 0.008727493 -0.0027198505 0.0057324967 0.0021408505 0.007857679
-0.0070050308 0.0090073785 -0.006924425 0.0054115225 0.0101328725 0.010514467 0.010144112 -0.0023986276
0.002303731 0.0114193065 0.011787529 -0.0105081415 -0.006309554 0.006542388 -0.004401295 0.00063325174
0.0015900073 0.0030363738 0.0020277773 -0.005055804 0.011835222 -0.003135194 0.009647685 0.01125513
0.01088613 -0.008309592 0.010493079 0.015669826 0.0016825945 0.0013829224 0.00045409953 -0.008132603
0.0061008832 0.007335231 -0.006479736 0.004428465 -0.007260011 -0.0010558921 0.012185118 0.01222114
-0.00013346148 0.0031466517 0.004221615 0.0015364859 0.009130262 -0.0077221678 -0.002270879 -0.0069827964
-0.0154177975 0.0035841053 0.0039661983 0.009343308 0.015024073 0.010439821 -0.005726629 0.0074100727
0.012664562 0.0048290747 -0.0031731727 0.005973155 -0.0020372584 0.014146625 -0.0114962505 -0.0027738789
-0.0005149293 -0.0009171193 0.0044068457 0.0031531455 -0.0077389143 -0.0067815105 0.006618346 0.005880331
0.004497255 0.011115234 0.009365535 -0.005452492 -0.009964785 -0.0051762424 0.0040599173 0.0039013599
0.0014590904 -0.0018916931 -0.001224869 0.012770695 0.003726257 0.00010978698 0.004792072 -0.0029382212
0.0060131815 -0.0049777664 0.0058049313 0.004378985 -0.0002377873 -0.0033552728 0.0026825955 0.0017576637
0.0029289126 -0.011169323 0.009239571 -0.0010022314 0.008061976 -0.007699154 0.0026076192 -0.0026506155
-0.006328923 -0.00010770873 0.00396047 -0.008498435 0.00980116 0.0068663415 -0.005604163 0.005383485
0.0017792063 0.0017608939 0.009500177 0.00077672093 0.005586555 0.0059370766 -0.01177087 0.0038487816
0.0027806603 0.013816182 -0.006248967 0.0055450858 -0.006776913 -0.0016365781 0.0031038858 -0.0054264413
-0.0055086184 0.0071786884 -0.011310742 0.010837842 0.011438679 0.007954073 0.0022155955 -0.0013835569
0.007126107 -0.0051916405 -0.0023205497 0.0038001805 0.014547393 0.0040920577 0.0036330486 0.0046113217
0.008821163 0.013197181 0.00043529374 0.0003268726 0.003414104 -0.008397472 -0.003528501 -0.0050332914
-0.0059744534 0.006095481 -0.0016227941 -0.001345227 -0.004853156 0.0054099304 -0.007149751 -0.0022262493
0.003347111 -0.0065496527 -0.0037261362 -0.005188355 0.008467207 0.005513903 -0.0034608198 0.0021851314
00000000: 38a2 023b 9c78 c23a 51ea 923b b26e de3a
00000010: c93e 833b 7df2 213b 0f66 0f3c 9204 123c
00000020: f71b eb3b 7d7c 26bc 2745 343b 784f 4abb
00000030: c5b6 953a fada 22bc 8fe5 cbbb d6af 493c
00000040: f020 f83a 67d2 91bb 5b43 d23a 4a5f e63b
00000050: f4e1 e4bb a47d 413b 8ec2 7b3c 621c 25ba
00000060: 1596 e03b a768 d23a 012f 99bb caf6 683b
00000070: c1b7 03bb 7dbe 3cbc 338b 4d3a 8930 1b3b
00000080: d990 9a3b 5d53 ab3b b961 e73b 4784 05ba
00000090: 6498 a13b b326 93ba e958 ca3b 7d23 013c
000000a0: ddaa 66bc 5568 1abc 9bff c33b 0b8d 413b
000000b0: 8f56 51bb 595c 24bc 19d3 ffb9 659a 903a
000000c0: d5f4 6a3c 3a42 afbb 539f 63bb 3a1a 7ebb
000000d0: 2ac0 90bb d7b0 443b 967c 71bb d3fa 20bc
000000e0: b6fe b73b 95c2 e33a 2111 3a3c 169d 69bc
000000f0: 34c9 1bbc 13c5 2dbb be41 9f3b 515f 9b3a
00000100: a6d6 403b 022d 243b 501b 303c 248a a0bc
00000110: be89 83bb 4784 eb3a fb8a 03bc 7a39 f8bb
00000120: e8d8 043c a82e 933a c3a7 b03b 0f45 923b
00000130: ae0c aabb f075 813a 6357 1e3c de4e 073c
00000140: 2df0 3eba b53f 83ba a29e 113c c2fd 0e3c
00000150: 853f 32bb abd7 bb3b 834d 0c3b 7fbd 003c
00000160: 758a e5bb af93 133c 49e6 e2bb 2453 b13b
00000170: 5904 263c df44 2c3c 7d33 263c 4b32 1dbb
00000180: 31fa 163b 0b18 3b3c 7b20 413c 572a 2cbc
00000190: 60c0 cebb 8761 d63b bd38 90bb ce00 263a
000001a0: cb67 d03a e6fd 463b 75e4 043b 28ab a5bb
000001b0: 85e8 413c d477 4dbb 5311 1e3c 7067 383c
000001c0: bd5b 323c f424 08bc 2aeb 2b3c 025e 803c
000001d0: 818a dc3a 2d43 b53a 3514 ee39 9c3e 05bc
000001e0: ebe9 c73b 615c f03b f753 d4bb a81c 913b
000001f0: 63e5 edbb dc65 8aba 17a4 473c 2d3b 483c
00000200: cbf1 0bb9 0e38 4e3b 7955 8a3b e963 c93a
00000210: 1897 153c 3d0a fdbb 07d3 14bb f1cf e4bb
00000220: ee9a 7cbc 4fe3 6a3b e2f6 813b ad14 193c
00000230: 8827 763c c80b 2b3c 72a6 bbbb 32d0 f23b
00000240: 067f 4f3c 373d 9e3b 01f5 4fbb 75ba c33b
00000250: 8683 05bb 3fc7 673c c55a 3cbc f7c9 35bb
00000260: 52fc 06ba d66a 70ba 4d67 903b 01a5 4e3b
00000270: b896 fdbb 6f37 debb b6de d83b cbaf c03b
00000280: b65d 933b ac1c 363c e771 193c d1aa b2bb
00000290: 5643 23bc 789d a9bb 0e09 853b f5ad 7f3b
000002a0: f33e bf3a b0f2 f7ba c98b a0ba 2d3c 513c
000002b0: 3834 743b 703d e638 d006 9d3b 2c8f 40bb
000002c0: 390a c53b 881c a3bb 4b37 be3b 977d 8f3b
000002d0: 8b56 79b9 23e4 5bbb 7cce 2f3b 6861 e63a
000002e0: 00f3 3f3b 89ff 36bc 9261 173c 4e5d 83ba
000002f0: 6116 043c 2f49 fcbb 97e4 2a3b f3b5 2dbb
00000300: db62 cfbb afe1 e1b8 d5c6 813b 053d 0bbc
00000310: 0b95 203c 0cff e03b 20a3 b7bb f267 b03b
00000320: 4234 e93a cbcd e63a a1a6 1b3c dc9c 4b3a
00000330: 6c0f b73b cf8b c23b 9bda 40bc d73b 7c3b
00000340: bd3b 363b 445d 623c 22c4 ccbb 8db3 b53b
00000350: de10 debb 7382 d6ba 906a 4b3b 4ad0 b1bb
00000360: a481 b4bb 343b eb3b b150 39bc 3491 313c
00000370: 4c69 3b3c cd51 023c 8633 113b 7758 b5ba
00000380: 1e82 e93b a31e aabb 5d14 18bb 730c 793b
00000390: 3058 6e3c ab16 863b 7118 6e3b 921a 973b
000003a0: a486 103c fd38 583c 2338 e439 1960 ab39
000003b0: 29bf 5f3b 8d95 09bc 6c3e 67bb 4fee a4bb
000003c0: 59c5 c3bb 9abc c73b efb3 d4ba 5452 b0ba
000003d0: 3907 9fbb c945 b13b 7548 eabb 44e6 11bb
000003e0: 345b 5b3b 789e d6bb 3132 74bb 1403 aabb
000003f0: 0aba 0a3c f9ad b43b ecce 62bb 6c34 0f3b

action_model._continuous_distribution.log_sigma f4 [1, 5]
0.032030556 0.046721004 0.07536505 0.0026105698 -0.03286109
00000000: 7932 033d 865e 3f3d fe58 9a3d 1816 2b3b
00000010: 5a99 06bd

action_model._continuous_distribution.mu.weight f4 [5, 256]
-0.026358444 -0.02263864 -0.0336827 -0.022525722 -0.007907432 0.010648275 -0.01896108 -0.0008834242
0.005676073 -0.016952716 -0.006397916 -0.017980706 0.007007105 0.0018066557 -0.018096587 0.0031186554
-0.048718803 0.011983883 0.010454845 -0.041234337 -0.004515589 -0.035477694 0.016318971 -0.012870231
-0.0055031357 0.0050668353 -0.006054485 -0.012195083 0.010826527 -0.017384605 0.0014357227 0.0031894923
0.0099156145 0.014369857 -0.03086353 -0.030282127 0.012847865 -0.014887373 0.028355744 0.019380914
-0.015902339 -0.011916827 -0.046119414 0.016656058 -0.029473674 -0.016305648 0.027733186 -0.029049488
-0.03924728 -0.007365833 -0.0039261356 0.02002843 0.01847297 -0.011001463 -0.021277064 -0.021170167
0.008843849 -0.0035069864 0.0107115 -0.0077400394 -0.006302585 0.0034531595 0.030103408 0.046915304
-0.023010068 -0.012044547 -0.0016496679 -0.012413255 0.018673697 -0.044899464 -0.026017051 0.021974575
0.012836526 0.016316772 -0.026253505 -0.0262831 -0.015174953 0.013721138 -0.01299497 -0.006931238
-0.012873524 -0.047792025 0.027622603 -0.008495168 -0.017848255 0.021951256 -0.0023639512 0.0078756595
-0.011141098 0.020221584 0.02878668 -0.0068619195 -0.018640481 -0.019122818 -0.004102101 0.027579667
0.017241465 -0.012494295 -0.0328377 -0.001912052 -0.017942937 -0.011024993 -0.007388598 0.032042515
0.00782347 0.007261423 -0.011212275 0.02702281 0.027248392 -0.02581404 -0.016208323 0.02574099
0.00744301 0.0056008655 -0.032314707 -0.013546127 -0.0017727861 0.00640541 0.022443077 0.030512255
0.016734788 -0.0046454216 0.009420367 -0.0007483845 0.00073247397 0.009565917 -0.004727867 0.004150031
-0.03642657 -0.035314232 0.0051439963 -0.011439515 0.024638658 -0.020764057 -0.00047693955 -0.018692492
-0.016217671 0.0065170475 0.018127717 0.02388965 0.06516985 0.029157985 -0.012475262 0.012882324
0.022161009 -0.0188862 -0.014176062 0.01252156 0.013198822 0.0066695837 0.0031013323 -0.040914197
-0.007530731 0.02331612 -0.047840275 0.0055154357 0.021026054 -0.013796417 0.0014328994 -0.040087402
0.057876535 0.02070202 -0.019355109 0.02931091 -0.04138258 -0.030692931 0.05028609 -0.0029969218
0.004620787 -0.011858318 -0.017296083 -0.039531294 -0.007275241 0.0016820733 0.026562357 0.024092097
0.0030326925 -0.005125438 0.05382297 -0.012265791 0.019284282 -0.00073274557 0.024815798 0.0004366227
-0.03261952 -0.027998306 0.097156115 -0.025525687 -0.005397494 0.01530382 -0.028385445 -0.0020420235
-0.008361093 -0.002988106 0.020213204 -0.015632618 0.050345536 -0.017220043 -0.0015206404 -0.010724949
-0.020121368 -0.031056792 0.026566567 0.0067183017 0.038535573 -0.04103683 -0.022229241 0.030817302
0.0001255089 0.016148861 -0.0038015358 -0.019419216 0.0023616364 0.01686363 -0.02234651 0.0075247707
0.015584041 0.014868092 -0.03211544 0.03147258 0.028102346 0.016070602 0.016189715 0.00523312
-0.0052529913 0.0066152923 0.029442005 -0.018854193 -0.010930042 -0.029406842 -0.0058401204 -0.008857101
-0.051306967 0.0053053307 -0.009418363 -0.013500768 0.05272247 -0.025494924 -0.018334668 -0.023689352
0.01367542 -0.0063626347 -0.012647465 0.029084789 0.0014249511 -0.036287237 -0.042621534 0.008023231
0.035148907 0.0090138335 -0.00884011 -0.0025946822 0.023110058 0.012016821 0.012083074 0.008803816
00000000: aaed d7bc ab74 b9bc dff6 09bd dd87 b8bc
00000010: 2c8e 01bc 1a76 2e3c 4454 9bbc 9895 67ba
00000020: 5afe b93b 6ce0 8abc 9ca5 d1bb 464c 93bc
00000030: db9b e53b 4ecd ec3a 4b3f 94bc 5b62 4c3b
00000040: 5e8d 47bd 0c58 443c cc4a 2b3c 56e5 28bd
00000050: 82f7 93bb 0f51 11bd 5daf 853c a9dd 52bc
00000060: a653 b4bb b207 a63b b464 c6bb e3cd 47bc
00000070: bf61 313c 296a 8ebc dc2e bc3a cd06 513b
00000080: 1a75 223c 8c6f 6b3c 83d5 fcbc 3912 f8bc
00000090: da7f 523c 2bea 73bc 4e4a e83c b9c4 9e3c
000000a0: 9f45 82bc cc3e 43bc b6e7 3cbd 4972 883c
000000b0: c672 f1bc 6c93 85bc b530 e33c 31f9 edbc
000000c0: c2c1 20bd 165d f1bb d0a6 80bb a912 a43c
000000d0: a054 973c 7b3f 34bc 3d4d aebc 0f6d adbc
000000e0: cbe5 103c 78d5 65bb 4a7f 2f3c 28a0 fdbb
000000f0: ea85 cebb 674e 623b 6c9b f63c 432a 403d
00000100: 9c7f bcbc 7e56 45bc ab39 d8ba f760 4bbc
00000110: 95f9 983c 80e8 37bd b621 d5bc 0604 b43c
00000120: 4b50 523c c0aa 853c 9711 d7bc a84f d7bc
00000130: 5ea0 78bc a0ce 603c dbe8 54bc 701f e3bb
00000140: 79eb 52bc 92c1 43bd cc48 e23c 512f 0bbc
00000150: 8136 92bc 1fd3 b33c 85ec 1abb e908 013c
00000160: 2789 36bc bca7 a53c 0bd2 eb3c f4d9 e0bb
00000170: ecb3 98bc 75a7 9cbc eb6a 86bb c1ee e13c
00000180: f93d 8d3c dfb4 4cbc d380 06bd d29d faba
00000190: 11fd 92bc 2ca2 34bc 0d1c f2bb 033f 033d
000001a0: 032e 003c 3bf1 ed3b b1b3 37bc f15e dd3c
000001b0: 0538 df3c f777 d3bc 51c7 84bc c5de d23c
000001c0: 7ee4 f33b 7787 b73b 6d5c 04bd 93f0 5dbc
000001d0: d55c e8ba 79e4 d13b 8bda b73c d6f4 f93c
000001e0: 6517 893c 9f38 98bb e257 1a3c 3c2f 44ba
000001f0: 7f03 403a 5dba 1c3c 39ec 9abb fcfc 873b
00000200: 0734 15bd a8a5 10bd f88e a83b ce6c 3bbc
00000210: 03d7 c93c 6219 aabc be0d fab9 ff20 99bc
00000220: ecda 84bc f58c d53b 9480 943c 3ab4 c33c
00000230: c577 853d badc ee3c 0b65 4cbc 6210 533c
00000240: 018b b53c 3bb7 9abc b742 68bc 3b27 4d3c
00000250: df3f 583c 868c da3b b93f 4b3b a595 27bd
00000260: 5ac4 f6bb 7301 bf3c 2af4 43bd d4ba b43b
00000270: d53e ac3c 5e0a 62bc 20d0 bb3a b032 24bd
00000280: f20f 6d3d 4897 a93c 9b8e 9ebc 6f1d f03c
00000290: c880 29bd be6f fbbc c9f8 4d3d 0168 44bb
000002a0: f969 973b 6449 42bc 84b0 8dbc 91eb 21bd
000002b0: 2565 eebb 0479 dc3a 4d99 d93c ca5c c53c
000002c0: 23c0 463b 4af3 a7bb 7975 5c3d 75f6 48bc
000002d0: 12fa 9d3c b915 40ba 804a cb3c 82ea e439
000002e0: 0c9c 05bd b45c e5bc c9f9 c63d 3f1b d1bc
000002f0: 76dd b0bb e0bc 7a3c 9888 e8bc 78d3 05bb
00000300: f7fc 08bc 1ad4 43bb 2996 a53c fa0f 80bc
00000310: 1f37 4e3d 0c11 8dbc 3a50 c7ba b2b7 2fbc
00000320: 91d5 a4bc d06a febc 21a2 d93c 3325 dc3b
00000330: 7ad7 1d3d 3c16 28bd 191a b6bc 9174 fc3c
00000340: 0a9b 0339 9e4a 843c 3023 79bb 0c15 9fbc
00000350: afc5 1a3b 9825 8a3c 0710 b7bc 5a92 f63b
00000360: 3554 7f3c 4c99 733c 7b8b 03bd 64e9 003d
00000370: e436 e63c 7fa6 833c 4ba0 843c 987a ab3b
00000380: 4921 acbb 18c5 d83b 5c30 f13c 1c74 9abc
00000390: eb13 33bc 9ee6 f0bc 7b5e bfbb 601d 11bc
000003a0: 4127 52bd 57d8 ad3b 7a4f 1abc 5332 5dbc
000003b0: 84f3 573d bbda d0bc 9632 96bc 2c10 c2bc
000003c0: de0e 603c a67d d0bb 5037 4fbc 3943 ee3c
000003d0: 6dc5 ba3a eda1 14bd eb93 2ebd df73 033c
000003e0: 4df8 0f3d c2ae 133c 1cd6 10bc 8b0b 2abb
000003f0: 4e51 bd3c 33e2 443c 16f8 453c e13d 103c

action_model._continuous_distribution.mu.bias f4 [5]
0.005139502 -0.0051146857 0.0011985293 0.019108659 0.0012345366
00000000: 4569 a83b 1899 a7bb f817 9d3a c389 9c3c
00000010: 2dd0 a13a
