configfiles/results/hb_05/Hummingbird/Hummingbird-999896.onnx (onnx, 401856 bytes, 7 tensors)

network_body._body_endoder.seq_layers.0.weight f4 [256, 125]
0.09424734 0.02891634 0.094058864 0.12818448 -0.19251259 0.15500878 -0.03499787 -0.03900455
0.020465007 0.19620463 0.23794365 0.0044443193 -0.010777213 0.11855748 -0.051141825 -0.051874142
-0.026098905 -0.0366499 0.023174684 0.07960443 -0.06477067 0.035828378 0.075012945 -0.14128463
-0.040371325 -0.011003713 0.056767073 0.0758128 -0.010461721 0.27318248 0.146725 0.16749266
0.018506842 -0.04998412 -0.022196025 -0.0631509 -0.05840531 0.081421204 -0.05149236 -0.14974105
-0.13608074 0.18404955 -0.074567795 -0.13264325 -0.008498063 -0.10261667 -0.020287858 0.021915533
0.011388458 0.0055555096 -0.19796039 0.058867767 -0.12824613 0.0553403 -0.11134318 0.117322505
-0.043894198 -0.01688456 -0.059523717 -0.021796117 -0.029873181 -0.11310686 0.052215118 -0.0726175
-0.047389936 -0.024473425 -0.0616314 0.08487478 -0.12521163 -0.015634503 -0.12846121 -0.11492912
-0.11545521 -0.06384356 0.0008599739 0.017220134 0.10594439 0.095836215 0.008884742 0.071426265
-0.03666056 0.16350493 -0.04222038 0.01938944 0.01221554 0.021586535 -0.021600312 0.0549523
-0.14136715 -0.14432852 0.17843387 -0.12091447 -0.04173876 -0.0016605324 0.01702771 -0.049661703
0.085785344 0.075993076 -0.06606526 -0.06152899 0.119944446 -0.017295642 -0.06179479 0.15700732
-0.05211213 0.11826607 -0.031145275 0.20543726 -0.06797341 0.047016975 -0.22526424 0.10322875
0.050756283 0.08766877 0.045394067 0.054569587 -0.10159304 0.06439238 0.021990262 -0.15673447
0.0069905925 -0.102345854 0.07642816 -0.016688531 0.06904992 -0.15065153 0.041361213 0.20847756
0.010411855 0.02809057 0.14737248 0.02867708 0.20305695 0.0057941345 -0.033942673 0.066630565
0.0027754498 0.0021861359 -0.043172494 -0.026412679 0.06557419 0.13640895 -0.047930185 -0.07935188
0.024811758 0.0058204713 -0.03063186 0.11555585 0.042684097 0.067613974 0.087615 -0.031970076
-0.17464815 0.12700902 0.027431129 0.2429774 -9.035715e-05 -0.060699668 0.14215352 -0.007433632
0.0011467579 0.0069770957 0.078170255 -0.13796066 -0.017273692 -0.07731802 -0.14756043 0.02138662
0.044937328 -0.07834038 -0.02788079 0.09168774 0.028051374 -0.042569168 0.050173324 0.0020312397
0.12055371 -0.08843299 -0.06953923 -0.0064724144 -0.09479453 -0.0063321316 0.09138241 0.07566678
0.004147099 0.0087799225 0.08314951 0.12144278 -0.016644634 -0.020647548 -0.02193925 -0.049946785
0.03192322 0.008533116 0.060304657 -4.719761e-05 -0.08759548 0.04315524 0.057691287 0.05189183
-0.06509732 -0.028154299 -0.013642977 0.0462109 -0.073090516 -0.062464822 0.069901064 -0.040899016
-0.02496938 -0.0172738 -0.056904133 -0.0011074047 0.02302177 -0.019563293 0.0076502217 0.04875361
-0.006821801 0.05719315 0.016367694 -0.10062552 0.12718022 -0.029514303 -0.00205796 -0.05206508
0.03725025 -0.021710915 -0.09267326 -0.08959744 -0.19363278 0.044287495 -0.052162074 0.052331932
0.23867236 -0.055500314 0.037218913 -0.11667764 0.05994256 0.045018427 -0.098364964 -0.02834064
0.020694792 -0.021547936 -0.10098962 -0.032923575 -0.083724104 -0.10662348 0.07245722 0.054281536
-0.18312418 0.20848736 0.068814225 0.025578765 -0.051628046 -0.06464457 0.011677683 -0.05216365
00000000: c004 c13d f6e1 ec3c efa1 c03d cb42 033e
00000010: 0522 45be 9fba 1e3e ed59 0fbd 3cc3 1fbd
00000020: 3ba6 a73c dee9 483e 80a7 733e a7a1 913b
00000030: e892 30bc 44ce f23d 177a 51bd fb79 54bd
00000040: 5fcd d5bc 351e 16bd d6d8 bd3c a607 a33d
00000050: 7ca6 84bd c7c0 123d 63a0 993d ebac 10be
00000060: 675c 25bd eb48 34bc 9784 683d be43 9b3d
00000070: a367 2bbc 93de 8b3e 143f 163e 3283 2b3e
00000080: a99b 973c 26bc 4cbd 70d4 b5bc 4255 81bd
00000090: 683a 6fbd 29c0 a63d a7e9 52bd b855 19be
000000a0: c058 0bbe 7c77 3c3e 00b7 98bd a2d3 07be
000000b0: 763b 0bbc b028 d2bd b932 a6bc 3488 b33c
000000c0: a896 3a3c fe0a b63b 21b6 4abe 541f 713d
000000d0: f452 03be 83ac 623d e507 e4bd c846 f03d
000000e0: 67ca 33bd 7d51 8abc 24cf 73bd c58d b2bc
000000f0: 9ab8 f4bc 92a4 e7bd 85df 553d 7cb8 94bd
00000100: f31b 42bd 7e7c c8bc 3571 7cbd d4d2 ad3d
00000110: 7a37 00be ee13 80bc 568b 03be f55f ebbd
00000120: c873 ecbd 6ac0 82bd df6f 613a 3d11 8d3c
00000130: 5ff9 d83d c745 c43d 4f91 113c ef47 923d
00000140: 6229 16bd d66d 273e 47ef 2cbd 9ad6 9e3c
00000150: b023 483c 3fd6 b03c 23f3 b0bc aa15 613d
00000160: 8dc2 10be dbca 13be 5eb7 363e 01a2 f7bd
00000170: 43f6 2abd 39a6 d9ba b27d 8b3c 126a 4bbd
00000180: 3ab0 af3d 42a2 9b3d 394d 87bd d205 7cbd
00000190: 6fa5 f53d 97af 8dbc 891c 7dbd 87c6 203e
000001a0: 8773 55bd 7b35 f23d 6024 ffbc 255e 523e
000001b0: a535 8bbd df94 403d abab 66be 9869 d33d
000001c0: d2e5 4f3d af8b b33d 21ef 393d 5c84 5f3d
000001d0: 0310 d0bd 27e0 833d ec24 b43c 007f 20be
000001e0: 5711 e53b b49a d1bd 5e86 9c3d 63b6 88bc
000001f0: 0b6a 8d3d 6544 1abe 606a 293d 247b 553e
00000200: 7c96 2a3c 321e e63c d0e8 163e 32ec ea3c
00000210: 29ee 4f3e b9dc bd3b 7907 0bbd 9b75 883d
00000220: 52e4 353b 4645 0f3b a4d5 30bd 675f d8bc
00000230: c34b 863d caae 0b3e 7152 44bd 3d83 a2bd
00000240: 0742 cb3c a7b9 be3b abef fabc 8ca8 ec3d
00000250: 85d5 2e3d 3279 8a3d 7e6f b33d 0ef3 02bd
00000260: f7d6 32be a70e 023e 3fb7 e03c 11cf 783e
00000270: 207e bdb8 37a0 78bd b190 113e d395 f3bb
00000280: cf4e 963a 1fa0 e43b ba17 a03d 8f45 0dbe
00000290: 8f81 8dbc e958 9ebd 151a 17be fe32 af3c
000002a0: 3410 383d ec70 a0bd 4166 e4bc c8c6 bb3d
000002b0: ffcb e53c 025d 2ebd 8b82 4d3d 8c1e 053b
000002c0: dde4 f63d 5b1c b5bd 956a 8ebd 8c16 d4bb
000002d0: a223 c2bd c57d cfbb b326 bb3d 2ff7 9a3d
000002e0: 63e4 873b aad9 0f3c 4a4a aa3d feb6 f83d
000002f0: 545a 88bc 0c25 a9bc f1b9 b3bc 0095 4cbd
00000300: ecc1 023d 7cce 0b3c 0402 773d 0cf6 45b8
00000310: 4265 b3bd 8dc3 303d b34d 6c3d 878c 543d
00000320: be51 85bd d8a3 e6bc cb86 5fbc a447 3d3d
00000330: 7bb0 95bd 1ddb 7fbd 4a28 8f3d ba85 27bd
00000340: 968c ccbc c981 8dbc 4f14 69bd 5626 91ba
00000350: 2798 bc3c 3343 a0bc b6ae fa3b deb1 473d
00000360: 6a89 dfbb 5d43 6a3d 8b15 863c c114 cebd
00000370: 883b 023e fbc7 f1bc d7de 06bb 3142 55bd
00000380: b893 183d 17db b1bc 7acb bdbd dd7e b7bd
00000390: ac47 46be ce66 353d e6a7 55bd 025a 563d
000003a0: 8766 743e 4c54 63bd dc72 183d b0f4 eebd
000003b0: 5486 753d 3e65 383d 9273 c9bd a12a e8bc
000003c0: 2088 a93c 4c85 b0bc a5d3 cebd dfda 06bd
000003d0: 8b77 abbd 695d dabd 7364 943d 5156 5e3d
000003e0: e884 3bbe b67d 553e 79ee 8c3d 8f8a d13c
000003f0: ee77 53bd 5f64 84bd c153 3f3c 8da9 55bd

network_body._body_endoder.seq_layers.0.bias f4 [256]
0.006547861 -0.0035517127 -0.006132609 -0.005015886 0.002318706 0.014119634 -0.0055629304 -0.00024284354
-0.0044990596 -9.501505e-05 -0.005892456 0.016856557 -0.01257957 -0.0003256455 0.0002865058 0.0013666592
-0.014039634 -0.0056079244 0.016718797 0.01515873 0.0035610031 -0.0077742795 -0.011534025 -0.0007013064
0.003140111 0.0034873995 0.0016266704 -0.009691981 0.0011171056 -0.0012052581 0.0044963374 -0.002924565
-0.0057464275 -0.0025041879 -0.0028986218 -0.01031969 0.004507807 0.008646413 0.0023308939 -0.0012999624
0.008836639 0.001675205 0.0068028164 0.005150518 0.003296231 0.009559592 -0.0021073814 -0.0011129334
-0.021013582 -0.00094969344 0.010204701 0.015802946 -0.004728986 0.0074646776 0.001996744 -0.003210382
0.010049766 -0.002074844 0.007370311 -0.0009876458 0.0047470625 0.0072327945 -0.007039895 0.018610492
0.0082476 0.00018169031 -0.00058634416 0.00049662055 -0.011528209 -0.009828326 0.007953906 0.008766526
0.008331975 -0.013743887 0.004478724 0.0049711266 0.00261407 0.013953943 -0.0018028418 0.0078719985
-0.0020318024 0.01591594 0.0075674253 0.0068285 -0.0056941905 0.012577524 -0.0037648303 0.008221324
-0.0076525994 -0.00017084068 0.002061269 -0.0042507634 0.013968813 0.0035475024 6.4106476e-05 0.009115267
-0.00086665025 -0.0010686358 -0.007821657 0.0031322464 -0.009418244 0.00018660177 0.0069837137 0.009566446
-0.0051776106 0.0041118385 -0.007441645 -0.00765884 0.0049396553 0.008715598 0.0027515779 -0.011121564
-0.008441801 0.007227506 -0.015229102 0.003636529 -0.006742 -0.0040423647 -0.006399372 0.003684788
0.008659157 0.006016609 0.009050314 -0.002646985 -0.0033890442 -0.004095618 0.008935821 -0.0016856292
0.00049085333 -0.0061590555 -0.00957191 0.005837483 -0.007048499 -0.0021721623 1.8471066e-05 0.00045676262
-0.0062727714 -0.0036487686 -0.015232826 -0.00012989494 0.003936092 0.018607527 0.003245741 -0.0052699284
-0.017309075 0.00030602043 0.025079193 0.010072455 0.0034503243 -0.012319217 -0.004019622 0.009484578
0.0023544498 0.0074664988 -0.010933915 -0.0014814127 0.010318767 -0.006536427 -0.010526154 0.008570895
-0.005231241 0.011125161 -0.0073795686 0.003430319 -0.002134134 0.012328002 0.007664656 0.0010589773
0.001524332 0.02208477 -0.0040085595 0.009241855 -0.01025807 0.00046731852 -0.0044087586 -0.007279185
-0.010808107 -0.006819087 0.008977364 -0.0032700694 0.0032899552 -0.009679806 0.005473015 0.00050755724
-0.008040781 -0.005643077 -0.0007764986 -0.0034068988 -0.005204235 0.005747264 0.01166493 -0.009656675
0.003036328 0.010148353 0.0093890065 0.0048102457 -0.0031393303 0.00018524022 0.01473017 0.0069300896
-0.010680616 -0.00973695 -0.0042625684 -0.010726265 -0.0063951276 -0.0015567066 0.0031768114 -0.007268679
-8.53637e-05 0.0025683679 0.0036880164 -0.0029529561 0.009691581 0.0036529265 -0.005512859 0.014916581
-0.0051870164 -0.005199691 0.0010028242 0.0025023976 0.007493422 0.010845419 0.0034308746 0.004273802
0.012398055 -0.0047333017 -0.011670633 -0.0010003927 -0.0028606285 -0.0014786931 0.0071167625 0.0024461618
0.018762896 0.01846431 0.0027514265 0.009778028 0.0083311 0.00021710889 0.0042558825 -0.0030237327
0.010853252 0.0014408897 -0.00844266 -0.0059302957 -0.0012213535 0.0010593216 0.010941523 -0.013599675
0.010922401 0.00392658 -0.009459087 -0.004759939 0.004235133 0.0011551932 -0.004834462 -0.0022240237
00000000: 708f d63b dac3 68bb 0ef4 c8bb 4d5c a4bb
00000010: 6ef5 173b 0a56 673c 3e49 b6bb d1a3 7eb9
00000020: d96c 93bb d142 c7b8 8115 c1bb c316 8a3c
00000030: 8a1a 4ebc 66bb aab9 2836 9639 7921 b33a
00000040: 7e06 66bc aec2 b7bb dcf5 883c 525c 783c
00000050: b85f 693b 62bf febb 35f9 3cbc e0d7 37ba
00000060: 52ca 4d3b db8c 643b 0036 d53a 1dcb 1ebc
00000070: d86b 923a c0f9 9dba 0356 933b 0faa 3fbb
00000080: 874c bcbb 4d1d 24bb cef6 3dbb eb13 29bc
00000090: 3ab6 933b afa9 0d3c e9c1 183b 8063 aaba
000000a0: 8dc7 103c 8d92 db3a 29ea de3b adc5 a83b
000000b0: 9405 583b d69f 1c3c fe1b 0abb d9df 91ba
000000c0: ad24 acbc d9f4 78ba 9e31 273c 2e75 813c
000000d0: 9cf5 9abb 419a f43b cedb 023b 4665 52bb
000000e0: c6a7 243c 1bfa 07bb a682 f13b e573 81ba
000000f0: 3f8d 9b3b 1401 ed3b ebae e6bb 0875 983c
00000100: f120 073c 1f84 3e39 e4b4 19ba a42f 023a
00000110: d0e0 3cbc fd06 21bc 1a51 023c 7aa1 0f3c
00000120: d682 083c 0a2e 61bc 43c2 923b d5e4 a23b
00000130: d150 2b3b 149f 643c 554d ecba 8ef9 003c
00000140: fd27 05bb 2562 823c 2af8 f73b 9cc1 df3b
00000150: 5596 babb f611 4e3c 5fbb 76bb bbb2 063c
00000160: a8c2 fabb b223 33b9 5b16 073b fd49 8bbb
00000170: 73dd 643c 377d 683b e770 8638 3358 153c
00000180: ea2f 63ba 7811 8cba 6826 00bc 6046 4d3b
00000190: fa4e 1abc 88aa 4339 a3d7 e43b 95bc 1c3c
000001a0: f2a8 a9bb 9abc 863b 0bd9 f3bb 02f7 fabb
000001b0: d5dc a13b decb 0e3c d153 343b 3837 36bc
000001c0: 7b4f 0abc b7d4 ec3b 7c83 79bc d552 6e3b
000001d0: ffeb dcbb d075 84bb d3b1 d1bb 7c7c 713b
000001e0: 23df 0d3c f926 c53b c547 143c 0a79 2dbb
000001f0: ba1a 5ebb 8934 86bb 8d67 123c 55f0 dcba
00000200: 9cac 003a e7d1 c9bb 80d3 1cbc 5b48 bf3b
00000210: 18f7 e6bb d65a 0ebb 50f2 9a37 a479 ef39
00000220: d28b cdbb 2e20 6fbb 1a93 79bc 6834 08b9
00000230: 55fa 803b d06e 983c 7fb6 543b 5daf acbb
00000240: c3cb 8dbc 5e71 a039 e172 cd3c f006 253c
00000250: d61e 623b 8bd6 49bc 09b7 83bb 3465 1b3c
00000260: 1d4d 1a3b 88a9 f43b 2a24 33bc f62b c2ba
00000270: 0c10 293c 862f d6bb e475 2cbc f06c 0c3c
00000280: d56a abbb 4f46 363c 4fd0 f1bb 34cf 603b
00000290: d4dc 0bbb 63fb 493c cb27 fb3b 62cd 8a3a
000002a0: 18cc c73a 1feb b43c 3c5a 83bb 266b 173c
000002b0: 7711 28bc 6e02 f539 5977 90bb 3b86 eebb
000002c0: 7d14 31bc a672 dfbb cb15 133c a94e 56bb
000002d0: 4a9c 573b 0d98 1ebc fa56 b33b 970d 053a
000002e0: 7bbd 03bc 90e9 b8bb f08d 4bba 4746 5fbb
000002f0: 4a88 aabb 8b53 bc3b 431e 3f3c 0837 1ebc
00000300: 21fd 463b 4745 263c 59d4 193c 449f 9d3b
00000310: 39bd 4dbb 0b3d 4239 d056 713c ce15 e33b
00000320: c0fd 2ebc ba87 1fbc 04ad 8bbb 37bd 2fbc
00000330: 388e d1bb 680a ccba 0d32 503b 192e eebb
00000340: 4a05 b3b8 1052 283b a6b2 713b 6286 41bb
00000350: 70c9 1e3c f065 6f3b 37a5 b4bb ad64 743c
00000360: d9f7 a9bb 2b62 aabb 3271 833a 44ff 233b
00000370: 618b f53b fcb0 313c 86d8 603b 400b 8c3b
00000380: 3621 4b3c d019 9bbb 2f36 3fbc 9c1f 83ba
00000390: 6279 3bbb b5d0 c1ba bb33 e93b c94f 203b
000003a0: a5b4 993c 7742 973c 4751 343b 0634 203c
000003b0: 2b7f 083c b9a7 6339 ee74 8b3b d129 46bb
000003c0: d7d1 313c 3cdc bc3a 1553 0abc ed52 c2bb
000003d0: d315 a0ba efd8 8a3a 1344 333c 2cd1 5ebc
000003e0: dff3 323c 8aaa 803b 49fa 1abc 43f9 9bbb
000003f0: dfc6 8a3b da69 973a 686a 9ebb edc0 11bb

network_body._body_endoder.seq_layers.2.weight f4 [256, 256]
0.00219123 0.015403563 -0.004315556 -0.0370386 -0.010657969 -0.050107148 0.041445494 -0.0047492315
-0.009086412 0.024247698 0.06150291 -0.13840935 0.031533886 -0.022874562 0.0088111805 -0.15556525
-0.00889614 -0.036945958 0.08342273 0.045676153 0.028463842 -0.0107860835 -0.035714116 -0.091979004
0.008254289 -0.1081198 -0.019738857 0.041416362 0.05925931 -0.059699338 -0.10040571 0.05012685
0.026585968 0.021281885 -0.06193945 -0.011025409 -0.13190125 0.039625734 -0.115544766 0.057734992
0.057309456 -0.08002386 -0.08090711 -0.038846545 0.00043600224 -0.0834893 -0.075193 0.03766891
0.028673237 0.017133852 -0.064810865 -0.14385179 -0.034030482 0.05653156 0.056615457 0.061738525
-0.09655443 -0.0015703096 -0.091584176 0.052289113 -0.041514084 -0.07620755 -0.026886739 0.044056125
-0.009552826 0.07219212 -0.0055325846 -0.10403462 0.13310571 -0.0047798995 0.15697324 -0.044792227
-0.031643514 0.06741466 0.1044552 -0.020541446 -0.010210046 -0.014874317 0.043427497 -0.034109686
0.043832224 -0.016677616 -0.114757195 -0.074305944 -0.042953208 -0.0002415286 -0.0028913121 0.13755079
-0.04852329 0.014025111 0.028437195 -0.023283547 0.09868195 -0.061579667 0.009635477 0.03531287
0.009159975 -0.051962752 0.115351744 -0.061337013 0.18391493 0.021020927 0.12086863 0.057633422
-0.041153185 -0.067310706 -0.024502475 -0.064135745 -0.014656071 -0.022266977 0.036452167 0.0757499
0.030658497 -0.054530032 0.036202352 0.030628301 -0.010122724 -0.04078302 -0.037024535 0.027986722
0.076696746 0.09993753 -0.027535299 0.083219 -0.010965337 0.031681363 0.07907411 -0.062074985
-0.08765848 0.13263367 -0.019824745 0.002768085 0.11528052 0.031286158 0.02186551 0.035981648
0.020481458 0.017589804 0.031691868 -0.08712892 -0.07657198 0.019112187 0.13911186 0.06571204
0.10666538 -0.029469185 -0.04104758 -0.06938805 -0.1403539 0.006611886 -0.06853545 -0.036915783
-0.028984178 0.011476079 0.032840572 0.0027538554 0.02378251 -0.019389642 0.044178896 -0.017996859
-0.04389356 0.019168552 0.07658628 0.021204798 0.07092891 0.13904172 -0.17070568 -0.050559554
-0.016399931 -0.017275931 0.086764686 -0.08557289 0.13464807 0.0017759454 0.038217764 -0.06332885
0.009316447 -0.0045173573 -0.040939964 0.050283607 0.001784488 0.04296979 0.041227005 -0.032992378
0.12306634 0.10868336 0.05955095 0.045931093 -0.009538817 0.01675728 0.06993007 -0.012866005
0.02295112 -0.14719008 0.14219762 -0.047032844 -0.00434874 0.009964027 -0.028036373 -0.05476817
-0.023142086 -0.08639188 -0.04446115 0.023349443 0.008915285 -0.046192296 -0.0115908915 -0.017173765
0.057971943 -0.0848322 -0.03710481 0.07613819 0.06199453 -0.040166613 -0.021835804 0.07444357
0.04951668 -0.009793353 -0.06093384 -0.04150142 0.005084695 0.03022147 0.11998793 0.012650456
0.025740147 0.020047985 0.033874992 0.0340744 0.046221223 -0.061909754 0.034195267 0.046134856
-0.061140344 0.002729153 0.05493307 -0.13085163 0.023123173 0.06405283 0.06440706 0.04266036
0.067161426 0.13968135 0.023171132 -0.013036488 0.071158744 -0.016416714 0.013401687 -0.00875741
0.08580141 0.016855964 0.12692693 -0.04876092 -0.05448383 -0.023807483 -0.081027895 -0.015046242
00000000: bd9a 0f3b 3a5f 7c3c 8269 8dbb c9b5 17bd
00000010: c39e 2ebc 273d 4dbd c0c2 293d 719f 9bbb
00000020: 2ddf 14bc 1ca3 c63c 7aea 7b3d 2ebb 0dbe
00000030: ad29 013d 6f63 bbbc c55c 103c 7f4c 1fbe
00000040: 1ec1 11bc a554 17bd 89d9 aa3d eb16 3b3d
00000050: 012d e93c 1db8 30bc f748 12bd 7d5f bcbd
00000060: ff3c 073c ea6d ddbd 62b3 a1bc 34a4 293d
00000070: e4b9 723d 4b87 74bd 82a1 cdbd d051 4d3d
00000080: d1ca d93c 5957 ae3c 39b4 7dbd eba3 34bc
00000090: 1f11 07be 984e 223d bca2 ecbd 877b 6c3d
000000a0: 52bd 6a3d 8de3 a3bd a0b2 a5bd 8e1d 1fbd
000000b0: 3b97 e439 70fc aabd cafe 99bd b74a 1a3d
000000c0: 23e4 ea3c 4b5c 8c3c 8fbb 84bd e24d 13be
000000d0: 8c63 0bbd a38d 673d 9ce5 673d 89e1 7c3d
000000e0: 54be c5bd d9d2 cdba 7c90 bbbd 1c2d 563d
000000f0: ac0a 2abd b412 9cbd 9441 dcbc 3274 343d
00000100: 7583 1cbc 76d9 933d af4a b5bb 1a10 d5bd
00000110: dd4c 083e b4a0 9cbb 98bd 203e 0e78 37bd
00000120: a19c 01bd b210 8a3d 9cec d53d 8946 a8bc
00000130: 0948 27bc 68b3 73bc 08e1 313d 99b6 0bbd
00000140: 6b89 333d 7f9f 88bc d205 ebbd b72d 98bd
00000150: b4ef 2fbd d742 7db9 2b7c 3dbb 1dda 0c3e
00000160: 5bc0 46bd 94c9 653c 1ff5 e83c 23bd bebc
00000170: c319 ca3d f63a 7cbd 1fde 1d3c 3aa4 103d
00000180: b813 163c e5d6 54bd 893d ec3d 853c 7bbd
00000190: 3254 3c3e 1434 ac3c f989 f73d 0611 6c3d
000001a0: 3e90 28bd 32da 89bd 6ab9 c8bc 9a59 83bd
000001b0: 0420 70bc 3c69 b6bc de4e 153d c322 9b3d
000001c0: 8727 fb3c e25a 5fbd eb48 143d 34e8 fa3c
000001d0: c8d9 25bc 190c 27bd 0aa7 17bd 6944 e53c
000001e0: 2f13 9d3d 0cac cc3d b591 e1bc b96e aa3d
000001f0: f5a7 33bc 51c4 013d 9bf1 a13d 5742 7ebd
00000200: 4a86 b3bd 1fd1 073e 8167 a2bc c368 353b
00000210: 3118 ec3d ea25 003d 4c1f b33c 7e61 133d
00000220: bbc8 a73c 7e18 903c 55cf 013d a670 b2bd
00000230: c5d1 9cbd 2991 9c3c 5773 0e3e 0994 863d
00000240: 6173 da3d 5c69 f1bc 8221 28bd 521b 8ebd
00000250: efb8 0fbe 85a8 d83b 505c 8cbd 0135 17bd
00000260: 3a70 edbc 2a06 3c3c d683 063d 077a 343b
00000270: 8ad3 c23c 07d7 9ebc eef4 343d 266e 93bc
00000280: bcc9 33bd 5e07 9d3c 44d9 9c3d afb5 ad3c
00000290: 2d43 913d f460 0e3e 78cd 2ebe 8917 4fbd
000002a0: 2659 86bc 4186 8dbc afb1 b13d d740 afbd
000002b0: 2fe1 093e d7c6 e83a 3b8a 1c3d 8eb2 81bd
000002c0: 03a4 183c 5706 94bb aab0 27bd 2ff6 4d3d
000002d0: 7be5 e93a 1701 303d a6dd 283d 0423 07bd
000002e0: 350a fc3d 6295 de3d b2eb 733d 3e22 3c3d
000002f0: b348 1cbc 9046 893c 7f37 8f3d f0cb 52bc
00000300: fd03 bc3c ffb8 16be 419c 113e 83a5 40bd
00000310: e07f 8ebb 2940 233c 89ac e5bc 9754 60bd
00000320: 7994 bdbc 3aee b0bd e51c 36bd 5547 bf3c
00000330: 6a11 123c 2234 3dbd b9e7 3dbc ffaf 8cbc
00000340: fd73 6d3d 81bc adbd 37fb 17bd 57ee 9b3d
00000350: faed 7d3d bf85 24bd 00e1 b2bc df75 983d
00000360: 01d2 4a3d 4d74 20bc c395 79bd 65fd 29bd
00000370: 839d a63b 0493 f73c 3bbc f53d dc43 4f3c
00000380: 00dd d23c ac3b a43c 81c0 0a3d 9991 0b3d
00000390: 7752 3d3d 1595 7dbd 5610 0c3d e7f7 3c3d
000003a0: 4c6e 7abd 97db 323b 8001 613d f8fd 05be
000003b0: cf6c bd3c 212e 833d d9e7 833d a1bc 2e3d
000003c0: ee8b 893d a108 0f3e 63d1 bd3c fe96 55bc
000003d0: adbb 913d 587c 86bc c092 5b3c 3d7b 0fbc
000003e0: a6b8 af3d 8515 8a3c 22f9 013e 88b9 47bd
000003f0: 702a 5fbd e907 c3bc f4f1 a5bd 8384 76bc

network_body._body_endoder.seq_layers.2.bias f4 [256]
0.0031663722 0.0011724021 -0.0021704573 -0.0020377203 -0.006613116 0.002504806 -0.001069107 0.005394502
0.0046415552 -0.007595392 0.00043928908 -0.004000735 0.0023420432 -0.00301464 -0.008498161 0.009032181
-0.0034654876 -0.003476734 0.0067907856 0.00092375185 -0.0042280764 -0.0044763973 0.014229014 -0.0018204111
0.0043689744 0.0032264383 -0.012439893 -0.0029973043 0.000886552 -0.013020661 0.0010969203 -0.0033350224
0.0010240125 0.00417786 -0.0032300912 -0.005359245 0.0012521887 -0.0042086844 0.008881414 0.0077793696
-0.014628662 -0.0078080357 -0.0057736775 0.0013115065 -0.006009409 -0.009932615 -0.00045551776 -0.00052598614
0.005819915 -0.0035674255 -0.0047225985 -0.0067137303 -0.00638261 -0.0009615028 -0.0030024431 -0.007855237
0.005359111 0.0039826417 0.007926141 -0.009614212 -0.009560175 -0.0017476005 0.0041209324 0.0052767824
0.0018977276 -0.0019069758 0.008428049 -0.013066476 -0.0055123656 -0.002323518 -0.009707356 -0.007669795
0.0052480595 0.003680987 0.0021639057 -0.00093965523 -0.0013669381 -0.003040828 0.0051017236 0.0055104704
-0.003981395 -0.007686023 0.0073405406 0.0043232143 -0.0043043117 0.008206568 0.002367032 0.0041051405
-0.013246915 0.0060000313 -0.0062137386 -0.0035782156 0.00284141 0.0050806827 0.004664457 0.0016655503
-0.0031213015 0.0059762723 0.00671528 -0.010063359 -0.0068961782 0.001192118 -0.00668087 0.0020829563
0.0011003353 0.003531527 -0.00071869255 0.0010405561 0.010426823 -0.008296387 0.0029625564 0.010346486
0.01157986 -0.006751786 0.004976039 0.014130442 -0.0013350585 0.0035695084 -0.0037435917 -0.007548794
0.0012880178 0.0010262402 -0.0068154987 0.0030375042 -0.008003515 -0.0049581714 0.01001848 0.009859313
-0.005074197 -0.0060776244 0.0060834824 -0.002119413 0.0053482275 -0.0058853254 -0.0005603626 -0.006019961
-0.013343402 0.005363377 0.010012116 0.0065455856 0.008789251 0.011632169 -0.009719577 0.006780034
0.0018200189 0.0025239158 -0.006381821 0.009613656 -0.00078327925 0.010185212 -0.007927203 -0.009136133
-0.0031170305 0.0006375151 -0.004212801 0.00049841224 -0.005762954 -0.009143252 0.002268612 0.0056643775
0.008785626 0.010093383 0.006059793 -0.003059112 -0.012180894 -0.009123891 0.0060948483 0.0008928058
0.002374477 -0.0066729872 -0.006063069 0.010835702 0.004766678 -0.002202353 0.011492896 -0.00053475564
0.005530029 -0.005829688 0.005700368 0.0036930516 0.0019385616 -0.005760933 0.0043519116 -0.0067418995
-0.00420264 -0.011462242 0.010928099 -0.0040879254 -0.0017163988 -0.0059952745 -0.002926342 8.271394e-05
-0.010097693 -0.0063596317 0.0030682292 -0.007907078 0.008298005 0.0061191544 -0.011211162 0.0067809075
-0.004318463 0.00088552176 0.010268006 -0.006032904 0.007534948 0.0005086838 -0.0141936345 0.0020440044
-0.00044509122 0.012640779 -0.0038905658 0.0048938906 -0.0084218625 -0.004968806 0.0034423778 -0.005332703
-0.00794073 0.007283584 -0.018302176 0.010990459 0.007325987 0.0011162979 -0.0054106624 0.0053708726
0.0014503993 -0.0069410214 0.0015091983 0.0006583183 0.010221949 -0.0007468834 -1.2307501e-05 0.004142311
0.0022013548 0.007189742 -0.005215476 -0.005372841 0.0046477932 -0.011099262 -0.008364764 -0.012498681
-0.0041573755 0.008426666 -0.004200033 -0.0052129435 -0.002733471 0.0009265682 -0.009453888 -0.010458228
0.007229202 -0.0022125219 -0.011049016 -0.009212889 0.0086330585 -0.0007249929 0.0023737564 0.0044844635
00000000: e982 4f3b 49ab 993a 3b3e 0ebb 468b 05bb
00000010: d6b2 d8bb ac27 243b 4721 8cba 5dc4 b03b
00000020: 3018 983b c4e2 f8bb 6250 e639 9918 83bb
00000030: f77c 193b 4491 45bb df3b 0bbc b7fb 133c
00000040: 3c1d 63bb ebd9 63bb 3d85 de3b f027 723a
00000050: ad8b 8abb beae 92bb cf20 693c dc9a eeba
00000060: 9d29 8f3b a772 533b b1d0 4bbc 6c6e 44bb
00000070: 7f67 683a 9c54 55bc 8ac6 8f3a 6490 5abb
00000080: 2838 863a 6ee6 883b f0af 53bb 9b9c afbb
00000090: 7b20 a43a 01e9 89bb 5a83 113c 15ea fe3b
000000a0: 0ead 6fbc 8dda ffbb 1e31 bdbb dbe6 ab3a
000000b0: 94ea c4bb 68bc 22bc 8fd2 eeb9 55e2 09ba
000000c0: fcb4 be3b 78cb 69bb 07c0 9abb dafe dbbb
000000d0: 3725 d1bb 5c0d 7cba a3c4 44bb 41b3 00bc
000000e0: 7b9b af3b d280 823b a5dc 013c ee84 1dbc
000000f0: 48a2 1cbc be0f e5ba e308 873b dce8 ac3b
00000100: 2cbd f83a 7df3 f9ba cd15 0a3c c614 56bc
00000110: 13a1 b4bb 2a46 18bb 9a0b 1fbc e752 fbbb
00000120: eaf7 ab3b b73c 713b 50d0 0d3b 3253 76ba
00000130: d52a b3ba a148 47bb 5c2c a73b 2d91 b43b
00000140: 5d76 82bb 09db fbbb eb88 f03b c0a9 8d3b
00000150: 2f0b 8dbb d774 063c 3520 1b3b 6a84 863b
00000160: 9709 59bc e99b c43b 9e9c cbbb 7f80 6abb
00000170: f336 3a3b db7b a63b 4dd8 983b 984e da3a
00000180: c08e 4cbb 9bd4 c33b da0b dc3b c9e0 24bc
00000190: 56f9 e1bb d840 9c3a 33eb dabb 3582 083b
000001a0: 2039 903a 3171 673b a466 3cba 4563 883a
000001b0: 44d5 2a3c 92ed 07bc 7327 423b 4f84 293c
000001c0: 74b9 3d3c 163e ddbb 0a0e a33b 5f83 673c
000001d0: 21fd aeba 6aee 693b 0c57 75bb e05b f7bb
000001e0: b5d2 a83a e882 863a 8c54 dfbb dd10 473b
000001f0: 2d21 03bc 2878 a2bb 8d24 243c f588 213c
00000200: 7345 a6bb cf26 c7bb f357 c73b dae5 0abb
00000210: 2f40 af3b b0d9 c0bb 4ce5 12ba 1843 c5bb
00000220: 499e 5abc 44bf af3b dc09 243c 5a7c d63b
00000230: ca00 103c da94 3e3c dc3e 1fbc 0c2b de3b
00000240: b38d ee3a 4868 253b 981e d1bb 9982 1d3c
00000250: fb54 4dba e0df 263c 19e1 01bc b8af 15bc
00000260: 1847 4cbb ea1e 273a 890b 8abb e1a7 023a
00000270: 29d7 bcbb 94cd 15bc feac 143b 3e9c b93b
00000280: 96f1 0f3c b75e 253c 3a91 c63b 627b 48bb
00000290: 5f92 47bc 5f7c 15bc 4bb7 c73b 2f0b 6a3a
000002a0: 1d9d 1b3b 13a9 dabb b6ac c6bb 3a88 313c
000002b0: cb31 9c3b 5a55 10bb b34c 3c3c d82e 0cba
000002c0: 3f35 b53b f806 bfbb 27ca ba3b 2007 723b
000002d0: 5517 fe3a 35c6 bcbb 7b9a 8e3b 27eb dcbb
000002e0: 4db6 89bb 21cc 3bbc c50b 333c 01f4 85bb
000002f0: c9f8 e0ba 0274 c4bb dfc7 3fbb b576 ad38
00000300: cb70 25bc 7564 d0bb 5814 493b b08c 01bc
00000310: 5bf4 073c 3083 c83b 06af 37bc 6032 de3b
00000320: e581 8dbb 5c22 683a 233b 283c abaf c5bb
00000330: bae7 f63b 3159 053a 6b8c 68bc b4f4 053b
00000340: 225b e9b9 451b 4f3c ddf8 7ebb ee5c a03b
00000350: dafb 09bc 5ed1 a2bb 8499 613b f4bd aebb
00000360: d619 02bc 22ab ee3b 72ee 95bc 5311 343c
00000370: d50e f03b be50 923a ed4b b1bb 25fe af3b
00000380: 531b be3a 8271 e3bb 4bd0 c53a fe92 2c3a
00000390: f679 273c 7fca 43ba 507c 4eb7 39bc 873b
000003a0: 9b44 103b ed97 eb3b 95e6 aabb a80e b0bb
000003b0: 844c 983b aed9 35bc 5d0c 09bc 45c7 4cbc
000003c0: 983a 88bb 0010 0a3c 6ea0 89bb 57d1 aabb
000003d0: 0924 33bb f0e4 723a 7be4 1abc fd58 2bbc
000003e0: f1e2 ec3b f5ff 10bb ef06 35bc a8f1 16bc
000003f0: ac71 0d3c 730d 3eba 0691 1b3b 68f2 923b

action_model._continuous_distribution.log_sigma f4 [1, 5]
0.023943309 0.05053764 0.06135057 -0.01106623 -0.01124732
00000000: c224 c43c 8e00 4f3d bc4a 7b3d 224f 35bc
00000010: ae46 38bc

action_model._continuous_distribution.mu.weight f4 [5, 256]
-0.014202288 -0.005382738 -0.022588652 -0.02066593 -0.022094645 0.011136002 -0.0066790804 0.01346952
0.014639828 -0.011464743 -0.003351731 -0.016083097 0.011754745 -7.77272e-05 -0.021675652 0.005969935
-0.028545078 -0.00022201367 0.0057537155 -0.03121965 -0.0062141884 -0.020696443 0.015563203 -0.020434214
-0.0043145986 0.014555316 -0.016984971 -0.011656302 0.0074821063 -0.0026607034 -0.0041123102 0.004797239
0.002210081 0.012193441 -0.022949321 -0.024551315 0.008386975 -0.0072640227 0.022796007 0.012109849
-0.007201665 -0.019368818 -0.011273936 0.0026289716 -0.008449782 -0.008952376 0.010722255 -0.020799333
-0.026259074 -0.009654004 -0.019347195 0.0051735854 0.008086143 -0.0052894605 -0.012907595 -0.022295713
0.006561828 0.00780752 0.013462949 -0.0042364146 -0.012152117 0.00079551956 0.020036388 0.031118512
-0.009079253 -0.00446998 0.0026628291 -0.018516295 0.0036970787 -0.031702522 -0.030917235 0.013631575
0.012474128 0.0048795845 -0.013457511 -0.025204709 -0.0029976997 -0.006083901 2.7335878e-05 -0.006164417
-0.009029757 -0.03994346 0.016340178 -0.0026597746 -0.014413732 0.023073232 0.011928356 0.0064629987
-0.01431921 0.019271305 0.011453839 -0.004437738 -0.014772545 -0.0108646 0.0056436076 0.029287549
0.008024064 -0.00083545316 -0.019562604 -0.011639703 -0.014545434 0.00164715 -0.013542286 0.014494408
0.0043059923 0.008063563 -0.0036546655 0.026657887 0.023427695 -0.023511196 -0.009109978 0.0054573338
0.020616975 -0.0019432446 -0.021000883 -0.0027530545 -0.01032921 0.016202057 -0.003967743 0.0144745065
0.0050384686 -0.0016074962 -0.005866053 -0.00082724064 -0.0014071905 0.007502206 0.008327293 0.005351691
-0.013371306 -0.017745366 0.010835279 -0.013444277 0.017402891 -0.017544236 0.0055112652 -0.025892323
-0.0140161505 -0.0032161234 0.026962942 0.025437906 0.03415172 0.021620966 -0.0108972695 0.015724769
0.0083473325 -0.009052173 -0.009352969 0.020215496 0.0034393554 0.012624711 -0.0061941766 -0.020811383
0.0010136768 0.009592416 -0.017823728 0.00011193074 0.008958365 -0.02167806 0.0038077063 -0.027857443
0.04880816 0.017188376 -0.0009454425 0.024298323 -0.023657147 -0.011565865 0.029739102 0.00091624446
0.008281183 -0.0047158794 -0.00796439 -0.01162522 0.011060807 0.010094358 0.03232621 0.014241251
0.008634597 -0.012419201 0.0344319 -0.011335657 0.012051803 -0.0044615977 0.018127758 -0.011911239
-0.01730751 -0.008991425 0.074515834 -0.017619787 -0.0003764175 0.006005812 -0.017325984 -0.005162867
-0.012573299 -0.00052825396 0.014899354 -0.015957192 0.048472427 -0.007058076 -0.012007092 -0.0010289059
-0.01449672 -0.0113786245 0.029968817 0.0026645733 0.03285225 -0.023416342 -5.3643118e-05 0.03324497
-0.004525877 0.017107183 -0.0095001785 0.0028123367 -0.0028175067 0.0050630774 -0.010729968 -0.0040784576
5.8433034e-05 0.02267941 -0.026183106 0.026316626 0.026208285 0.0013628714 0.010773459 0.004922419
-0.008457304 0.0041780504 0.01450533 -0.017726483 -0.0016361616 -0.015304846 0.0013443107 -0.00339559
-0.035770684 -0.00187044 -0.01012728 -0.017125824 0.041746713 -0.01000446 -0.016579693 -0.015938247
-0.00028856975 0.0012020386 -0.014330421 0.017093822 -0.0041741407 -0.01742271 -0.038216572 -0.0040198136
0.03423288 0.0015420157 -0.008965596 -0.0073842118 0.010711289 -0.00014891365 0.004473082 0.011753256
00000000: b7b0 68bc ae61 b0bb d60b b9bc 994b a9bc
00000010: d4ff b4bc c773 363c 30dc dabb 43af 5c3c
00000020: e4db 6f3c 9ed6 3bbc b7a8 5bbb b3c0 83bc
00000030: f996 403c 7901 a3b8 2391 b1bc 729f c33b
00000040: 5ed7 e9bc 57cc 68b9 aa89 bc3b 5ac0 ffbc
00000050: 64a0 cbbb 968b a9bc cefc 7e3c a765 a7bc
00000060: 7a61 8dbb 6c79 6e3c 1124 8bbc 13fa 3ebc
00000070: 752c f53b 325f 2ebb 8fc0 86bb 2832 9d3b
00000080: 02d7 103b 00c7 473c 3700 bcbc d71f c9bc
00000090: 8669 093c 0a07 eebb b1be ba3c 6368 463c
000000a0: f2fb ebbb 5bab 9ebc 51b6 38bc d34a 2c3b
000000b0: f470 0abc fdac 12bc 66ac 2f3c 5d63 aabc
000000c0: 451d d7bc d42b 1ebc 027e 9ebc 2e87 a93b
000000d0: be7b 043c 3653 adbb 617a 53bc 80a5 b6bc
000000e0: 9a04 d73b 3ad6 ff3b b393 5c3c 9fd1 8abb
000000f0: ac19 47bc 6a8a 503a 5a23 a43c 40ec fe3c
00000100: 26c1 14bc e978 92bb dc82 2e3b 7caf 97bc
00000110: b04a 723b 81da 01bd 2446 fdbc f856 5f3c
00000120: 4960 4c3c ece4 9f3b e47c 5cbc 1b7a cebc
00000130: 0e75 44bb 765b c7bb 5a4f e537 e1fe c9bb
00000140: 8cf1 13bc c19b 23bd d6db 853c 9d4f 2ebb
00000150: 9327 6cbc 1304 bd3c 276f 433c 90c7 d33b
00000160: 1f9b 6abc dbde 9d3c e2a8 3b3c 726a 91bb
00000170: 8b08 72bc 6f01 32bc 03ee b83b 71ec ef3c
00000180: 5d77 033c 5002 5bba c141 a0bc 74b4 3ebc
00000190: f94f 6ebc 2fe5 d73a 77e0 5dbc f479 6d3c
000001a0: 4819 8d3b 091d 043c 1d83 6fbb a461 da3c
000001b0: 70eb bf3c 8d9a c0bc 0442 15bc 6fd3 b23b
000001c0: eee4 a83c 78b4 feba 0b0a acbc 976c 34bb
000001d0: d93b 29bc 2dba 843c d703 82bb 7b26 6d3c
000001e0: bd19 a53b 9fb2 d2ba 0538 c0bb 2edb 58ba
000001f0: 7a71 b8ba 11d5 f53b 336f 083c 3d5d af3b
00000200: 5213 5bbc bb5e 91bc 7486 313c 6345 5cbc
00000210: 8290 8e3c eeb8 8fbc d897 b43b 231c d4bc
00000220: ffa3 65bc 99c5 52bb 63e1 dc3c 2863 d03c
00000230: ade2 0b3d 741e b13c 768a 32bc 3bd1 803c
00000240: 40c3 083c 914f 14bc 323d 19bc f89a a53c
00000250: cf66 613b e0d7 4e3c 85f8 cabb a27c aabc
00000260: 59dd 843a 8229 1d3c 1103 92bc 5cbc ea38
00000270: 1bc6 123c 3096 b1bc b68a 793b 4b35 e4bc
00000280: 11eb 473d a3ce 8c3c 92d7 77ba 470d c73c
00000290: a2cc c1bc c17e 3dbc 6b9f f33c 2030 703a
000002a0: cdad 073c aa87 9abb 137d 02bc b577 3ebc
000002b0: 6338 353c ce62 253c 7d68 043d 2354 693c
000002c0: 2078 0d3c e879 4bbc 7708 0d3d 31b9 39bc
000002d0: ed74 453c 9832 92bb aa80 943c 5b27 43bc
000002e0: 7bc8 8dbc c550 13bc c29b 983d 5f57 90bc
000002f0: e759 c5b9 67cc c43b 39ef 8dbc 442d a9bb
00000300: 3d00 4ebc 867a 0aba 6c1c 743c a8b8 82bc
00000310: 068b 463d 6f47 e7bb 65b9 44bc 5adc 86ba
00000320: a783 6dbc 696d 3abc 2a81 f53c 1fa0 2e3b
00000330: 1590 063d a1d3 bfbc dcfe 60b8 e12b 083d
00000340: cf4d 94bb 5d24 8c3c a3a6 1bbc 2e4f 383b
00000350: eba5 38bb 2ce8 a53b bfcc 2fbc 95a4 85bb
00000360: fe15 7538 2cca b93c f47d d6bc f795 d73c
00000370: c2b2 d63c 60a2 b23a 2a83 303c 3e4c a13b
00000380: 8190 0abc 07e8 883b c3a7 6d3c 2137 91bc
00000390: 7974 d6ba 2dc1 7abc 9533 b03a 8c88 5ebb
000003a0: 4884 12bd 8d29 f5ba e4ec 25bc 754b 8cbc
000003b0: 9afe 2a3d bfe9 23bc 23d2 87bc ed90 82bc
000003c0: 2d4b 97b9 b98d 9d3a 24ca 6abc 5808 8c3c
000003d0: 3bc7 88bb 12ba 8ebc fb88 1cbd a4b8 83bb
000003e0: c737 0c3d 761d ca3a 6fe4 12bc 42f7 f1bb
000003f0: 677e 2f3c b425 1cb9 ee92 923b bb90 403c

action_model._continuous_distribution.mu.bias f4 [5]
0.010220181 -0.0012644491 -0.004029217 0.013768942 0.0018075593
00000000: 8c72 273c dfbb a5ba 8607 84bb 2197 613c
00000010: a0eb ec3a
