configfiles/results/hb_05/Hummingbird/Hummingbird-1499968.onnx (onnx, 401856 bytes, 7 tensors)

network_body._body_endoder.seq_layers.0.weight f4 [256, 125]
0.092332006 0.027757173 0.08522782 0.1424987 -0.18393335 0.16361752 -0.033686135 -0.039004304
0.020718073 0.20821904 0.24705291 0.0052707465 -0.01302467 0.11847657 -0.038985822 -0.05231396
-0.021701375 -0.03547627 0.022467809 0.09173645 -0.06296305 0.042600475 0.06929414 -0.14239857
-0.027317295 -0.014844086 0.062069815 0.07646633 -0.01090996 0.28577602 0.14932993 0.17176422
0.016396122 -0.050144415 -0.008983311 -0.067758 -0.050581843 0.083091564 -0.051506344 -0.13641736
-0.13108316 0.18659498 -0.06720628 -0.1299791 0.0052037505 -0.10414371 -0.016180852 0.024378294
0.009706646 0.01854418 -0.1919905 0.058947273 -0.11579365 0.06099607 -0.09759824 0.11662325
-0.04065663 -0.01854336 -0.06761191 -0.0093033435 -0.030077511 -0.11319981 0.05521165 -0.05910117
-0.033807486 -0.027325453 -0.056688473 0.08649985 -0.12896828 -0.0039889673 -0.1334798 -0.11472466
-0.11740722 -0.041129746 0.012619749 0.017112523 0.10898075 0.09577345 0.008911597 0.082055345
-0.03756232 0.16176917 -0.04361461 0.04076505 0.020232396 0.022756038 -0.020662608 0.06116782
-0.14682537 -0.13545898 0.17175177 -0.11778305 -0.04888414 0.0044957106 0.022227004 -0.048337072
0.088736475 0.08124287 -0.07350124 -0.054711916 0.12007855 -0.017002612 -0.06491848 0.15986939
-0.049251307 0.1285655 -0.025516886 0.19667864 -0.075993404 0.046777897 -0.21652864 0.097503096
0.046110567 0.09311029 0.046807982 0.035663836 -0.0996692 0.062184226 0.002654197 -0.16046676
0.007034733 -0.10611809 0.077810094 -0.015978446 0.08273751 -0.1571217 0.045921188 0.19533841
0.022964085 0.046707477 0.15816714 0.030243926 0.2030579 0.009158807 -0.02064945 0.076470666
0.004059805 0.0044665444 -0.04414947 -0.01361224 0.06698664 0.14199257 -0.04757952 -0.07887508
0.037478916 0.012644799 -0.023217201 0.11177865 0.040757913 0.08132259 0.09110586 -0.02746775
-0.17563331 0.12887582 0.040472813 0.24735655 0.0013819266 -0.050885025 0.13845497 0.0067018964
0.006173804 0.013464136 0.07740518 -0.13649188 -0.0030326142 -0.06790541 -0.1505445 0.019097164
0.044907477 -0.06374217 -0.020681407 0.095590144 0.027023489 -0.045388293 0.06545012 0.014369404
0.11732884 -0.08847951 -0.0638614 0.010067814 -0.08736851 -0.0018870926 0.09403766 0.069850646
0.021396743 0.0226066 0.07556447 0.12093476 -0.011008848 -0.0043955813 -0.021432528 -0.043138
0.0361505 0.009806312 0.07852866 -0.0014580609 -0.08576024 0.028273607 0.07038815 0.06984886
-0.057188477 -0.02764159 -0.0075774076 0.052781753 -0.05275751 -0.056100998 0.067839615 -0.04942155
-0.015243612 0.0012318935 -0.05970163 0.0008367632 0.029343788 -0.008687103 0.031601544 0.04168909
-0.0063034296 0.059204213 0.027336102 -0.08422777 0.13603002 -0.03425399 0.019572655 -0.048936788
0.062422186 -0.021035168 -0.09108547 -0.0957014 -0.18997402 0.048843134 -0.047196615 0.05947778
0.23187195 -0.057254672 0.045559652 -0.10689717 0.056889728 0.04145604 -0.09257214 -0.020454237
-0.003666297 -0.017988471 -0.10599449 -0.053093378 -0.09810105 -0.122610524 0.07831177 0.05653536
-0.1829803 0.22877456 0.06419079 0.033830345 -0.049138013 -0.063712604 0.032586545 -0.044974025
00000000: 9018 bd3d 0363 e33c ec8b ae3d 2eeb 113e
00000010: 0659 3cbe 5a8b 273e 79fa 09bd fac2 1fbd
00000020: f3b8 a93c 5f37 553e 70fb 7c3e 3ab6 ac3b
00000030: 6d65 55bc d8a3 f23d 99af 1fbd 2a47 56bd
00000040: 15c7 b1bc 914f 11bd 690e b83c 52e0 bb3d
00000050: c6f2 80bd d67d 2e3d 16ea 8d3d eed0 11be
00000060: 85c8 dfbc 9c34 73bc eb3c 7e3d 619a 9c3d
00000070: b0bf 32bc 3c51 923e f2e9 183e f6e2 2f3e
00000080: 2951 863c 3b64 4dbd bd2e 13bc b5c4 8abd
00000090: e82e 4fbd e92b aa3d 51f8 52bd feb0 0bbe
000000a0: aa3a 06be c112 3f3e 72a3 89bd 3e19 05be
000000b0: 3984 aa3b 4c49 d5bd b58d 84bc fdb4 c73c
000000c0: a008 1f3c f7e9 973c 2899 44be b272 713d
000000d0: 3925 edbd 04d7 793d 96e1 c7bd 2cd8 ee3d
000000e0: 9187 26bd 3fe8 97bc 1d78 8abd 0d6d 18bc
000000f0: 1d65 f6bc 4dd5 e7bd 9c25 623d 1214 72bd
00000100: b879 0abd a1d9 dfbc 2c32 68bd d526 b13d
00000110: 4310 04be e2b5 82bb eeae 08be c3f4 eabd
00000120: 3273 f0bd aa77 28bd 10c3 4e3c 902f 8c3c
00000130: 4d31 df3d df24 c43d f201 123c a20c a83d
00000140: f2da 19bd d1a6 253e 3ca5 32bd 41f9 263d
00000150: 69be a53c df6a ba3c a144 a9bc 1c8b 7a3d
00000160: 6459 16be c2b5 0abe b2df 2f3e 3d38 f1bd
00000170: bc3a 48bd c150 933b 6815 b63c 18fd 45bd
00000180: 78bb b53d a962 a63d d187 96bd 9a19 60bd
00000190: beeb f53d 1049 8bbc fbf3 84bd cdb4 233e
000001a0: bdbb 49bd ada6 033e ca08 d1bc 2066 493e
000001b0: 6ea2 9bbd 2e9a 3f3d afb9 5dbe b4af c73d
000001c0: 6fde 3c3d 9cb0 be3d bab9 3f3d 3e14 123d
000001d0: 5e1f ccbd e3b4 7e3d 09f2 2d3b 6651 24be
000001e0: 9e83 e63b 7154 d9bd e65a 9f3d 3be5 82bc
000001f0: 4972 a93d 83e4 20be db17 3c3d cb06 483e
00000200: 2d1f bc3c 5750 3f3d 91f6 213e 1cc2 f73c
00000210: 69ee 4f3e d20e 163c 0929 a9bc a79c 9c3d
00000220: 1d08 853b 175c 923b 13d6 34bd df05 5fbc
00000230: 4b30 893d 8066 113e bee2 42bd 4289 a1bd
00000240: 7e83 193d 222c 4f3c 0032 bebc 34ec e43d
00000250: c5f1 263d 758c a63d b695 ba3d 0c04 e1bc
00000260: 38d9 33be 06f8 033e d2c6 253d 094b 7d3e
00000270: c321 b53a d16c 50bd 24c7 0d3e 959b db3b
00000280: 9f4d ca3b ae98 5c3c 9b86 9e3d 87c4 0bbe
00000290: d3be 46bb fe11 8bbd 5628 1abe a871 9c3c
000002a0: e7f0 373d 418b 82bd 0e6c a9bc c4c4 c33d
000002b0: 5d60 dd3c 13e9 39bd b60a 863d a66d 6b3c
000002c0: 1a4a f03d bf34 b5bd c4c9 82bd 79f3 243c
000002d0: 43ee b2bd 5258 f7ba d196 c03d db0d 8f3d
000002e0: 3948 af3c 7a31 b93c 8bc1 9a3d a5ac f73d
000002f0: 755e 34bc cf08 90bb 4593 afbc 79b1 30bd
00000300: 8c12 143d a7aa 203c a2d3 a03d 681c bfba
00000310: 11a3 afbd 0d9e e73c aa27 903d eb0c 8f3d
00000320: 773e 6abd 9e70 e2bc e74b f8bb ae31 583d
00000330: 4218 58bd 29ca 65bd 7fef 8a3d 406e 4abd
00000340: 58c0 79bc 7d77 a13a b289 74bd 3a5a 5b3a
00000350: 6262 f03c 5a54 0ebc 9f70 013d 2ec2 2a3d
00000360: 008d cebb 1e80 723d f6ef df3c 9c7f acbd
00000370: 744b 0b3e e94d 0cbd d556 a03c f171 48bd
00000380: 68ae 7f3d f251 acbc 058b babd 18ff c3bd
00000390: 8d88 42be bd0f 483d 3d51 41bd f99e 733d
000003a0: d76f 6d3e e083 6abd c29c 3a3d e7ec dabd
000003b0: 3405 693d cfcd 293d 7696 bdbd a58f a7bc
000003c0: 4246 70bb 8f5c 93bc a413 d9bd 7178 59bd
000003d0: 34e9 c8bd 3a1b fbbd ec61 a03d 9f91 673d
000003e0: 305f 3bbe e143 6a3e 7676 833d b091 0a3d
000003f0: f144 49bd c17b 82bd 7879 053d af36 38bd

network_body._body_endoder.seq_layers.0.bias f4 [256]
0.007982273 0.00057481555 -0.00061687175 -0.005142618 0.0069144648 0.016113006 -0.002422078 -0.0024468044
-0.007163095 0.0039835735 -0.0072022276 0.01935455 -0.013345205 -0.00084602146 0.0009637156 0.0030214598
-0.0149318185 -0.003412097 0.019876897 0.009465283 0.0054764254 -0.009198514 -0.0018769753 -0.0022223955
0.0077863224 0.0009663208 0.0006852744 -0.013777976 -0.00024049208 -0.0013585963 0.006431832 -0.0007403895
-0.0031956295 0.0033433032 -0.003591382 -0.014297906 0.00918103 0.008331405 0.0028704023 -0.0032480028
0.005526261 -0.00020060898 0.0060811774 0.0052697267 0.0014495116 0.010652398 -0.0013085268 -0.0005284242
-0.019737283 -0.00035322717 0.01307354 0.0217167 -0.00086836505 0.014156037 -0.0022752648 0.0016450062
0.007878927 0.00023674166 0.007817918 -0.0026091414 0.0055818437 0.007890828 -0.010298064 0.016890597
0.009927814 0.008435583 0.00071126234 0.0020309861 -0.0017968545 -0.013599365 0.010399407 0.004211868
0.0058767847 -0.012853407 0.011266325 0.00870619 0.0049742884 0.013729767 -0.0014015633 0.0123759
-0.0016426299 0.019948259 0.005604419 0.007962359 -0.009735379 0.009807793 -0.006354345 0.014853742
-0.006291821 -0.004491652 0.0038340853 -0.0034733813 0.01577016 0.012040435 0.00023454106 0.012659768
0.00077161787 -3.4325785e-07 -0.010675692 0.003826798 -0.0050510466 0.0012067575 0.005811401 0.01102906
-0.008356908 0.006804757 -0.006114147 -0.010450993 0.0025034556 0.012966642 0.00091750844 -0.011340598
-0.01044137 0.0075000883 -0.021504778 0.008742892 -5.5766115e-05 -0.006553732 -0.006193096 0.0039001552
0.00890144 0.004639398 0.008279711 0.0018219012 0.0014530197 -0.002683974 0.011738848 0.003996737
0.001769978 -0.007859663 -0.008382996 0.0089401165 -0.010058371 -0.0056869257 0.00687212 0.0015553688
-0.008131208 -0.004231581 -0.0179953 0.00044937644 0.012150815 0.023736687 0.005807377 0.00061035366
-0.014311464 -0.00039793708 0.029541649 0.019555598 -0.0017341486 -0.013196111 -0.005308446 0.01550782
0.0076941955 0.008104843 0.0031959752 -0.0010188394 0.012309531 -0.00076836045 -0.009761922 0.010987096
-0.0045354785 0.0068009766 -0.011323884 0.0014047273 -0.0051093646 0.014659075 0.009236426 0.0018460591
0.0043833116 0.027980333 -0.010264209 0.009507335 -0.005735026 0.00062413316 -0.0044928202 -0.002966079
-0.011307754 -0.0084233945 0.01009301 -0.006261043 0.0033765105 -0.007032326 0.010972933 0.0019452553
-0.008710391 -0.0034233904 0.0013018128 -0.0035155476 -0.00071314466 0.0075939363 0.0077197864 -0.011735115
0.003684391 0.011406374 0.004923516 0.0036842073 -0.0050353007 0.0007210357 0.012633878 0.020432726
0.0002181867 -0.008555715 0.00054320635 -0.009889993 -0.0069305236 0.00017118297 0.009625041 -0.0076020514
-0.0015653977 0.0075705075 0.0073904605 -0.000863688 0.009259007 0.0044384957 -0.0014739777 0.013339812
-0.0026946166 0.0016833631 -1.600384e-05 0.0002721386 0.00745491 0.015740141 0.0050367815 0.0023643847
0.013126184 -0.0010394099 -0.011406797 0.0023927456 -0.0027802107 0.0065871235 0.008631383 -9.164086e-05
0.020109227 0.0145111345 0.006311521 0.009574109 0.0046141795 -0.00046673394 0.003747914 -0.0033976939
0.011228906 -0.00059512386 -0.009846437 -0.005564552 -0.0025337124 -0.0039319224 0.015012492 -0.009609131
0.010222812 0.010669069 -0.007022889 -0.0058299876 0.0051887007 0.0037765722 -0.002471239 0.0018263643
00000000: 14c8 023c 38af 163a 90b5 21ba 6883 a8bb
00000010: bc92 e23b 6cff 833c babb 1ebb 915a 20bb
00000020: 65b8 eabb a388 823b aa00 ecbb 6f8d 9e3c
00000030: d9a5 5abc 8ac7 5dba dca1 7c3a af03 463b
00000040: 96a4 74bc 7d9d 5fbb e0d4 a23c 4614 1b3c
00000050: 9673 b33b 5db5 16bc d704 f6ba 9ca5 11bb
00000060: 6824 ff3b b150 7d3a fda3 333a 05bd 61bc
00000070: 9a2c 7cb9 ed12 b2ba 1ec2 d23b b316 42ba
00000080: c46d 51bb 521b 5b3b 645d 6bbb c441 6abc
00000090: 086c 163c 7280 083c 5c1d 3c3b 72dc 54bb
000000a0: a315 b53b 905a 52b9 9d44 c73b acad ac3b
000000b0: 8afd bd3a 6587 2e3c e082 abba f385 0aba
000000c0: 15b0 a1bc 5931 b9b9 6732 563c 39e7 b13c
000000d0: fea2 63ba b9ee 673c 9c1c 15bb 409d d73a
000000e0: 9d16 013c db3d 7839 ba16 003c 21fe 2abb
000000f0: e6e7 b63b 8848 013c 36b9 28bc 265e 8a3c
00000100: 45a8 223c 6635 0a3c 0274 3a3a 4b1a 053b
00000110: 6f84 ebba dfcf 5ebc 4662 2a3c b603 8a3b
00000120: 0b92 c03b 1997 52bc 6496 383c 68a4 0e3c
00000130: 5bff a23b d1f2 603c a9b4 b7ba 49c4 4a3c
00000140: 834d d7ba 886a a33c 46a5 b73b 8e74 023c
00000150: 2481 1fbc deb0 203c 1c38 d0bb 1c5d 733c
00000160: 9f2b cebb b52e 93bb 4745 7b3b aba1 63bb
00000170: 6c30 813c 3f45 453c 23ef 7539 ea6a 4f3c
00000180: 6646 4a3a 0049 b8b4 19e9 2ebc 04cb 7a3b
00000190: 4083 a5bb 102c 9e3a 916d be3b 3bb3 343c
000001a0: 6aeb 08bc 70fa de3b 2f59 c8bb a43a 2bbc
000001b0: 0411 243b 0a72 543c f384 703a eacd 39bc
000001c0: 4812 2bbc 4dc3 f53b ca2a b0bc 593e 0f3c
000001d0: 69e6 69b8 b0c0 d6bb 74ef cabb bf99 7f3b
000001e0: 58d7 113c 1706 983b a0a7 073c dccc ee3a
000001f0: 4073 be3a 9de5 2fbb 4c54 403c 0ff7 823b
00000200: 9bfe e73a d1c5 00bc d558 09bc 9179 123c
00000210: decb 24bc 6459 babb 852f e13b 84dd cb3a
00000220: c238 05bc 13a9 8abb e16a 93bc 499a eb39
00000230: 3614 473c 7173 c23c cf4b be3b 2400 203a
00000240: a17a 6abc 36a2 d0b9 5401 f23c 1033 a03c
00000250: 5f4c e3ba 8034 58bc 79f2 adbb 8314 7e3c
00000260: 971f fc3b 2dca 043c 9173 513b 948a 85ba
00000270: eaad 493c cc6b 49ba 78f0 1fbc 3803 343c
00000280: 5a9e 94bb bada de3b d087 39bc d41e b83a
00000290: 756c a7bb 9e2c 703c 6154 173c 77f7 f13a
000002a0: e2a1 8f3b 0337 e53c 362b 28bc a7c4 1b3c
000002b0: e3ec bbbb de9c 233a 8238 93bb 8c62 42bb
000002c0: 2844 39bc 4702 0abc 275d 253c 6f29 cdbb
000002d0: 7248 5d3b 6d6f e6bb d1c7 333c f0f7 fe3a
000002e0: 07b6 0ebc f65a 60bb 97a1 aa3a 1a65 66bb
000002f0: 54f2 3aba 8ed6 f83b 43f6 fc3b a444 40bc
00000300: d375 713b cde1 3a3c 7255 a13b be72 713b
00000310: 2aff a4bb e303 3d3a 53fe 4e3c 8862 a73c
00000320: 0cc9 6439 452d 0cbc f665 0e3a a309 22bc
00000330: 7219 e3bb 947f 3339 59b2 1d3c a11a f9bb
00000340: 082e cdba 0512 f83b ad2b f23b 1f69 62ba
00000350: 17b3 173c cd70 913b 7c32 c1ba 3a8f 5a3c
00000360: 2a98 30bb 4ba4 dc3a fc3f 86b7 d3ad 8e39
00000370: 5148 f43b 78f1 803c 960b a53b cbf3 1a3b
00000380: 350f 573c cf3c 88ba 93e3 3abc 9ccf 1c3b
00000390: 3234 36bb ccd8 d73b a56a 0d3c 502f c0b8
000003a0: 1bbc a43c 1cc0 6d3c e0d0 ce3b b9dc 1c3c
000003b0: 8b32 973b f8b3 f4b9 909f 753b d8ab 5ebb
000003c0: 72f9 373c 1602 1cba f352 21bc d856 b6bb
000003d0: a40c 26bb 5bd7 80bb f5f6 753c 9e6f 1dbc
000003e0: 957d 273c 52cd 2e3c 4320 e6bb 7b09 bfbb
000003f0: fa05 aa3b 5e80 773b 83f4 21bb 9e62 ef3a

network_body._body_endoder.seq_layers.2.weight f4 [256, 256]
0.0065537565 0.020314071 -0.0010317197 -0.03242127 -0.0042052874 -0.04406903 0.040284287 0.0029769274
0.00446859 0.02222799 0.053415205 -0.13823232 0.03839766 -0.02076349 0.01280466 -0.14870167
-0.021177605 -0.03322004 0.08267283 0.049849156 0.025106473 -0.009083895 -0.027964806 -0.09116459
-0.0093598105 -0.11274905 -0.037460737 0.044805445 0.03285532 -0.063650385 -0.09740215 0.057177752
0.0156019535 0.015310447 -0.054894067 -0.004967219 -0.14896724 0.022267032 -0.11253564 0.042752724
0.06955016 -0.07276888 -0.084592685 -0.035993945 0.0019284114 -0.08610943 -0.07951344 0.025959672
0.025586883 0.024073102 -0.05907478 -0.13403626 -0.03876167 0.065408185 0.050429776 0.056683857
-0.10955651 -0.006234271 -0.08874517 0.04709807 -0.033512313 -0.09353063 -0.020144355 0.04887014
-0.0077324025 0.06616105 -0.008738048 -0.11324553 0.121467255 -0.0007825912 0.15399845 -0.037466306
-0.022343313 0.05589788 0.10544576 -0.037300073 -0.0018523971 -0.019142486 0.03570794 -0.029309912
0.051860135 -0.028771184 -0.12322939 -0.0727879 -0.045258142 -0.008103178 -0.0067870123 0.13464904
-0.049695536 0.013633434 0.029512912 -0.014315615 0.09062752 -0.069543615 0.011865961 0.037081636
0.0056417803 -0.04971537 0.10935969 -0.057597753 0.1934727 0.020852223 0.12791531 0.06033427
-0.049169365 -0.07114789 -0.015340974 -0.06318284 -0.020641347 -0.007378991 0.029272975 0.07065099
0.025873642 -0.053376753 0.033196334 0.047894873 -0.0074020126 -0.041678224 -0.0422084 0.032850374
0.07498007 0.09832386 -0.024736427 0.070041016 -0.025462551 0.026183588 0.07336874 -0.060153436
-0.084034525 0.12761402 -0.028667254 -0.0003109272 0.11695829 0.021949673 0.026756875 0.035570707
0.019139066 0.008019393 0.021988638 -0.0962545 -0.08155444 0.017766383 0.14332677 0.05218807
0.10680833 -0.027749319 -0.039605368 -0.07489012 -0.14342123 0.013613423 -0.07233584 -0.02881824
-0.019981997 0.01642495 0.033853732 0.007856868 0.017050512 -0.011343383 0.04571558 -0.02774673
-0.045596898 0.012326139 0.07383992 0.006244626 0.07403348 0.14146294 -0.16955428 -0.042518932
-0.0103882225 -0.025131619 0.080391295 -0.09177613 0.1377921 0.015038703 0.044927955 -0.06390686
-0.0009029132 -0.017694946 -0.052588627 0.04524607 0.00054620503 0.042715527 0.022816747 -0.027281303
0.12177323 0.11116264 0.051720314 0.045125358 -0.0022743829 0.015479574 0.057779934 -0.018443933
0.011633846 -0.14180467 0.13968255 -0.042382248 -0.009174317 0.012677066 -0.022083592 -0.040660664
-0.031473823 -0.09200088 -0.055167943 0.009083103 0.0023673654 -0.03863108 -0.009329821 -0.018124817
0.060612902 -0.09019622 -0.034117714 0.07586808 0.06286685 -0.035598893 -0.013142693 0.0651647
0.045147553 -0.007926184 -0.059852812 -0.039838575 0.0071173273 0.03315699 0.11589899 0.010743844
0.01123962 0.028672187 0.0387122 0.0294015 0.041227967 -0.06050946 0.022688918 0.04441505
-0.06565801 -0.001708995 0.05309357 -0.124380454 0.036639903 0.06659247 0.07302872 0.047682513
0.07771917 0.13044107 0.025857497 0.0033256814 0.05711303 -0.013997564 0.005420712 -0.014522552
0.08866629 0.023896305 0.13383113 -0.04700405 -0.058330756 -0.0212615 -0.08208803 -0.02293963
00000000: e5c0 d63b b269 a63c c53a 87ba 2acc 04bd
00000010: 82cc 89bb ba81 34bd 2301 253d 8e18 433b
00000020: 406d 923b 7917 b63c e7c9 5a3d c68c 0dbe
00000030: dd46 1d3d 3218 aabc a3ca 513c 4045 18be
00000040: a87c adbc bd11 08bd 5f50 a93d a12e 4c3d
00000050: 17ac cd3c 9ed4 14bc 7316 e5bc 80b4 babd
00000060: e459 19bc f9e8 e6bd 6e70 19bd ea85 373d
00000070: 4d93 063d 225b 82bd c77a c7bd 3833 6a3d
00000080: 569f 7f3c abd8 7a3c 9ad8 60bd 0ec4 a2bb
00000090: de8a 18be 5a69 b63c 1679 e6bd 7b1d 2f3d
000000a0: 5070 8e3d da07 95bd ee3e adbd 636e 13bd
000000b0: c0c2 fc3a 245a b0bd f1d7 a2bd 61a9 d43c
000000c0: 959b d13c f434 c53c 66f8 71bd cd40 09be
000000d0: 8fc4 1ebd baf4 853d 748f 4e3d 552d 683d
000000e0: 2a5f e0bd db48 ccbb 07c0 b5bd e8e9 403d
000000f0: 3544 09bd fd8c bfbd c605 a5bc 0e2c 483d
00000100: 1860 fdbb 727f 873d 082a 0fbc 46ed e7bd
00000110: d3c3 f83d ce26 4dba c5b1 1d3e 4576 19bd
00000120: 5309 b7bc 2df5 643d f2f3 d73d f6c7 18bd
00000130: 22cc f2ba b4d0 9cbc 7d42 123d 571b f0bc
00000140: 4b6b 543d 8cb1 ebbc b15f fcbd d311 95bd
00000150: 9a60 39bd 31c3 04bc 9665 debb 70e1 093e
00000160: 8c8d 4bbd c45e 5f3c 10c5 f13c 0b8c 6abc
00000170: ec9a b93d e26c 8ebd 7369 423c eae2 173d
00000180: afde b83b 58a2 4bbd f9f7 df3d 9feb 6bbd
00000190: b51d 463e 48d2 aa3c 3bfc 023e 1121 773d
000001a0: d165 49bd fcb5 91bd b558 7bbc 0166 81bd
000001b0: 0b18 a9bc 77cb f1bb e1cd ef3c 77b1 903d
000001c0: f6f4 d33c 95a1 5abd e1f8 073d 6a2d 443d
000001d0: 958c f2bb c9b6 2abd b7e2 2cbd 1d8e 063d
000001e0: 278f 993d 055e c93d 0ca4 cabc aa71 8f3d
000001f0: d796 d0bc f77e d63c 5a42 963d 7363 76bd
00000200: 4b1a acbd 40ad 023e 97d7 eabc f103 a3b9
00000210: d487 ef3d cdcf b33c 3c31 db3c 97b2 113d
00000220: 88c9 9c3c c663 033c 8421 b43c 1421 c5bd
00000230: 0406 a7bd ce8a 913c 41c4 123e 28c3 553d
00000240: 53be da3d 8a52 e3bc 3d39 22bd fe5f 99bd
00000250: 04dd 12be d60a 5f3c d024 94bd 3b14 ecbc
00000260: 49b1 a3bc 9e8d 863c 36aa 0a3d 18ba 003c
00000270: 84ad 8b3c 99d9 39bc 4340 3b3d 1c4d e3bc
00000280: d0c3 3abd 93f3 493c 6239 973d b89f cc3b
00000290: dd9e 973d a9db 103e a39f 2dbe 5528 2ebd
000002a0: 5d33 2abc d3e0 cdbc 31a4 a43d 20f5 bbbd
000002b0: 5f19 0d3e e464 763c 6006 383d 9ae1 82bd
000002c0: 7bb1 6cba fef4 90bc 2c67 57bd f153 393d
000002d0: 332f 0f3a 7af6 2e3d 30ea ba3c 0a7d dfbc
000002e0: 3e64 f93d 3da9 e33d aed8 533d 5ed5 383d
000002f0: d00d 15bb 0a9e 7d3c a7aa 6c3d bb17 97bc
00000300: e39b 3e3c 3e35 11be f108 0f3e 0299 2dbd
00000310: e04f 16bc 78b3 4f3c a6e8 b4bc cc8b 26bd
00000320: b2ea 00bd f56a bcbd c8f7 61bd 4cd1 143c
00000330: cd25 1b3b a03b 1ebd 1bdc 18bc 7f7a 94bc
00000340: 3c45 783d ccb8 b8bd 04bf 0bbd b960 9b3d
00000350: 56c0 803d 25d0 11bd 7354 57bc 1275 853d
00000360: a4ec 383d d3dc 01bc 3928 75bd c62d 23bd
00000370: 7838 e93b a0cf 073d 735c ed3d f306 303c
00000380: 6226 383c efe1 ea3c af90 1e3d 6adb f03c
00000390: a8de 283d c4d8 77bd 1cde b93c 8eec 353d
000003a0: b577 86bd 5b00 e0ba a578 593d 2ebb febd
000003b0: b913 163d a261 883d 1590 953d bd4e 433d
000003c0: 3a2b 9f3d 5892 053e 1ad3 d33c adf3 593b
000003d0: 5aef 693d 0a56 65bc 3aa0 b13b ffef 6dbc
000003e0: ac96 b53d 2fc2 c33c 070b 093e 5287 40bd
000003f0: 3bec 6ebd 992c aebc c51d a8bd e4eb bbbc

network_body._body_endoder.seq_layers.2.bias f4 [256]
0.000620238 -0.00084203016 -0.0010412512 -0.0012954384 -0.004454932 0.0060508507 0.00044085766 0.006332388
0.0075046676 -0.007954405 0.0016905224 -0.0013420418 0.0025358794 -0.0034868552 -0.007823399 0.008480661
-0.0053049107 -0.0027638099 0.008249715 0.0042812917 -3.3668955e-05 -0.00189724 0.015851023 0.004115683
0.011067238 0.0031562713 -0.010331189 -0.0029593974 0.0013440194 -0.010039301 0.0004543565 -0.0012670071
0.0020852 0.0034582207 0.0005008023 -0.008403667 0.0033827897 -0.004934469 0.0069049583 0.009106741
-0.011401448 -0.006968353 -0.0020257568 0.0022877536 -0.005148671 -0.009449901 0.00043357562 0.0024785434
0.012221218 -0.0045773108 -0.002050218 -0.005418852 -0.0055925976 0.0026169019 -0.0008751104 -0.006940025
0.0074938815 0.0052136625 0.009516686 -0.011464572 -0.005443411 0.0035748405 0.005234834 0.006621405
0.0036540579 0.00042346484 0.007864805 -0.016030237 -0.005445179 -0.0018469456 -0.008095128 -0.005667336
0.008850829 0.007841131 0.0042976537 0.00015674572 -0.0024965561 -0.0012777132 0.0062020477 0.0069225375
-0.0014029811 -0.0064927503 0.007232249 0.0054876474 -0.003483586 0.008584936 0.00089801307 0.0032449628
-0.009888438 0.006576686 -0.0057059396 0.0028064954 0.0050429227 0.0074404087 0.005914044 0.0012549494
-0.0025650284 0.008033711 0.0073201032 -0.0072761253 -0.004433278 0.0044656508 -0.0040370612 0.00330699
0.0037504742 0.003355139 0.00054139935 -0.0014502435 0.010915148 -0.008085348 0.005083017 0.015227713
0.012653596 -0.008402663 0.006322525 0.015358589 -0.0005516093 0.0053552203 -0.0042715603 -0.007885618
0.005364109 0.0075391484 -0.004433326 0.0019754046 -0.007626915 -0.0047565755 0.010394346 0.011064399
-0.0033646475 -0.003560863 0.010098196 3.8308925e-05 0.0078123617 -0.005378933 -0.003834341 -0.0038959552
-0.012989828 0.0072129304 0.0074636023 0.0054909904 0.009743651 0.012994183 -0.007168678 0.008590984
-0.00015080965 0.0015135093 -0.0026253045 0.010552224 0.0019401489 0.011697684 -0.009078442 -0.0071337502
0.003647294 0.0022778611 0.0036854744 0.0038681421 -0.0060802586 -0.003080584 0.00557907 0.0047005177
0.0066759214 0.010674839 0.0071406965 -0.0037328003 -0.008086311 -0.008456478 0.0049922746 0.00097279175
0.0021894819 -0.005843072 -0.0060586557 0.009847868 0.0060002008 -0.004330526 0.011155812 -0.0011818294
0.0074322554 -0.005483558 0.006196211 0.0040127705 5.1568437e-05 -0.0050830836 0.0036918453 -0.0027253863
-0.0011730627 -0.010499627 0.012859791 -0.0012984766 0.0033261573 -0.0054973094 0.0007595832 -0.0012584326
-0.008308385 -0.0066694035 0.0052846684 -0.006638595 0.009732407 0.00791452 -0.010350959 0.0049113063
-0.0032520734 -0.0031350087 0.010852407 -0.0063990704 0.0077612875 0.0019934431 -0.014491187 0.0040740427
0.003713642 0.014169625 -0.005131385 0.0073235934 -0.006143382 -0.0026086464 0.0034984183 -0.0064049438
-0.0057215947 0.0073109316 -0.016819932 0.012860824 0.00957651 0.003037388 -0.0056528063 0.0053698085
0.00185451 -0.0072348546 0.0030719656 0.0015067728 0.014644131 0.0036122364 -0.0010676733 0.0085474
0.0027255472 0.009660498 -0.002252586 -0.0013309692 0.004848692 -0.004861725 -0.0062955283 -0.008975459
-0.0014684288 0.009436982 -0.0017549929 -0.008322674 -0.0035457455 0.0019118662 -0.008605745 -0.009979046
0.0067588426 -0.00093961536 -0.009071585 -0.008593756 0.008900404 0.002022197 0.002903835 0.0036279126
00000000: 7897 223a b0bb 5cba 987a 88ba b3cb a9ba
00000010: aefa 91bb 3746 c63b ea22 e739 ec7f cf3b
00000020: b7e9 f53b 3153 02bc 8594 dd3a 73e7 afba
00000030: ff30 263b b983 64bb b72d 00bc 78f2 0a3c
00000040: d1d4 adbb 0921 35bb d029 073c 144a 8c3b
00000050: c437 0db8 d0ac f8ba 01da 813c dadc 863b
00000060: 5c53 353c 72d9 4e3b 2644 29bc 73f2 41bb
00000070: cf29 b03a e17b 24bc b236 ee39 b411 a6ba
00000080: daa7 083b 51a3 623b 4648 033a 89af 09bc
00000090: cbb1 5d3b 53b1 a1bb fd42 e23b 7134 153c
000000a0: 24cd 3abc c856 e4bb 8fc2 04bb 23ee 153b
000000b0: 2fb6 a8bb c2d3 1abc 8951 e339 0f6f 223b
000000c0: 813b 483c 44fd 95bb f35c 06bb a090 b1bb
000000d0: 1c42 b7bb 5480 2b3b aa67 65ba 2669 e3bb
000000e0: 3c8f f53b 5fd7 aa3b e0eb 1b3c e6d5 3bbc
000000f0: a45e b2bb df47 6a3b f888 ab3b 5ff8 d83b
00000100: eb78 6f3b 7d04 de39 62db 003c d851 83bc
00000110: 796d b2bb 3615 f2ba 6ea1 04bc 0fb5 b9bb
00000120: 1103 113c 1678 003c 55d3 8c3b 1c5c 2439
00000130: 439d 23bb f178 a7ba 8c3a cb3b 74d6 e23b
00000140: 3ce4 b7ba 23c1 d4bb 80fc ec3b b9d1 b33b
00000150: e04c 64bb d5a7 0c3c a368 6b3a 71a9 543b
00000160: 1d03 22bc 3e81 d73b e4f8 babb 2eed 373b
00000170: 1a3f a53b acce f33b 99ca c13b 1d7d a43a
00000180: 091a 28bb d49f 033c 7add ef3b 906c eebb
00000190: 0845 91bb 9854 923b 5349 84bb 16ba 583b
000001a0: 84ca 753b e4e1 5b3b b2ec 0d3a 1916 beba
000001b0: 73d5 323c 6878 04bc 708f a63b a87d 793c
000001c0: 0751 4f3c 53ab 09bc 2f2d cf3b 97a2 7b3c
000001d0: e099 10ba d87a af3b 72f8 8bbb ae32 01bc
000001e0: 68c5 af3b f60a f73b 6f45 91bb ca75 013b
000001f0: 33eb f9bb 0cdd 9bbb 0c4d 2a3c 7447 353c
00000200: 6b81 5cbb 5e5d 69bb e772 253c e5ad 2038
00000210: d7fe ff3b c341 b0bb 9149 7bbb 4853 7fbb
00000220: 4ad3 54bc 725a ec3b 3c91 f43b c4ed b33b
00000230: d6a3 1f3c 8ee5 543c 3be7 eabb 33c1 0c3c
00000240: a822 1eb9 f260 c63a 4d0d 2cbb 3ce3 2c3c
00000250: 984c fe3a a5a7 3f3c bfbd 14bc 3cc2 e9bb
00000260: 7007 6f3b 2b48 153b 0088 713b a880 7d3b
00000270: e83c c7bb a0e3 49bb a2d0 b63b cd06 9a3b
00000280: b0c1 da3b 85e5 2e3c 81fc e93b ffa1 74bb
00000290: 727c 04bc 0a8d 0abc 3c96 a33b f302 7f3a
000002a0: 697d 0f3b 3e77 bfbb b087 c6bb f458 213c
000002b0: 559d c43b 16e7 8dbb dec6 363c 9de7 9aba
000002c0: 478a f33b 6baf b3bb 9609 cb3b 8f7d 833b
000002d0: 304b 5838 ff8f a6bb e3f2 713b 659c 32bb
000002e0: 74c1 99ba a106 2cbc dfb1 523c a531 aaba
000002f0: a9fb 593b c622 b4bb c41e 473a fef1 a4ba
00000300: e41f 08bc 038b dabb 032b ad3b 9288 d9bb
00000310: ac74 1f3c e7ab 013c 1297 29bc 06ef a03b
00000320: bd20 55bb b874 4dbb 4bce 313c 4baf d1bb
00000330: 6652 fe3b 6da4 023b 726c 6dbc 8c7f 853b
00000340: 9360 733b b727 683c 2d25 a8bb c1fa ef3b
00000350: 6c4e c9bb d3f5 2abb b845 653b 90e0 d1bb
00000360: 377c bbbb 8a90 ef3b f4c9 89bc 35b6 523c
00000370: cbe6 1c3c ea0e 473b 2d3b b9bb 38f5 af3b
00000380: 0813 f33a 5c12 edbb 0853 493b e87e c53a
00000390: f0ed 6f3c 45bb 6c3b 2cf1 8bba 650a 0c3c
000003a0: 189f 323b 1147 1e3c 1fa0 13bb ea73 aeba
000003b0: c7e1 9e3b 1b4f 9fbb b84a cebb ce0d 13bc
000003c0: 4b78 c0ba 929d 1a3c ca07 e6ba d35b 08bc
000003d0: bd5f 68bb 9697 fa3a 1cff 0cbc 277f 23bc
000003e0: 4879 dd3b 8550 76ba fca0 14bc d3cc 0cbc
000003f0: 00d3 113c d686 043b 444e 3e3b 46c2 6d3b

action_model._continuous_distribution.log_sigma f4 [1, 5]
0.028211754 0.048172113 0.07863553 -0.008997592 -0.025429642
00000000: 561c e73c 1f50 453d aa0b a13d a36a 13bc
00000010: d351 d0bc

action_model._continuous_distribution.mu.weight f4 [5, 256]
-0.019239947 -0.016322393 -0.021099512 -0.029282529 -0.015718779 0.009874863 -0.008989009 0.013080982
0.021035431 -0.012798704 -0.006756329 -0.01963564 0.0056774556 0.0063757766 -0.017169202 0.010196864
-0.034094624 0.0024743972 0.007938202 -0.037705798 -0.008832375 -0.025892215 0.015907556 -0.017275704
0.0025174285 0.007158736 -0.013184627 -0.010229348 0.01012138 -0.009354394 -0.007465926 0.00015595622
0.011342841 0.014419997 -0.019291662 -0.018644936 0.008425359 -0.0092014605 0.021900909 0.011513466
-0.022129443 -0.016858619 -0.029205373 0.014699649 -0.026734618 -0.004161276 0.019956391 -0.026307268
-0.027367955 -0.011734687 -0.013857425 0.008253149 0.004650235 0.0005508581 -0.017522942 -0.025612887
0.004633811 -0.003387864 0.01711703 -0.010702646 -0.012893295 0.005981104 0.034658223 0.033035144
-0.008609782 -0.0053318935 0.0041277413 -0.017539786 0.010355244 -0.03866045 -0.027900642 0.015441503
0.009474904 0.0077710007 -0.028109008 -0.0120634325 -0.016854955 0.009753166 -0.0023952087 0.0014771397
-0.011484571 -0.042270325 0.024386454 -0.00044265657 -0.021063847 0.024508573 -0.006145363 0.0092684515
-0.013495273 0.016108872 0.018436462 -0.013031919 -0.009006624 -0.0038807308 -0.0005367654 0.030692624
0.016560815 -0.0074315397 -0.017807666 -0.009058069 -0.021730404 -0.0017157594 -0.0058690454 0.02244974
0.011314518 0.0119399885 -0.015871251 0.021716267 0.027188228 -0.028253416 -0.0020732344 0.01821358
0.014293625 0.012118344 -0.018627962 -0.003439359 -0.008987956 0.005768416 0.0059687104 0.014531533
-0.0011535863 -0.0055579958 0.009076488 0.00059389416 0.008650053 0.0032967739 0.00058016094 0.011486279
-0.02832067 -0.029713353 0.0044995737 -0.017522562 0.011031473 -0.021927092 0.008309083 -0.024689881
-0.013863949 -0.0007624718 0.02125997 0.023084562 0.038078856 0.02912662 -0.009818659 0.011484158
0.006353488 -0.0026705274 -0.0050209104 0.00885435 -0.00080236036 0.009259022 -0.0059733884 -0.020191075
-0.0033913713 0.012376734 -0.03574702 0.010555651 0.014780323 -0.017638348 -0.002007262 -0.030810509
0.047901135 0.023049233 -0.013717236 0.023074763 -0.041417237 -0.017123751 0.036524132 0.004046895
0.004195666 -0.0031156878 -0.0124015985 -0.02432518 -0.0058880975 0.01117657 0.026956955 0.017075468
0.009019722 -0.013873967 0.04270459 -0.015156688 0.018364053 0.004877596 0.029656641 -0.002810534
-0.016855638 -0.03139342 0.08851619 -0.01598262 -0.0019108838 -0.0010642081 -0.016278248 -0.0012978294
-0.012397893 -0.0027911798 0.02045108 -0.016824003 0.04649684 -0.008395489 -0.007523306 -0.0053906497
-0.018973041 -0.01781917 0.030279715 0.0075842305 0.036160912 -0.019408181 -0.016854271 0.024512786
-0.0063570505 0.01965249 -0.005672197 -0.014998898 0.005751841 0.01218808 -0.012765431 0.003658824
0.0051706377 0.017122561 -0.02060917 0.03484855 0.024018927 0.013129001 0.009551506 -0.0037333542
-0.007843289 0.0029450941 0.01039052 -0.016014189 0.002642965 -0.020287054 -0.00035912567 -0.011251586
-0.037850786 0.004458754 -0.0047191903 -0.021514717 0.048516307 -0.019531455 -0.02240886 -0.016093133
0.001769913 0.0014300337 -0.022015965 0.01621719 -0.000357582 -0.030833371 -0.041246563 0.004737413
0.03944683 -0.004511325 -0.01251298 0.007957807 0.026174456 0.013815977 0.0066022584 0.012471169
00000000: 189d 9dbc 8ab6 85bc e2d8 acbc eae1 efbc
00000010: abc4 80bc 2dca 213c a346 13bc 9d51 563c
00000020: 7f52 ac3c a8b1 51bc 3264 ddbb ecda a0bc
00000030: f309 ba3b e4eb d03b 6da6 8cbc bf10 273c
00000040: cea6 0bbd 7f29 223b 3b0f 023c 6571 1abd
00000050: aab5 10bc e91b d4bc 9050 823c c785 8dbc
00000060: 71fb 243b d593 ea3b 5504 58bc ff98 27bc
00000070: 25d4 253c 2c43 19bc baa4 f4bb 2e88 2339
00000080: 53d7 393c da41 6c3c 8c09 9ebc 44bd 98bc
00000090: 840a 0a3c b9c1 16bc 8969 b33c faa2 3c3c
000000a0: ce48 b5bc 161b 8abc 1b40 efbc ccd6 703c
000000b0: 8f02 dbbc 505b 88bb 967b a33c 5782 d7bc
000000c0: c332 e0bc d842 40bc 410a 63bc 3738 073c
000000d0: 0061 983b 7667 103a 468c 8fbc 1ed2 d1bc
000000e0: 39d7 973b ed06 5ebb 0439 8c3c 275a 2fbc
000000f0: 663e 53bc 23fd c33b c8f5 0d3d dc4f 073d
00000100: 0b10 0dbc 2ab7 aebb 0142 873b 99af 8fbc
00000110: 0ba9 293c 6c5a 1ebd e38f e4bc 5cfe 7c3c
00000120: a13c 1b3c e1a3 fe3b dd44 e6bc b4a5 45bc
00000130: 6713 8abc becb 1f3c eff8 1cbb 959c c13a
00000140: c829 3cbc a623 2dbd 1ac6 c73c 5c14 e8b9
00000150: 178e acbc 34c6 c83c 0b5f c9bb b4da 173c
00000160: 471b 5dbc c1f6 833c 1008 973c d483 55bc
00000170: 8590 13bc dc53 7ebb b7b5 0cba 196f fb3c
00000180: 8caa 873c 4684 f3bb 62e1 91bc 4c68 14bc
00000190: f603 b2bc 55e3 e0ba 1f51 c0bb 84e8 b73c
000001a0: 8760 393c f19f 433c 6d04 82bc 50e6 b13c
000001b0: d9b9 de3c b573 e7bc 1adf 07bb a534 953c
000001c0: cf2f 6a3c 058c 463c ab99 98bc de66 61bb
000001d0: 3842 13bc fb04 bd3b 2c95 c33b ab15 6e3c
000001e0: ef33 97ba d91f b6bb 8db5 143c 90af 1b3a
000001f0: f4b8 0d3c b00e 583b f115 183a f230 3c3c
00000200: c000 e8bc 6b69 f3bc 2971 933b 7a8b 8fbc
00000210: 5abd 343c 72a0 b3bc d222 083c 6f42 cabc
00000220: 9e25 63bc 9ee0 47ba 6329 ae3c d61b bd3c
00000230: 93f8 1b3d f39a ee3c 71de 20bc 0d28 3c3c
00000240: ec30 d03b 0404 2fbb 7386 a4bb d611 113c
00000250: 7e55 52ba 27b3 173c 6abc c3bb c167 a5bc
00000260: c541 5ebb c9c7 4a3c 786b 12bd 9cf1 2c3c
00000270: 2b29 723c 4c7e 90bc 458c 03bb 5266 fcbc
00000280: fb33 443d bfd1 bc3c 42be 60bc 4907 bd3c
00000290: 1fa5 29bd 1c47 8cbc 549a 153d d19b 843b
000002a0: cc7b 893b 9130 4cbb 1330 4bbc 9a45 c7bc
000002b0: f1f0 c0bb ef1d 373c d5d4 dc3c dae1 8b3c
000002c0: 75c7 133c a34f 63bc 02eb 2e3d c253 78bc
000002d0: 3670 963c 3ed4 9f3b 7cf2 f23c f030 38bb
000002e0: d614 8abc 6396 00bd fa47 b53d fced 82bc
000002f0: 9f76 faba e67c 8bba f659 85bc ee1b aaba
00000300: 8820 4bbc 3aec 36bb 0689 a73c 7ed2 89bc
00000310: 7873 3e3d 3c8d 09bc 1186 f6bb 0ca4 b0bb
00000320: 5a6d 9bbc 82f9 91bc 2a0d f83c 2385 f83b
00000330: 771d 143d e8fd 9ebc f811 8abc 0acf c83c
00000340: ce4e d0bb 42fe a03c d6dd b9bb f0bd 75bc
00000350: f079 bc3b 83b0 473c 1926 51bc e1c8 6f3b
00000360: 746e a93b 9d44 8c3c 90d4 a8bc 5abd 0e3d
00000370: 57c3 c43c 051b 573c eb7d 1c3c 4aab 74bb
00000380: 2381 00bc 7b02 413b 003d 2a3c 3030 83bc
00000390: 9835 2d3b 0931 a6bc 0849 bcb9 9258 38bc
000003a0: 6d09 1bbd bd1a 923b 70a3 9abb a23f b0bc
000003b0: 09b9 463d 6e00 a0bc c992 b7bc bfd5 83bc
000003c0: 6dfc e73a f86f bb3a d35a b4bc ead9 843c
000003d0: d879 bbb9 4496 fcbc 28f2 28bd 4d3c 9b3b
000003e0: 0093 213d bdd3 93bb 3e03 4dbc 7661 023c
000003f0: d06b d63c 685c 623c c257 d83b e053 4c3c

action_model._continuous_distribution.mu.bias f4 [5]
0.009524988 -0.0018325888 -0.0041836416 0.01614151 0.0033382177
00000000: b20e 1c3c 7a33 f0ba ee16 89bb 333b 843c
00000010: 00c6 5a3b
