configfiles/results/hb_05/Hummingbird/Hummingbird-499968.onnx (onnx, 401856 bytes, 7 tensors)

network_body._body_endoder.seq_layers.0.weight f4 [256, 125]
000000 da 29 db 3d dc 2a cc 3c 1f 76 c3 3d be 76 14 3e
       0.10701342 0.02492278 0.09544014 0.14498422
000010 22 38 3e be e0 bc 27 3e ff f2 f1 bc 78 0d 3e bd
       -0.185761 0.16380644 -0.029534815 -0.046399564
000020 a3 c9 12 3d df e1 54 3e 22 04 73 3e e7 98 41 3c
       0.035836827 0.20789288 0.23732045 0.01181624
000030 9d f1 a1 bc d2 1c 07 3e 86 33 26 bd 49 df 43 bd
       -0.01976853 0.13194588 -0.04057648 -0.047820363
000040 4d 37 ae bc cc 03 29 bd be 6a 1a 3d 01 27 bb 3d
       -0.021266604 -0.041263387 0.037699454 0.09138299
000050 63 38 7d bd 79 78 2a 3d 08 3d 8e 3d 0c 35 06 be
       -0.061821353 0.041618798 0.069452345 -0.13106173
000060 95 b1 fc bc 69 3f 85 bb 6e fc 74 3d ba 91 95 3d
       -0.030846396 -0.004066397 0.05981105 0.07303186
000070 eb d2 dc 3b ad e8 90 3e 73 5c 1b 3e 49 d5 30 3e
       0.0067390106 0.28302518 0.15171985 0.17268862
000080 a9 f0 dd 3b 21 de 37 bd 21 aa 4a bc 97 00 57 bd
       0.0067730737 -0.044889573 -0.012369663 -0.052490797
000090 9a cc 61 bd 29 c9 98 3d 51 f3 1d bd d9 60 0d be
       -0.055126764 0.07460243 -0.038562123 -0.13806476
0000a0 a5 50 06 be 66 45 41 3e 83 b0 9d bd 26 85 0b be
       -0.13116701 0.1887413 -0.076996826 -0.13625011
0000b0 d0 49 9d 38 af 73 bb bd 2d b3 9d bc 99 33 6f 3c
       7.500092e-05 -0.09152924 -0.019250477 0.014599704
0000c0 17 f0 97 3c 68 8c 8d 3c e7 ae 3d be 9e a8 7b 3d
       0.018547101 0.017278865 -0.18523751 0.061440103
0000d0 c8 fb 06 be ba fa 62 3d 4e 62 d4 bd eb fa 03 3e
       -0.13181984 0.055414893 -0.10370313 0.12888686
0000e0 40 25 32 bd 25 28 c3 bc 35 07 50 bd 0b c3 12 bc
       -0.043492556 -0.023822853 -0.050788123 -0.008957635
0000f0 ea 9c d6 bc 80 76 db bd 87 24 50 3d 35 b1 8f bd
       -0.02619787 -0.107159615 0.050816085 -0.070162214
000100 ec ec 28 bd 96 5d 3e bc 46 23 84 bd 52 a1 ae 3d
       -0.04124157 -0.011618992 -0.064520404 0.08526863
000110 89 70 e2 bd 7f 64 01 bb 75 05 00 be 4d 90 e0 bd
       -0.11056621 -0.0019743738 -0.12502082 -0.10965023
000120 e8 88 ef bd 19 f2 6d bd af 5c bc 3b 50 50 c2 3c
       -0.11696035 -0.05809221 0.0057483534 0.023719937
000130 25 17 da 3d 1e 6f ce 3d 27 67 bc 3c 43 c9 b0 3d
       0.10648946 0.10079788 0.022998406 0.086321376
000140 eb 20 bd bc 5c 78 27 3e b1 25 18 bd 4d 98 88 3c
       -0.023086986 0.16354507 -0.03714532 0.016674185
000150 36 9f 7c 3c f1 10 13 3d 27 d7 ad bc 31 05 58 3d
       0.015418818 0.03590483 -0.021220757 0.052739326
000160 02 dc 12 be 9b b0 08 be 7e 2a 3e 3e 13 d1 e6 bd
       -0.14341739 -0.1334862 0.18570897 -0.112703465
000170 6e 56 36 bd 8e fd c9 bb 52 8e b1 3c 28 46 0f bd
       -0.04451602 -0.0061642593 0.021674309 -0.034979016
000180 6e e4 a3 3d 44 d9 b2 3d f7 af 76 bd 39 21 47 bd
       0.08002554 0.087328464 -0.060226407 -0.048615668
000190 b6 c9 d7 3d 49 94 b1 ba f1 36 70 bd 32 6f 23 3e
       0.1053652 -0.0013548221 -0.058646146 0.15960386
0001a0 64 09 48 bd ee b8 fb 3d 79 39 cf bc 83 61 47 3e
       -0.04883708 0.12291132 -0.02529596 0.19470792
0001b0 2b 68 80 bd 0b 27 4d 3d a0 85 4f be 84 b0 d9 3d
       -0.062698685 0.050086062 -0.20265818 0.10629371
0001c0 b1 f6 41 3d 2e ad a7 3d 48 1e 4c 3d 31 f5 96 3d
       0.047354404 0.08187328 0.049833566 0.07370985
0001d0 d1 cd d8 bd 83 ad 89 3d 74 17 39 3d 04 0b 1d be
       -0.10586131 0.06722548 0.045188382 -0.15336233
0001e0 42 17 ad 3a c1 ee bb bd 40 1a a9 3d a1 e8 5f bc
       0.0013205784 -0.09176398 0.0825696 -0.013666303
0001f0 9e 1c a8 3d 8e 5b 20 be 90 19 3c 3d 33 6a 5a 3e
       0.08208583 -0.15659925 0.045922816 0.21329574
000200 df 0d 76 3c f5 83 e9 3c 1d 64 15 3e a3 b1 12 3d
       0.015017956 0.028505305 0.14588971 0.03581394
000210 25 b1 52 3e 92 61 d3 3b d9 b5 04 bd f5 2a 84 3d
       0.20575388 0.0064508403 -0.032399986 0.06453506
000220 28 8a 06 3c 56 ee 6b 3b c0 36 23 bd 59 41 c6 bc
       0.00821165 0.0036000214 -0.039847136 -0.024201082
000230 16 89 83 3d 13 b0 11 3e da 4e 33 bd 33 85 a0 bd
       0.064226314 0.14227323 -0.04377637 -0.07837906
000240 66 48 d0 3c 97 07 b1 3a 09 66 d1 bc a5 66 f4 3d
       0.025425147 0.001350629 -0.02556135 0.119336404
000250 71 1f 46 3d a8 9c 8e 3d 51 4a b3 3d 1b 22 d5 bc
       0.04836983 0.069634736 0.08754409 -0.02601724
000260 98 f2 34 be 78 c3 02 3e 6b b3 e5 3c 2b 98 7b 3e
       -0.17670667 0.12769878 0.028039655 0.24569766
000270 50 48 4a b9 96 10 69 bd b0 20 15 3e c2 2a bc bb
       -0.0001929116 -0.056900583 0.1456325 -0.005742402
000280 66 65 82 3b bd 24 37 3c ad 4d a8 3d 69 26 10 be
       0.003979373 0.011178193 0.082179405 -0.14077152
000290 93 b9 91 bc 4e b5 97 bd 3d 52 17 be 5b af b7 3c
       -0.017788684 -0.07407628 -0.14777465 0.022422483
0002a0 74 a1 4d 3d 16 39 9d bd 32 98 fb bc 0b f9 c7 3d
       0.0502028 -0.07676904 -0.03071222 0.09764298
0002b0 37 85 10 3d e3 a8 27 bd 2e ef 4a 3d 5a ba bf 3b
       0.035283294 -0.040932547 0.049544506 0.0058510723
0002c0 ef dd f9 3d 95 17 b2 bd 0c b7 8a bd ea 55 a6 bb
       0.122005336 -0.08695904 -0.06773195 -0.0050761597
0002d0 4a 29 c7 bd eb 61 14 ba 87 b6 be 3d ef d5 9f 3d
       -0.09724672 -0.0005660343 0.09312158 0.078044765
0002e0 64 eb 73 3b fd a1 4c 3c e4 67 b2 3d 7b f1 f9 3d
       0.0037219161 0.012489793 0.08711222 0.12204262
0002f0 98 de 9c bc cc 10 a4 bc 0c 9b e0 bc ab 3e 2b bd
       -0.01914911 -0.02002754 -0.027417682 -0.04180781
000300 fd 55 f1 3c 64 70 3e 3c 45 b3 72 3d 98 70 c2 3b
       0.029459948 0.011623476 0.059252996 0.0059338324
000310 45 86 aa bd e3 09 38 3d fd 83 5b 3d 61 c3 59 3d
       -0.08326391 0.044931304 0.05359267 0.053164843
000320 45 91 89 bd 80 2a b9 bc 34 69 41 bc 2c d3 3f 3d
       -0.06717161 -0.022603273 -0.011804868 0.04683225
000330 39 4e 99 bd 61 b1 85 bd be 88 9f 3d 2c 8e 1b bd
       -0.07485623 -0.06527973 0.077897534 -0.037977383
000340 0a 37 df bc 64 d6 78 bc 0e 13 72 bd 09 a7 89 3b
       -0.027247924 -0.015187833 -0.059100203 0.0042008203
000350 91 1a d7 3c 07 84 9c bc 07 ea 2d 3b d5 d8 45 3d
       0.026257785 -0.019105924 0.0026537196 0.04830249
000360 43 92 02 bc a7 2c 6d 3d 96 2c c1 3c c8 7c c7 bd
       -0.007969442 0.057903912 0.02358083 -0.09740597
000370 a5 b6 0b 3e 93 e0 b4 bc 87 cc 0b 3c 75 07 86 bd
       0.13643892 -0.022079742 0.00853265 -0.06544391
000380 c6 67 01 3d 2c e5 c3 bc ff 72 b2 bd e4 c2 bc bd
       0.031593107 -0.023912989 -0.0871334 -0.0921686
000390 2c 20 42 be 0e 17 40 3d 10 76 3a bd e9 88 56 3d
       -0.18957585 0.046896987 -0.04552275 0.05237666
0003a0 12 89 7f 3e 50 a4 63 bd 85 eb 16 3d cf e9 ee bd
       0.24954632 -0.055576622 0.036845703 -0.11665689
0003b0 c7 91 69 3d 87 9d 40 3d a4 9f b7 bd 30 6a bf bc
       0.05702379 0.04702523 -0.08965996 -0.023366064
0003c0 82 af 69 3c 59 e9 50 bc 64 9f dd bd 95 7a 26 bd
       0.014263036 -0.012750947 -0.10821417 -0.040644247
0003d0 2c e3 bb bd 29 95 cf bd 3c 86 94 3d 76 09 83 3d
       -0.09174189 -0.10135872 0.07252166 0.06398289
0003e0 c8 0b 36 be 48 f4 58 3e ec af 82 3d 2d 8d 00 3d
       -0.17777932 0.21186936 0.06381211 0.031384636
0003f0 5e 0e 4b bd 55 b4 87 bd f0 1b 99 3b 9f ac 4b bd
       -0.04957425 -0.066261925 0.00467252 -0.04972517

network_body._body_endoder.seq_layers.0.bias f4 [256]
000000 d6 ea 57 3c 78 37 f8 37 3e b7 95 bb ad 3c 76 3a
       0.013178548 2.9589733e-05 -0.0045689633 0.00093931967
000010 07 a8 a5 39 af 54 31 3c 42 5a 71 bb 76 03 77 3b
       0.00031596443 0.010823413 -0.003682748 0.0037691272
000020 12 ae 17 bc 6f 3b 31 3a 91 8b b3 ba 5a 3e f9 3b
       -0.00925781 0.00067608705 -0.001369821 0.00760631
000030 ae 1f 51 bc 3e bd 28 3b 9c 75 9a b9 d0 58 b8 3a
       -0.012763901 0.0025747563 -0.00029460795 0.0014064554
000040 15 61 34 bc 6a b9 04 bc ea 69 2c 3c f5 a7 42 3c
       -0.011009474 -0.008100847 0.010523299 0.011880864
000050 e8 be af 3b 78 22 36 bb dd 46 3f bc 16 78 9b 3a
       0.005363334 -0.002779154 -0.01167461 0.001186135
000060 02 21 4d 3b 79 f2 f1 ba 94 ba 6c 3b 2f 03 13 bc
       0.0031300192 -0.0018459103 0.0036121951 -0.008972927
000070 ba 29 a7 3b a0 28 9e bb ff d4 84 3b 6c 19 9e 3b
       0.0051014097 -0.00482662 0.0040537114 0.004824808
000080 c6 13 c4 bb 21 a4 8c bb 51 3f aa bb fa 0a 4e bb
       -0.0059838025 -0.0042920266 -0.005195536 -0.0031439648
000090 78 50 71 ba a2 db 1c 3c 6b 20 f5 3b f7 ee 55 bb
       -0.0009205411 0.009573849 0.007480671 -0.0032643655
0000a0 3a 7c a9 3b 23 bc 64 3b e1 8d 49 3c 7c f2 ce 3b
       0.0051722797 0.0034902177 0.012301893 0.0063155275
0000b0 94 9c a9 3b c3 04 e2 3b 50 aa 66 bb c5 a3 d5 3a
       0.0051761363 0.0068975403 -0.003519673 0.0016299417
0000c0 b8 9d 56 bc ff 95 51 ba c6 e3 20 3c 86 71 9e 3c
       -0.0130991265 -0.00079950684 0.00981993 0.019341242
0000d0 78 2c 70 bc 3d 94 9c bb 19 c4 a7 3b 6e 2a 92 3a
       -0.01465904 -0.0047784136 0.005119812 0.0011151561
0000e0 25 b7 60 3c 0e 96 85 3a 88 38 37 3b bc 49 16 39
       0.01371554 0.0010191815 0.002795728 0.00014332583
0000f0 22 da 03 bc 2e 07 24 3c 30 c7 94 ba ee c5 ae 3c
       -0.008047612 0.010011477 -0.0011350866 0.021334615
000100 9d 6c 3d 3c 85 97 5f 3b 97 1a 7b 3b 67 32 aa 3b
       0.01156154 0.0034117412 0.003831541 0.0051939967
000110 a7 85 4c bc 4b 09 0d bc 5f 59 e8 3b c3 a2 cc 3b
       -0.012483037 -0.008608173 0.007090732 0.0062449886
000120 8a 1a b6 3b 78 fa 2c bc 22 c3 b8 3b 45 1f 9c 3b
       0.005557363 -0.010557763 0.005638496 0.00476447
000130 58 f2 a0 3b 80 2f 15 3c ea 01 5a 3b d8 30 00 3c
       0.004911702 0.009105563 0.00332653 0.007824145
000140 aa 40 33 bb 11 d2 25 3c 59 dc 81 3b ed b2 bc 3b
       -0.0027351775 0.0101208845 0.003963035 0.0057586343
000150 b3 0c 03 bc ad 5f 47 3b 7a b1 f4 bb df 9c 09 3c
       -0.007998633 0.0030422017 -0.007467446 0.008399217
000160 13 67 63 bc ff 10 51 3b 78 09 9c 39 43 01 1e bb
       -0.013879555 0.0031901 0.00029761693 -0.0024109639
000170 93 1e 9f 3c 49 c7 5b 3b ad cf a7 3b 5b 9c 5e 3b
       0.019423759 0.0033535531 0.0051211924 0.0033967707
000180 28 dc c4 ba 60 8a f5 ba 03 f1 9c bb 63 cb 0a 3c
       -0.0015019225 -0.0018733256 -0.004789473 0.008471343
000190 a3 18 d2 bb c8 72 fe ba 3f 99 3c 3c 99 34 28 3c
       -0.0064116283 -0.001941287 0.011511146 0.0102664465
0001a0 1c 83 32 bb fc 89 a9 3b 17 6d 0e bc 98 77 fa ba
       -0.0027238792 0.0051739197 -0.008693001 -0.0019109128
0001b0 a6 53 dd 3b a7 ab 1b 3a de 50 d4 3b 1d c5 f4 bb
       0.0067543564 0.0005938359 0.0064793667 -0.007469787
0001c0 d5 eb f9 39 d3 b3 ca 3b 6f 58 97 bb 0f 3b b4 3b
       0.0004766869 0.0061859875 -0.0046186964 0.0055002044
0001d0 c6 49 23 bc 00 67 f1 3a 13 b3 ec bb 35 11 e8 3a
       -0.009966319 0.0018417537 -0.0072234957 0.0017705323
0001e0 18 b4 7a 3b d5 2f 09 3c 9f b0 b6 3b a8 10 1e bc
       0.0038254317 0.00837322 0.005575254 -0.009647526
0001f0 1d 37 cf bb 7f 2f 03 bc 62 a6 26 3c 05 8a 50 3b
       -0.0063237087 -0.008006929 0.010171505 0.0031820547
000200 a4 19 89 3b 20 6b dc b8 f6 99 d4 bb 2b 6c 32 3c
       0.004183965 -0.00010510371 -0.00648808 0.010890047
000210 b2 dd c8 bb 55 d5 96 bb 14 9e 7b ba 0b 8e 92 3b
       -0.0061299438 -0.004603068 -0.00095984456 0.0044724992
000220 ce 7f dd bb 47 9b 02 3a bb b8 39 bc c4 2e a4 3a
       -0.0067596203 0.00049822446 -0.011335547 0.0012526144
000230 97 bb 84 3b b3 63 7f 3c dd b7 bd 3b 97 57 59 bb
       0.0040506828 0.015587735 0.0057897405 -0.003316378
000240 d2 0a 35 bc d8 d9 67 3b aa 94 44 3c fb c8 14 3c
       -0.011049943 0.0035377648 0.011998335 0.009081121
000250 71 f5 f1 3b 8c b3 99 bb 53 a1 7f bb 4e 56 13 3c
       0.007383995 -0.004690593 -0.003900607 0.008992745
000260 92 66 b2 3b 12 0f 16 3c bb 9e 08 bc d7 9e ae bb
       0.0054443562 0.0091588665 -0.008338626 -0.005328994
000270 f1 d5 2f 3c b9 47 fe ba ad 30 02 bc 57 b0 89 3b
       0.01073216 -0.0019400037 -0.0079461755 0.0042019296
000280 15 81 af bb 67 d5 55 3c 80 54 19 bc 11 90 20 3c
       -0.005355964 0.013051367 -0.009358525 0.009799973
000290 47 92 fc ba 45 92 ca 3b 03 d9 1c 3c 52 af e3 3b
       -0.0019269668 0.0061819875 0.009573224 0.00694839
0002a0 9f 78 8a 3a af 25 a7 3c 9e e5 38 3a 96 f2 3e 3c
       0.0010564512 0.020403711 0.00070532586 0.011654517
0002b0 e1 14 15 bc 5b c1 98 b9 e5 46 e1 3a 85 3f 8c bb
       -0.009099216 -0.0002913576 0.0017187266 -0.004280033
0002c0 f7 5d 27 bc b7 c9 b6 3a c5 d7 29 3c 05 48 0d 3b
       -0.010215274 0.0013945614 0.010366385 0.002155782
0002d0 ed 8e a1 3b 95 8e 1c bc e4 55 b2 3b 62 58 d3 bb
       0.004930368 -0.009555479 0.005442368 -0.006449745
0002e0 da 58 97 bb 34 bc 1a bb d0 f9 13 bb 07 0b ee 3a
       -0.004618746 -0.0023610713 -0.002257932 0.0018161245
0002f0 59 a2 ed bb 78 49 08 bb d5 31 81 3c 85 6a 98 bb
       -0.0072520194 -0.0020795744 0.015770832 -0.00465137
000300 31 b6 d8 3b 1d f3 9c 3b bf 4a c3 3b b2 6f 6c 3a
       0.006613516 0.0047897235 0.005959838 0.00090193294
000310 f7 85 c7 ba ae 34 46 ba 42 3e 15 3c 8a 95 db 3b
       -0.001522242 -0.00075609505 0.009109082 0.006701176
000320 99 39 5a bc 19 b0 a4 bb 1e 3c 56 bb 21 a9 2f bc
       -0.013319396 -0.0050258753 -0.0032689641 -0.010721476
000330 d0 3a 89 3b 27 bf 65 3a 39 c1 34 3b 9f 99 d1 bb
       0.004187919 0.00087641407 0.002758099 -0.006396487
000340 60 2b 6b 3b 62 02 b3 3b 9b 5a 0c 3b 72 b7 00 3b
       0.0035884008 0.0054629305 0.002141631 0.0019640592
000350 6d f6 28 3c 07 46 2f 3b 08 13 1a bc ab 15 54 3c
       0.010312659 0.002674462 -0.0094039515 0.012944619
000360 48 dd 18 bb 6b 94 ec bb 08 a8 4c 3b e9 c9 e1 3b
       -0.0023325253 -0.0072198412 0.0031228084 0.0068905246
000370 73 5c f6 3b 8c b3 9e 3b 4e 94 e7 3b d5 f6 fa 3b
       0.007518345 0.004843181 0.00706724 0.007658819
000380 1a 90 1b 3c 65 f5 9a bb aa be ca bb fd 4e 96 ba
       0.009494806 -0.0047289603 -0.0061872797 -0.0011467632
000390 73 e3 fb 3a d8 bf db bb f0 7b 13 3c 85 b1 62 3b
       0.0019217565 -0.006706219 0.009001717 0.0034590673
0003a0 17 0e 7a 3c 7c ee 98 3c a0 a3 3f bb e8 ae 64 3c
       0.015262148 0.018668406 -0.0029241815 0.0139577165
0003b0 4d e9 37 3b 97 39 4e 3b 41 d2 00 bb 70 8a 39 3b
       0.0028062642 0.0031467432 -0.001965657 0.0028311275
0003c0 d6 33 4f 3c 2c cb 9f 3b 88 7e ed bb 61 bc a1 bb
       0.012646636 0.004876515 -0.0072477497 -0.0049357866
0003d0 48 51 95 3a c6 e4 cb 3b 41 b3 ec 3b 2c af 8b bb
       0.0011392022 0.0062223403 0.007223517 -0.0042628255
0003e0 73 3b 80 3c 8d 6b 3b 3a ff 4c ac bb 33 07 43 bb
       0.015653348 0.000714951 -0.005258202 -0.002975893
0003f0 28 e1 78 3b 57 3e 00 3b 2f 6b ab bb 82 27 3f 3b
       0.0037976 0.0019568407 -0.005231283 0.0029167836

network_body._body_endoder.seq_layers.2.weight f4 [256, 256]
000000 b6 30 ad b9 d2 5d a4 3b c9 52 74 bc 70 27 0e bd
       -0.00033033424 0.005016067 -0.014912316 -0.03470558
000010 76 9b 16 bc 92 9a 6f bd fc f3 2d 3d 5e 6b cc 38
       -0.009192338 -0.05849702 0.04246901 9.747477e-05
000020 d8 d9 1f bc 26 1f ff 3c d5 9b 72 3d 6f 5b 07 be
       -0.009756528 0.031142782 0.059230644 -0.13218473
000030 7d 1e 0c 3d 4e 7e 27 bd 84 82 9d 3c 5e 2e 19 be
       0.034208763 -0.040891938 0.019227274 -0.14959094
000040 7f 57 fa 3a ce 89 6c bd 03 11 87 3d 8c bb 60 3d
       0.0019099562 -0.05774861 0.065950416 0.05486636
000050 6a 23 8b 3c d8 f5 96 bc e9 db 10 bd eb fe bc bd
       0.01698466 -0.018427774 -0.035365973 -0.09228309
000060 0e 54 96 3c 79 8e af bd 17 68 1e bc 5f 24 3f 3d
       0.018350627 -0.085720964 -0.009668372 0.046665546
000070 7e 30 62 3d 0c 31 5e bd 65 78 cd bd cc a5 5a 3d
       0.055222027 -0.054245993 -0.10032729 0.053380772
000080 96 50 ab 3c 52 70 a3 3c 0f 69 84 bd 27 87 f7 bb
       0.02091245 0.01995102 -0.06465351 -0.007553953
000090 37 a2 fc bd c3 d9 38 3d 2e bc ec bd 53 2f 90 3d
       -0.123356275 0.04512955 -0.1155933 0.070402764
0000a0 1b bf 8b 3d e4 50 b4 bd ba b9 9c bd 0d 47 0f bd
       0.0682356 -0.08804491 -0.07652612 -0.03497987
0000b0 8f 46 00 3b 58 4b b9 bd 10 8d 8b bd 54 0d 09 3d
       0.0019573306 -0.09047574 -0.06814015 0.033459976
0000c0 0e 8f d6 3c 64 ef c0 3b f9 34 6c bd 71 c1 0f be
       0.02619126 0.0058879126 -0.057667706 -0.14038636
0000d0 2b 8a eb bc 1f 3e 72 3d 9e 26 81 3d d6 ca 8a 3d
       -0.028752407 0.059141275 0.06306194 0.06776969
0000e0 31 21 b7 bd f4 78 0e ba ae 59 ae bd 34 72 41 3d
       -0.08941878 -0.00054348935 -0.08513199 0.047228053
0000f0 43 c5 36 bd 65 38 7f bd 48 b1 f2 bc d7 9c 16 3d
       -0.044621717 -0.06230964 -0.02962555 0.036770668
000100 f3 7a 5d 38 cf e7 71 3d 81 cf dd bb fb b6 e5 bd
       5.280501e-05 0.05905896 -0.006769121 -0.112165414
000110 02 34 01 3e e9 02 de 39 96 ca 0e 3e e0 6a 1a bd
       0.12617496 0.00042345308 0.13944468 -0.03769958
000120 8a f0 08 bd 98 1e 93 3d c8 e7 d6 3d b0 ab d3 bb
       -0.03343252 0.0718357 0.104934275 -0.0064596757
000130 01 09 84 bc c7 ae f9 bc d1 12 28 3d 1d 6c 4d bd
       -0.016117575 -0.030478848 0.04103357 -0.050151933
000140 80 ac 4b 3d db 92 1e 3c e0 a4 d9 bd bc ba a2 bd
       0.049725056 0.009678568 -0.106271505 -0.07945773
000150 b5 e9 2d bd e5 aa 25 3c 37 3b e7 3b e1 5c 07 3e
       -0.04245921 0.010111545 0.0070566195 0.13219024
000160 de 72 4d bd 4b 57 bf 3c 01 7d 80 3c f0 78 e5 bc
       -0.050158374 0.023357054 0.015684607 -0.028011769
000170 8a 14 e8 3d 9c 5e 8f bd 18 2c bd 3b 37 45 f9 3c
       0.113320425 -0.07000467 0.0057730787 0.030428512
000180 58 b8 37 bb 30 eb 2d bd 32 5e ce 3d c4 7a 6e bd
       -0.0028033461 -0.04246062 0.1007656 -0.058222547
000190 27 7a 2d 3e fe 39 fd 3c c2 a8 f3 3d 3b ac 49 3d
       0.16941129 0.030911442 0.118974224 0.049236517
0001a0 7f f6 1b bd b1 a7 77 bd 9f 64 eb bc 09 40 8a bd
       -0.038076874 -0.060462657 -0.028734503 -0.06750495
0001b0 52 9a f2 bb 51 ac 90 bc be 3e 32 3d e5 17 aa 3d
       -0.0074036503 -0.017660292 0.043516867 0.08305339
0001c0 26 02 d6 3c cd 23 41 bd 15 a7 26 3d a1 72 96 3c
       0.026124071 -0.047153283 0.040686686 0.018365206
0001d0 d1 40 0e bc e1 54 1f bd d6 79 22 bd 29 34 a6 3c
       -0.008682446 -0.038899306 -0.039666973 0.020288544
0001e0 67 0c a7 3d 6b 38 e1 3d cb 3e e1 bb 8d 3a b8 3d
       0.081566624 0.10997089 -0.0068739406 0.08995543
0001f0 2d 8b 92 bc 7a 0e dc 3c 69 a2 b1 3d b9 75 5a bd
       -0.01788863 0.026862372 0.086735554 -0.053334925
000200 67 5e a8 bd fa 83 fa 3d 9a 47 b1 bc a8 9c 14 3b
       -0.08221131 0.12232204 -0.021640588 0.0022676382
000210 80 d2 e8 3d 8e 70 05 3d 49 db d8 3b ad 5a 1c 3d
       0.11368275 0.032578044 0.0066179377 0.038172413
000220 e2 d0 66 3c b7 75 4a ba 5c a8 f1 3c 01 1e ae bd
       0.0140878875 -0.00077232294 0.029499225 -0.085018165
000230 42 a4 a8 bd 4c 57 9e 3c b6 ec 02 3e dd 8e 84 3d
       -0.08234455 0.019328736 0.1278561 0.064725615
000240 ee 96 d0 3d 3d da d5 bc e6 13 0e bd e2 2b 9e bd
       0.101850376 -0.02610504 -0.034686945 -0.07723214
000250 b5 3b 18 be 1e 21 b8 3b a1 47 9c bd 8d 57 33 bd
       -0.14866526 0.0056191823 -0.0763085 -0.043784667
000260 00 da 12 bd ff d9 e6 ba 3b 5d cd 3c 1a bb 4c bc
       -0.035852432 -0.0017612575 0.02506887 -0.01249578
000270 2b 4c bd 3c d0 0d 8c bc ce 0c 17 3d 1b bc a8 bb
       0.023107609 -0.01709643 0.036877446 -0.005149377
000280 34 74 16 bd 4b 56 a5 3c ab b4 aa 3d cb a3 46 3c
       -0.036731914 0.02018275 0.08335241 0.012124012
000290 bd 60 9c 3d 5c 88 01 3e 3d ec 28 be e8 4a 3b bd
       0.07635639 0.12649673 -0.16496368 -0.045725733
0002a0 29 fa 96 bc 3a be 42 bc 79 7f b2 3d 42 a4 ba bd
       -0.018429833 -0.011886174 0.0871572 -0.09113361
0002b0 e1 de f4 3d 42 47 28 bc c3 08 17 3d 43 be 84 bd
       0.11956573 -0.010270895 0.03687359 -0.06481602
0002c0 94 a7 a2 b8 ab 66 33 bc 83 ab ff bc f6 c4 32 3d
       -7.755976e-05 -0.010949771 -0.031209713 0.043644868
0002d0 9e 76 c5 bb 10 b7 06 3d d4 43 44 3d 43 e5 24 bd
       -0.006026103 0.032889426 0.04791625 -0.040257704
0002e0 02 82 ee 3d 63 7d ce 3d c9 89 86 3d 46 ac 70 3d
       0.11645891 0.10082509 0.06569249 0.058758043
0002f0 ea 82 9a bc a3 55 cc 3c 97 2c 5c 3d d3 f0 83 bc
       -0.018861253 0.024943179 0.05375346 -0.016106045
000300 b8 30 c3 3c 52 c0 16 be 3e 24 01 3e 09 a7 f9 bc
       0.023826942 -0.14721802 0.12611482 -0.030475156
000310 d0 ea 49 bc f4 e4 71 3c 59 46 84 bc c9 2c 76 bd
       -0.01232405 0.014764059 -0.016146826 -0.060101304
000320 ce c4 ad bc cb e6 ab bd 74 4e 2f bd 34 7f 28 3d
       -0.021212008 -0.0839363 -0.042799428 0.041136935
000330 9b 9d 9b 3c 37 48 7a bd f9 72 43 bc d4 97 03 bd
       0.01899605 -0.061104026 -0.011929267 -0.032127216
000340 33 4a 67 3d 51 51 ad bd 21 21 13 bd 4b 71 85 3d
       0.056467246 -0.084627755 -0.035920266 0.065157495
000350 c9 37 46 3d 82 7a cc bc 80 08 a7 bc 77 c8 c7 3d
       0.048393045 -0.02496076 -0.020389795 0.097550325
000360 11 35 36 3d 39 02 57 bc 94 09 62 bd 16 3f 28 bd
       0.0444842 -0.0131230885 -0.055184916 -0.04107579
000370 f6 e8 80 bc 9d 3b 08 3d 20 1f f7 3d 10 12 8a bb
       -0.015736084 0.033259977 0.120664835 -0.004213579
000380 71 83 b6 3c f7 b2 bf 3c 4e b6 ef 3c 29 01 12 3d
       0.022279473 0.023400767 0.029261734 0.035645638
000390 84 fe 46 3d 88 aa 82 bd 2d c8 57 3d de 95 2b 3d
       0.04858257 -0.063801825 0.052681137 0.04189097
0003a0 e9 d0 43 bd 9c 0f e5 b8 1c 7d 45 3d cb 9a 05 be
       -0.047806654 -0.000109224784 0.048215017 -0.1304733
0003b0 4b ac 2e 3d eb 14 8c 3d e6 92 82 3d 62 02 23 3d
       0.04264478 0.06839927 0.06375675 0.039797194
0003c0 e7 d5 6e 3d 5a b3 00 3e ac 2b 99 3c 2e ba ad bc
       0.058309462 0.12568417 0.018697582 -0.021206941
0003d0 a1 18 81 3d 00 4b e7 bb 56 66 19 3d 55 3d 5f bc
       0.06303526 -0.0070585012 0.03745111 -0.013625463
0003e0 94 07 c5 3d a2 d6 df 3a 67 3f fb 3d 60 fa 3c bd
       0.09620586 0.0017077515 0.122679524 -0.046137214
0003f0 70 67 43 bd 0a e3 8b bc 47 63 93 bd f4 a0 0c bc
       -0.047706068 -0.017076034 -0.0719667 -0.008583296

network_body._body_endoder.seq_layers.2.bias f4 [256]
000000 3a d8 cb 3b 9c 2e d0 3b 9e 32 78 bb 8d c2 e9 3a
       0.0062208446 0.0063532125 -0.0037871967 0.001783447
000010 63 68 f4 bb 57 a2 6f 3b e0 b3 d6 ba a1 0c d9 3b
       -0.007458733 0.0036565268 -0.0016380511 0.00662382
000020 e1 c3 a4 3b 97 46 7a bb 37 e2 58 3b a3 b5 b7 bb
       0.0050282334 -0.0038189047 0.003309382 -0.0056063696
000030 b1 68 1f 3a a2 48 87 3a 78 75 40 bc 8f 3a f7 3b
       0.0006080969 0.0010321329 -0.011746757 0.0075448225
000040 7d 2c b7 3b 8b 12 40 bb b0 00 e0 3b 13 80 cd 39
       0.00559002 -0.0029307927 0.0068360195 0.0003919607
000050 9c 22 4c bb ac 8e 96 bb 5b e6 75 3c 65 12 16 b9
       -0.0031148558 -0.0045946445 0.015008534 -0.00014311967
000060 18 f7 d2 3b d3 3c 84 3b f9 42 69 bc 1e 0d 3f bb
       0.0064381473 0.004035571 -0.014237159 -0.0029152106
000070 73 c0 02 3a c1 df 3c bc 9f f1 51 ba d0 d0 dd bb
       0.00049877836 -0.011527956 -0.00080087216 -0.006769277
000080 17 8f 08 3b d1 d5 be 3a a2 35 6c bb 2c 1c 65 bb
       0.0020837241 0.0014559572 -0.003604271 -0.0034959419
000090 49 35 7d 3a 4a c5 82 ba 32 49 e9 3b 2a 6f 00 3c
       0.0009659124 -0.000997701 0.0071193213 0.007839004
0000a0 9e 83 02 bc 41 33 04 bc 61 fb ec ba 54 2e a3 39
       -0.00796595 -0.0080688605 -0.0018080288 0.000311243
0000b0 df 7d a9 b9 75 07 00 bc b1 2d 1a bb 62 29 2b 3b
       -0.00032327973 -0.007814278 -0.002352577 0.0026117195
0000c0 47 d6 ca 3b 8e 83 5d bb b8 6f f9 ba b3 64 3e bc
       0.0061900946 -0.0033800337 -0.0019030487 -0.011620688
0000d0 23 86 05 bc f4 5a 32 ba 31 4f 3b 3b 8b 29 e9 bb
       -0.0081496565 -0.0006803714 0.0028581137 -0.007115548
0000e0 46 33 e6 3b 9d 33 af 3b 4d 37 fc 3b 99 0f 2e bb
       0.0070251552 0.005346729 0.007697022 -0.002655959
0000f0 3c 19 22 bc 2b 0b 99 3a 87 d6 11 3b e6 cd 90 3b
       -0.009893712 0.0011676302 0.0022253112 0.0044190763
000100 27 95 cb 3b 32 a9 9b ba a1 c3 36 3c 4d c0 07 bc
       0.0062128487 -0.0011875986 0.01115504 -0.008285594
000110 d5 bb 0c bc 97 c6 27 bb 61 15 2d bc 2d 17 a3 bb
       -0.0085897045 -0.0025600547 -0.010564179 -0.004977128
000120 71 4c 00 3c 42 fc 3f 3b 69 b6 8f 3b e3 d6 26 3b
       0.007830725 0.0029294644 0.0043857587 0.0025457672
000130 c8 96 94 b9 ab 93 38 bb 2c c7 15 3c 5d fb 09 3c
       -0.000283411 -0.002816419 0.009141725 0.008421746
000140 72 9c 2c bb 68 1c ba bb 0c 68 f8 3b eb 7c d2 3b
       -0.0026338366 -0.005679656 0.0075807627 0.006423583
000150 b9 2d 5f ba 93 fe c4 3b 09 69 42 3a d5 31 83 3b
       -0.0008513588 0.006011793 0.0007416164 0.004003743
000160 1b 69 29 bc aa f5 9a 3b bc 1f 24 bc d2 46 f7 b9
       -0.0103400005 0.0047289925 -0.010017332 -0.00047164276
000170 ff db 19 3b b7 a8 b4 3b 95 50 a9 3b 02 79 39 bb
       0.0023477075 0.0055132764 0.005167077 -0.0028300886
000180 44 d8 87 bb c9 69 ee 3b 8e 50 08 3c 7e ff d4 bb
       -0.004145654 0.007275794 0.008319987 -0.0065001836
000190 9e 51 f8 bb ec f7 b2 3b 42 4b 90 bb 12 70 86 bb
       -0.007578089 0.0054616835 -0.0044035027 -0.0041027153
0001a0 aa a5 bb 3b 42 a7 d2 3b 34 6f 22 3b 61 65 e7 b9
       0.005726536 0.00642863 0.002478552 -0.00044135287
0001b0 56 2b 0d 3c 7b 6d cd bb 00 4b 92 3b da b6 40 3c
       0.008616289 -0.0062691546 0.004464507 0.011762345
0001c0 08 4a 4a 3c 20 9b e9 bb 81 c5 ff 3b be 79 8b 3c
       0.012346752 -0.007129088 0.0078055267 0.017025825
0001d0 0b 14 57 3a 72 dc bf 3b 83 e8 e6 bb 04 32 25 bc
       0.0008204586 0.0058551366 -0.0070467605 -0.010082725
0001e0 e4 ba 24 3a 36 72 d8 b9 be 5e 08 bc 28 8a 81 3b
       0.00062839524 -0.00041283824 -0.00832337 0.003953237
0001f0 68 81 b9 bb 91 84 a9 bb d1 ae 58 3c 71 7c 32 3c
       -0.0056611784 -0.005173274 0.013225273 0.010893927
000200 01 0d be ba 07 f1 88 bb 61 65 94 3b 9e f8 1c 3b
       -0.0014499725 -0.0041791233 0.004528687 0.0023951898
000210 b2 ec 9b 3b 8f c4 41 bb 47 ad 17 bb 5c 75 2e bb
       0.004758441 -0.002956662 -0.0023144053 -0.0026620245
000220 bb 1e e5 bb 9f d0 b0 3b ee 1a 9f 3b 3e 6f 8f 3b
       -0.0069921887 0.0053959633 0.004855505 0.004377275
000230 1a 3f 79 3b 11 8e 34 3c 8b 0b fa bb a5 c9 17 3c
       0.0038031996 0.011020199 -0.0076307706 0.009264384
000240 41 46 a8 bb 6c 92 43 3b 3e f9 9a bb de 49 29 3c
       -0.005135328 0.0029841913 -0.004729419 0.010332553
000250 bc f5 c4 39 86 9e 43 3c b5 b2 0c bc 0b a9 fa bb
       0.0003756712 0.01193965 -0.008587529 -0.007649546
000260 0a 74 a4 3a 81 ff cb bb 0a ee 70 3a 5a 4b f6 3a
       0.0012546789 -0.006225527 0.0009190744 0.0018790767
000270 4c 2e 07 bc b3 b4 1f bc 91 a4 c6 ba e6 b8 2f 3c
       -0.008250784 -0.009747672 -0.0015155246 0.010725236
000280 29 81 fe 39 4b b5 19 3c 16 0b 1c 3c 04 18 16 bc
       0.00048542887 0.0093816025 0.0095241275 -0.009160999
000290 ce 3c 1e bc 7c 19 08 b9 ce 24 ff 39 b5 1d 25 3b
       -0.009658052 -0.00012979464 0.00048664812 0.0025194709
0002a0 b1 58 6f 3b d8 4f c2 bb 8e 2e 94 ba 59 ea 6d 3c
       0.003652137 -0.0059299283 -0.0011305378 0.014521205
0002b0 95 c5 e6 3b 0d 27 98 bb 89 66 57 3c 9a b7 dd bb
       0.0070425966 -0.004643327 0.013147005 -0.006766272
0002c0 5e e7 fd 3b f3 e8 cc bb 08 3b 1b 3b 6c 60 89 3b
       0.0077485284 -0.0062533556 0.0023686308 0.0041924026
0002d0 4f 7a b6 ba ea 21 b2 bb 6d 1a ae 3b b0 9a 01 bc
       -0.0013921949 -0.005436172 0.005313209 -0.0079104155
0002e0 ef 25 27 bb 1b 5e 0a bc 47 f0 72 3b 6a 9d 1c ba
       -0.0025504788 -0.008445288 0.0037069486 -0.0005974384
0002f0 1e fa 63 ba 9e 78 96 bb 0c 23 22 3a 16 8d 51 3b
       -0.0008696633 -0.0045920154 0.0006185032 0.0031974963
000300 b4 2e 1a bc db 5e 06 bc cc df 89 3b 33 01 20 bc
       -0.009410549 -0.008201326 0.004207587 -0.009765911
000310 4d fc dc 3b e4 ab 27 3c fb 80 25 bc a6 c9 08 3c
       0.006743944 0.010233853 -0.010101552 0.008348858
000320 be 5f 63 bb d6 74 c0 3b a7 03 2f 3c eb 8c bb bb
       -0.0034694518 0.005873303 0.010682023 -0.005723586
000330 ab 8a 83 3b 46 c2 70 3b 29 9f 73 bc 7c af cd 3a
       0.0040143332 0.003673689 -0.01486949 0.0015692557
000340 ee d2 61 bb 23 27 4f 3c b7 45 78 bb 93 e3 ef 3b
       -0.0034458 0.012643608 -0.003788335 0.00732083
000350 99 7f 23 bc f1 80 cd bb 3d ee 12 3c b8 17 13 bc
       -0.009979152 -0.0062714745 0.008967933 -0.008977823
000360 f1 5b c8 bb 8d 26 b8 3b 8f 72 75 bc 26 84 0f 3c
       -0.006114476 0.00561983 -0.014980926 0.008759534
000370 3d 9c 8d 3b fd 8c a2 ba 45 54 ad bb f3 25 e9 3b
       0.0043216036 -0.0012401637 -0.0052895867 0.0071151196
000380 8b 91 5b 3b da fc c6 bb 7b 3f d1 3a 72 2b 54 3b
       0.0033503498 -0.0060726227 0.0015964353 0.0032374528
000390 64 a2 48 3c f4 75 8a ba 5f 78 92 3b 1d 20 ae 3b
       0.012245748 -0.0010563717 0.0044699158 0.005313887
0003a0 7e 93 c9 3b 49 e5 af 3b e5 bd b8 bb 3b 03 80 bb
       0.0061516156 0.005367909 -0.0056378716 -0.003906635
0003b0 e2 5f 86 ba 09 85 19 bc fd d7 b1 bb f7 46 55 bc
       -0.0010251964 -0.009370097 -0.005427359 -0.013017408
0003c0 08 3f 3d 3a e0 2e 31 3c d5 c4 23 bb f6 e8 2b bc
       0.000721917 0.0108143985 -0.0024989147 -0.010492554
0003d0 06 47 21 bb 99 49 80 3b 9e 47 18 bc e5 9c 51 bc
       -0.0024608984 0.0039150235 -0.009294419 -0.012793754
0003e0 d9 50 52 3b 20 b4 fa ba 65 33 23 bc 0f 40 2a bc
       0.0032091646 -0.0019127168 -0.009960984 -0.010391249
0003f0 85 4c 0b 3c e9 6d 5a bb 82 16 db 3a 8c 25 b1 3b
       0.00850213 -0.0033329672 0.0016715082 0.0054060873

action_model._continuous_distribution.log_sigma f4 [1, 5]
000000 cc c2 94 3c 15 6f a5 3c 4e ce e8 3c f7 5e 27 bc
       0.018159293 0.02019457 0.028418686 -0.0102155125
000010 56 f2 86 bb
       -0.004118244

action_model._continuous_distribution.mu.weight f4 [5, 256]
000000 64 20 ad bb 1e 62 10 3c 27 ac a7 bc a9 3b 8b bc
       -0.0052834023 0.008812455 -0.02046783 -0.016996222
000010 63 cb 82 bc 9f 16 ef 3b 53 2d 16 bc 1e 2f df 3b
       -0.015966123 0.007296398 -0.00916608 0.0068110367
000020 8e a4 25 3c dc fb 9a bc bf 4d 5c ba 3d e7 95 bc
       0.010110034 -0.018918924 -0.0008403919 -0.01829874
000030 e6 8b ca 3a ae 74 f3 3b 68 dc 89 bc 84 1d 48 3c
       0.001545307 0.007429681 -0.01682873 0.012214068
000040 38 87 9c bc e9 5e d1 bb 6c a9 46 bb 4f 58 30 bc
       -0.019107446 -0.006389488 -0.0030313386 -0.010763242
000050 8f 98 6b 3c 6f 57 1f bc 07 8e 84 3c 60 0b 67 bc
       0.0143796345 -0.009725436 0.016181005 -0.014101833
000060 7f d0 28 3b e6 14 47 3c 8c 4c 11 bc e2 c3 63 bc
       0.002575904 0.012150979 -0.008868348 -0.013901683
000070 65 47 64 3c 6e a1 0b bc 80 6c b8 3b 33 44 d5 3b
       0.013933037 -0.008522375 0.0056281686 0.006508374
000080 31 36 28 3b 76 29 ef 3b a7 3e c5 bc b1 38 ba bc
       0.0025667066 0.0072986437 -0.024077727 -0.02273211
000090 73 e6 13 3c d7 ff a7 bc 8c bc 32 3c 29 85 f6 3b
       0.009027111 -0.020507736 0.010909211 0.007523198
0000a0 ef f5 97 3b 0e 7a f5 bb 80 ac 0f bc 84 9a 13 3b
       0.004637472 -0.0074913567 -0.008769155 0.0022522518
0000b0 69 ff c4 3a be d1 a9 bb 72 ee fb bb 49 00 ee b9
       0.0015029731 -0.005182474 -0.007688337 -0.0004539511
0000c0 e8 8d 17 bc 36 da 58 bc ab 5d c2 bc be de 7f bb
       -0.009250142 -0.013235619 -0.023726305 -0.0039042677
0000d0 3e 5a e8 3a 70 35 ae bb 79 2e 0f bc 5e dd aa bc
       0.001772709 -0.005316429 -0.008739107 -0.02085751
0000e0 9b dc 11 bc 1a 91 09 3c 5a be d4 3b a5 15 b3 3a
       -0.008902694 0.008396411 0.0064924182 0.0013663067
0000f0 2b 87 cf bb 77 88 05 3a 5f 9c 74 3c 0c 16 f5 3c
       -0.006333252 0.0005093882 0.01492986 0.02991774
000100 2c be c8 bb 45 26 59 3b c0 d2 d5 bb 82 d1 cc bc
       -0.006126186 0.0033134383 -0.0065253675 -0.025002245
000110 63 63 b9 3b d9 8d 79 bc f0 f9 cc bc 3f 55 6a ba
       0.0056576 -0.015231573 -0.025021523 -0.0008939094
000120 59 a9 d4 ba 77 d9 18 3c 9b 81 d7 ba c5 6c ee bc
       -0.0016224786 0.009329191 -0.0016441824 -0.0291046
000130 0f 00 81 3b 6c 76 15 bb 4f 4c c0 b9 54 72 af 39
       0.0039367746 -0.002280618 -0.00036677948 0.00033463782
000140 42 96 de b9 4b 43 dd bc c1 a6 39 3c 52 19 f2 ba
       -0.0004245509 -0.027009627 0.011331261 -0.0018470681
000150 0c 49 5d bb 9c ce 40 3c 9e 8c 50 3b f8 ff f2 bb
       -0.0033765463 0.0117680095 0.0031822096 -0.0074157678
000160 78 47 08 bc 94 0a 7f 3c c1 a8 05 3b c6 7a a5 bb
       -0.008317821 0.015566487 0.0020394775 -0.005050036
000170 6d 9c d8 bb f6 a5 2e bc 15 55 db ba 4d 8e 87 3c
       -0.0066104443 -0.010659685 -0.001673373 0.016547346
000180 6a 7c 9b 3b fc c8 1f 3b 2b b9 25 bc b1 33 71 bc
       0.004745056 0.002438127 -0.010114948 -0.014721797
000190 7b 57 94 bc 0d 9d 0b 3b 92 f3 18 bc 39 9d 86 3c
       -0.01810812 0.0021303326 -0.009335415 0.016432391
0001a0 24 97 4b 3c cd 42 41 3c 12 fb 23 ba 27 5f 28 3c
       0.012426171 0.011795712 -0.0006255369 0.010276592
0001b0 0e 58 48 3c 49 0c 9d bc 33 50 79 bc b9 f9 f4 3b
       0.012228025 -0.019170897 -0.015216875 0.0074760583
0001c0 84 55 9f 3c 43 e1 aa bb 92 9d a8 bc fc cf f4 ba
       0.019449957 -0.0052148416 -0.020582948 -0.0018677707
0001d0 cd 3c c0 bb 40 a7 f8 3c f2 ac ce bb 80 3a 4e bb
       -0.005866623 0.030353189 -0.006307238 -0.0031467974
0001e0 39 b7 66 3a 67 30 32 3c 1d d4 b0 bb fc 89 a7 bb
       0.0008801106 0.010875798 -0.0053963796 -0.0051128846
0001f0 8d 18 10 3a c4 b3 b2 3b 6d 67 17 3c a7 0a 6b 3b
       0.00054968224 0.0054535586 0.009240967 0.0035864504
000200 f1 dc a6 bc 00 55 34 bc a6 ed 3f 3c a9 bf c8 39
       -0.020369025 -0.011006594 0.011714375 0.0003828977
000210 3d 55 ac 3b 98 0d ad bb ee 13 36 bb 81 a5 b8 bc
       0.0052591846 -0.0052811615 -0.0027782875 -0.022539856
000220 31 bb 0b bb 26 d6 04 bb c0 0b 6e 3c 55 62 b2 3c
       -0.0021321292 -0.0020269244 0.014529169 0.021775404
000230 2c 13 e9 3c 2b 51 4a 3c 30 19 d5 ba f7 70 66 3c
       0.028451525 0.0123484535 -0.0016258117 0.014065019
000240 4a b7 86 3a 7d 8e 8f bc 21 9a 89 bc 38 a1 6c 3c
       0.0010278013 -0.017523998 -0.016797127 0.014442734
000250 0a a9 40 3c ec 26 c2 3b c3 56 c9 bb 44 9c 97 bc
       0.011759052 0.00592505 -0.006144376 -0.01850713
000260 60 a3 43 3b f6 32 3d 3a 28 54 35 ba f9 f0 aa 3b
       0.0029852018 0.00072173716 -0.00069171423 0.0052167145
000270 d6 56 a7 3b b4 95 77 bc 8c 29 c9 3b e9 56 14 bc
       0.005106787 -0.015111376 0.006138986 -0.009053924
000280 2f 24 0c 3d 0b f4 6c 3c 11 87 c3 3b be 04 a5 3a
       0.034214195 0.014462481 0.005967029 0.0012589914
000290 8d a9 1a bc ca 92 2b 3b 3a de b2 3c 11 b7 68 bb
       -0.009439838 0.0026180022 0.021834482 -0.0035509507
0002a0 0a ef 74 bb b2 b5 a0 bb 2d a5 dd bb 9f 08 90 b9
       -0.0037373924 -0.0049044723 -0.0067640753 -0.00027472244
0002b0 94 a8 32 3c 4c a6 0c bc cf d4 f2 3c 90 6e 5e 3c
       0.01090445 -0.00858457 0.02964249 0.013576165
0002c0 66 0f 0f 3c b1 4f 65 bb b0 b0 8c 3c a1 4b 8a bb
       0.008731699 -0.0034990127 0.017174095 -0.0042204414
0002d0 ee 32 53 3a 22 83 4d ba 7e f5 bd 3b c9 67 09 bc
       0.00080566003 -0.00078396697 0.005797087 -0.008386561
0002e0 77 ea 86 bc ee b0 ca 3b ac 7e 6b 3d 6a e8 86 bb
       -0.016469223 0.0061856424 0.05749385 -0.0041170614
0002f0 be ab d7 ba 32 32 6a 3b 38 80 a3 bc 16 0c 2e bc
       -0.0016454381 0.0035735485 -0.0199586 -0.010622999
000300 76 9a 91 bb a7 92 39 bc 14 39 94 3c 59 6d 48 bc
       -0.004443462 -0.011326469 0.018093623 -0.012233102
000310 48 d5 22 3d 56 0c eb 3a 34 b4 33 bc 8b ac d8 3b
       0.039754182 0.0017932754 -0.010968257 0.0066123656
000320 06 8f 07 bc af f8 ef ba 71 2e f4 3c d8 89 40 3b
       -0.008273846 -0.0018308366 0.029807301 0.0029379036
000330 7e 82 98 3c d6 af 77 bc b7 20 07 bb 64 49 b9 3c
       0.018616911 -0.015117606 -0.0020618865 0.022618003
000340 4c 36 16 bb 82 11 6e 3c 0a ba 31 bb 78 33 08 3c
       -0.0022920547 0.014530541 -0.0027118945 0.008313052
000350 c6 4e 8b 3a 8e f1 a0 3b cf fc ea ba 37 42 82 bb
       0.0010628335 0.004911608 -0.0017928126 -0.0039751786
000360 06 5e 96 3b 8a 7b 9e 3c 0e 35 bc bc 85 fd 8a 3c
       0.004588845 0.019346017 -0.022974517 0.01696659
000370 6d bd 3d 3c 0b cd ff 39 8c 04 7e ba 7a 46 38 bb
       0.011580807 0.0004879016 -0.00096900086 -0.002811818
000380 9a 51 d8 bb bf bc 20 bb eb fc 62 3c c4 2c d2 bb
       -0.0066015245 -0.0024526564 0.013854246 -0.006414028
000390 f5 8d 12 ba 51 58 a2 bb b1 c4 f5 39 9f 7e 30 3c
       -0.0005590611 -0.004954376 0.00046876588 0.010772376
0003a0 f0 52 ed bc e4 0f 26 3c ad c2 8b 3a f9 e4 01 bc
       -0.028970212 0.010135625 0.0010662876 -0.0079281265
0003b0 a7 db e1 3c 4c 7d 33 3b 9b 96 47 bc 9c 31 8a bb
       0.027570559 0.0027387915 -0.012181903 -0.0042173397
0003c0 cc 7c db 3b fc e2 be 3b 12 b5 22 bc 40 45 e5 3b
       0.0066982266 0.0058253985 -0.009930866 0.0069967806
0003d0 5b 85 be bb 20 8b 20 bc d3 be e3 bc 9d a8 ca ba
       -0.005814237 -0.009798795 -0.027800953 -0.0015461628
0003e0 be 03 ad 3c e5 77 b0 3b a3 cb d3 bb 5f 5e 0e bc
       0.021119948 0.0053853863 -0.0064634844 -0.008689492
0003f0 76 18 f8 3b 36 e8 d0 b9 24 7a 38 bb f6 44 c6 39
       0.0075712753 -0.00039845862 -0.0028148973 0.00037816883

action_model._continuous_distribution.mu.bias f4 [5]
000000 6e ab 94 3b 04 57 4f b9 dc 65 bd bb 07 96 60 3c
       0.0045370376 -0.00019773474 -0.005779965 0.013707644
000010 27 9d 9c 3a
       0.001194869
