configfiles/results/hb_03/Hummingbird.onnx (onnx, 401856 bytes, 7 tensors)

network_body._body_endoder.seq_layers.0.weight f4 [256, 125]
00000000: cc1c f3bc 5a57 d4bd a7bb e1b9 c9f9 7b3c
00000010: cc04 5a3d f90e b8bc 9501 0abd aca9 a3bc
00000020: 3114 f5bd a300 58be bb7b 703d d90d 7bbc
00000030: 0d12 de3c 5dcf 30bd cfd2 0f3e 0e8e 0abd
00000040: e965 6f3d b872 c33d 1002 0bbe 31c8 9e3c
00000050: f248 3ebe eeac 30bd c004 0d3e 3df4 293d
00000060: 7d9e cd3d 9664 663c f5ac 8fbd 9936 383c
00000070: b24d 03bc 40aa ccbc cc52 283d f71f 2abd
00000080: 6716 8fbb aa13 a43c 276e 213e 20fc ac3b
00000090: 867c b23d 3295 bebd cc24 f03d 2164 043e
000000a0: 9a3f 9cbd 6e6b 123c 13c1 f7bd c335 4ebe
000000b0: c227 30be cb83 fdbd ed85 3ebd 82eb 76bd
000000c0: aa28 6ebd c18c e03b d42a 11bd 68b7 aebc
000000d0: 2ff7 ec3d 1f87 e23d 21b0 1e3e 87e2 aa3d
000000e0: 60a6 a83c 4ffe 83bd 2b59 053d 8787 733d
000000f0: 3c1f 05be fdd7 4fbd afb8 17bb e5c3 19be
00000100: fdb9 5cbe 2d45 e7bc 9f87 c33d 59df 1a3d
00000110: ba9e 393d e58d 58bc f564 cd3d fe45 873d
00000120: 5978 53bd ac53 b33d 9dd3 1dbc 1685 69be
00000130: 72fa bb3d 8bba 3ebd eaaf 4bbd 042a 70bd
00000140: b7e0 9cbd 8d94 dcbd d9e1 1e3e 4416 27bd
00000150: d57c a73d c79c 563d b0cf 86bd 9382 48be
00000160: af80 30be b1b6 1f3d 721d 15bd 0e38 6a3d
00000170: feec 5bbc b51c 0ebd fb4a 143d 5ad9 273d
00000180: d678 26bc 1ac4 16bd ee97 debd dad9 fabd
00000190: 6ac6 9c3d 4546 f23a e1ba 203e 72d0 e83d
000001a0: ec58 803d 0adf 54be 6c1c 4cbc 6d20 443d
000001b0: 6f71 193e 9628 783b 0453 dfbc 7d9c b7bd
000001c0: df4e 123d e94d f33d 52cf 6dbe 22eb 1d3d
000001d0: 1fe8 1a3d 5f05 203e 682b 933d 9943 2b3e
000001e0: ae5e acbd 0046 24be 31c1 fd3d 5860 a1bd
000001f0: 7c09 c93d ff7a 13bd fbbf 333d a619 4a3d
00000200: c0ea 623d ff63 8ebd 8911 ec3d 43a5 ffbd
00000210: e8b9 9dbc bbca f33d 9e25 053c f69b e03d
00000220: eda7 cebd 9918 5bbd 9a3c 0c3e 7902 d43d
00000230: 30ce 9cbc 7a9d c93d ad15 42bd ce54 0cbd
00000240: 63e7 153c b5ed 5f3d 2d6e 4a3e 5efb e13c
00000250: 9657 1bbc 2e88 cebd 9364 663d 992d 943d
00000260: 33ce 123d 0d9c 263d cd71 0f3e fe1a 283c
00000270: 3656 2e3d 16cf 133e cbd7 8bbd 4754 193d
00000280: 2682 9fbc f47b 25be 7ca0 0d3d e953 953c
00000290: c824 a5bd 2da3 233e a847 91bd b6f1 b03d
000002a0: d67c bdbc 8db2 2b3d 6c60 903d d155 8cbc
000002b0: 2c63 cbbd 801b 88be 4ad3 a23c f184 963d
000002c0: 1460 fcbd 0715 06bd 465f 29be 61fc 7b3c
000002d0: 6f39 683d 1bc2 60bd 14b7 40bb bd05 70bc
000002e0: 9871 d33d 40bc 0bbc 4f9f a3bd 9cc9 9dbd
000002f0: 85ac 70bd d3a6 8fbd 7f19 5dbc f70b 39be
00000300: 22ee d83c 334d 643d 6fbf 39bb 2a8d 84bd
00000310: 7ef3 6a3c c3c2 ab3c 2bf8 90bb 1b08 763d
00000320: bc0c 2d3e 5814 3e3d 8e9e 473d 0211 9d3d
00000330: ffc6 823d c960 e63d ae01 9c3d 14c1 633d
00000340: 8350 873b 7093 babc 5ac3 debc 3d42 c0bd
00000350: d0dc 01bd 096e e33c f3a9 94bd 9604 3c3e
00000360: bd81 713c c970 1b3e 0888 8d3d d41b ac3d
00000370: 92cf 35bd ba62 b5bd afea c83c ba06 db3d
00000380: dc42 0d3c 53dd f7bd f2d8 74bc 1ce3 b0bb
00000390: 071e 403d 4fbf febd f54d a6bc 8bdc 0bbe
000003a0: 6884 23be 4a35 2d3d 40c1 273e 554b fd3d
000003b0: 43c2 aabd b035 873e d86a 0a3d 72a1 063e
000003c0: 3288 80be f7fa 9b3d 342d 0c3e cdfb 9dbd
000003d0: 216e a1bd 1f3f 04bc daa2 d83c 3c77 7bbd
000003e0: 7ced 053d 3afb b0bb 7d3c 32bd 5f86 323d
000003f0: 30bc 82bd ba0d a0bc d1f3 293e 18f1 87bc
-0.029676817 -0.103682235 -0.00043055156 0.015379378 0.05322723 -0.022468077 -0.033692915 -0.019978367
-0.11966742 -0.21093993 0.05871175 -0.015323126 0.027108217 -0.043166507 0.14045261 -0.03382688
0.0584468 0.09543365 -0.13575006 0.019382568 -0.18582514 -0.04313367 0.13771343 0.04149269
0.10039995 0.0140620675 -0.07015411 0.011243486 -0.0080141295 -0.024983525 0.041094586 -0.04153439
-0.0043666842 0.020028908 0.15764676 0.005279079 0.08715157 -0.093058005 0.117257684 0.12928821
-0.076293185 0.008936746 -0.12097373 -0.20137696 -0.17202666 -0.12378653 -0.04651444 -0.06028319
-0.05814425 0.0068527167 -0.035441235 -0.02132769 0.11570584 0.110609286 0.15496875 0.08343988
0.020587146 -0.0644499 0.03255574 0.05945542 -0.13000196 -0.05074309 -0.0023150851 -0.15016134
-0.21555324 -0.028231228 0.09547352 0.037810657 0.04531739 -0.013217424 0.10029022 0.06605147
-0.051628444 0.087561935 -0.009632972 -0.22804675 0.09178628 -0.04656462 -0.04972831 -0.05863382
-0.076600485 -0.10770521 0.15515842 -0.04079272 0.08178107 0.05239561 -0.06582582 -0.1958106
-0.17236589 0.038992587 -0.036405034 0.057182364 -0.013423203 -0.034695346 0.03620432 0.040978767
-0.0101606455 -0.03680811 -0.10868822 -0.12248583 0.07655032 0.0018484077 0.15696289 0.11367883
0.062669605 -0.20788208 -0.012457948 0.047882486 0.14984678 0.0037865988 -0.027261265 -0.08965395
0.03571975 0.118800946 -0.23223618 0.03855432 0.037819024 0.15627049 0.071860135 0.16725005
-0.08416496 -0.16042328 0.12390364 -0.07879704 0.09816262 -0.03600597 0.04388426 0.049340867
0.055399656 -0.069526665 0.11526782 -0.12482693 -0.019253686 0.11903902 0.008126644 0.10967247
-0.10090623 -0.053490255 0.13694993 0.10352034 -0.019141287 0.098444894 -0.047383953 -0.034260564
0.009149405 0.054670054 0.19768591 0.027585682 -0.009481331 -0.10084568 0.05624826 0.072352596
0.03584118 0.040676165 0.14008255 0.010260342 0.042562686 0.14434466 -0.068282686 0.03743389
-0.01947124 -0.16160566 0.034576878 0.018228488 -0.08063656 0.15980215 -0.070937455 0.08639853
-0.023130815 0.041918326 0.07049641 -0.017130764 -0.09931025 -0.2658348 0.019876141 0.07349575
-0.12323013 -0.032734897 -0.1654025 0.015379996 0.056695398 -0.054872613 -0.0029405998 -0.014649806
0.10324401 -0.008528769 -0.0798937 -0.077044696 -0.058758277 -0.07014241 -0.013494848 -0.1807097
0.026480738 0.055737685 -0.0028342863 -0.064722374 0.01434028 0.020966893 -0.004424115 0.060066324
0.16899389 0.04640612 0.048735194 0.076692596 0.06385612 0.11248929 0.07617508 0.055604056
0.004129471 -0.022775382 -0.02719276 -0.09387634 -0.031704724 0.02776243 -0.07258978 0.18361124
0.014740405 0.15179743 0.069107115 0.08403745 -0.044387408 -0.08856721 0.024525968 0.10694642
0.008621898 -0.12102761 -0.014944302 -0.0053981673 0.046903636 -0.12438833 -0.020300845 -0.13658349
-0.15968478 0.04228715 0.16382313 0.12367884 -0.08337834 0.26408148 0.0337933 0.13147524
-0.2510391 0.07616227 0.13689119 -0.07714043 -0.078823335 -0.00807169 0.026444841 -0.061393008
0.032697186 -0.0054010423 -0.043514717 0.043585178 -0.0638355 -0.019537795 0.16596915 -0.016594455

network_body._body_endoder.seq_layers.0.bias f4 [256]
00000000: 1376 643a 775d 2fba 7b79 6d3a 108c 42b7
00000010: 3970 f7b9 5657 1cba 64c0 fbba 80e3 a2b9
00000020: 54c7 52bb e71f d5ba 7a7c 773b c22b 68ba
00000030: 1caa 13bb 6d95 a93a 0389 0dbb 6313 58ba
00000040: 151d 08bb 373a c03a c8f0 f139 f3cd 05bb
00000050: 302c 1f3b 6a42 853a 5c6d e9b8 9061 8d38
00000060: b216 18bb 89a0 c538 1958 c03a e35b 01ba
00000070: 2f85 123b 2450 91ba 3d1b e63a 1add 0c3a
00000080: 765c 07b9 19dc 03bb 2ea3 e43a e721 a1ba
00000090: 995d 0cb9 5d78 25bb 3475 03ba 3dae 0a3b
000000a0: 706e eaba 5851 f036 6f45 0abb c7af d1ba
000000b0: 3048 fe3a edd4 a93a ac9b df3a bb49 b339
000000c0: eed5 12ba abd7 0cbb a6c7 503a bb2b 003a
000000d0: d84b 1c3b d0cb b73a f4ae 24b9 a8b4 903b
000000e0: cb65 073b d01d 5eb9 a669 ce39 2567 d03a
000000f0: 42d0 7f38 0a89 c63a f2da 5c39 7725 12bb
00000100: 13c4 37ba cc28 fd39 7c0c faba 0988 0d39
00000110: 396c a3bb 654f f63a 4b47 0ebb e1a5 8a3b
00000120: 9cb7 c0b9 a81c 10ba 6598 dfba 737b b9ba
00000130: 9d62 f939 b598 ab3a 1323 8fba ea17 30bb
00000140: e932 03bb 7de7 34bb bd85 b33a aae3 063a
00000150: 562a 2a3a f3c8 1eba ac22 753a d09a a83a
00000160: 3ee1 f5b9 dda7 d03a 1a27 ceba 8f09 21bb
00000170: 8664 ea3a 0062 923a caf2 e1ba 0d85 343a
00000180: b13c 95ba e0c4 393b f8f5 993a 1c12 8c3a
00000190: d555 ea3a 98ac 983a f1f3 faba 4f86 303b
000001a0: 3d53 263a 5bf0 233b e13d 4ebb 07c6 953a
000001b0: ba93 0b3b d2bb ce3a 3fc1 4c3b c22e 563b
000001c0: 912d 95ba 5f58 183b d0bd 08ba bd46 1fb9
000001d0: ded7 303b 8ed4 53ba d3c0 95ba 4e34 c7b9
000001e0: fd11 83b9 7575 91ba 59f6 ca3a e9c8 24bb
000001f0: b999 4d3a e7c1 d339 576c c3ba 7180 023b
00000200: 0029 2cba 1c5b 84ba ca34 a8b9 ac70 d239
00000210: af90 03bb 37bd 053b 1b3d 8d3a 3b84 0f3b
00000220: 4840 abbb c9e0 ff3a 4b4c 403b 7359 54bb
00000230: ddc4 9d3a b51e daba 98ce d2ba 4c64 3fba
00000240: 487d e5ba 686d 8fba 08ff f2ba d68d de3a
00000250: 79b8 43b9 030a 8e3b 8978 5bba c931 d33a
00000260: 0c4f faba a723 26ba f4d9 e53a 5330 25b9
00000270: d12b 4e39 97dd 593b 0822 453a a3d6 143b
00000280: e29a 35b9 fc19 1d3b 1766 c2ba 3fa9 e1ba
00000290: d133 34ba 365e 723a f76c e53a e4ff 143b
000002a0: 65d9 1dba 9edf 9eb9 92d0 1d39 bb92 dfba
000002b0: 326f 96ba 043a 703b bed8 993a a6f9 92ba
000002c0: 2031 1f3a c783 dc3a 1c00 843b ee9a 23bb
000002d0: 22be 3aba 0798 bab8 5f48 19b9 41ca bcba
000002e0: 5faf 08ba b6ba 28ba 6cae 1cba 52a9 b03a
000002f0: ce30 bc39 bb22 5e3b 9e62 193b 4a4a 41bb
00000300: 247c 0f39 ece5 1d37 fe4b 6abb c0c2 b03a
00000310: b0b1 deba 160f c139 df26 8139 7446 ce3a
00000320: 2a9c be39 37ee 80ba ba39 c03a ce0c 97b8
00000330: a3f1 9bba 0417 293a 4552 113b 0c35 8638
00000340: b3c9 2fbb 17c5 873a 2851 493a af02 353b
00000350: b1c5 0aba be1a 85ba 7f19 72ba 183c e838
00000360: 0bb2 3a3b 1ae9 9c3b 9fbd d33a e8a3 d73a
00000370: e289 e739 43d9 8d3a f45e f9b8 6607 c9ba
00000380: f393 c5ba 7eab 65ba b51f b7ba f381 62ba
00000390: 84f2 a739 390e 0b3a c836 743a f3ee c3b9
000003a0: 2fa3 803b be10 22bb 56f1 bf39 6118 253a
000003b0: 31a2 b83a 9ae8 bc3a 023b 3cb9 81bb 4c3a
000003c0: bd73 303a 84b7 873b d3dc 993a 9f8d 203a
000003d0: f99c 663a b1db 8f3a 7c1e 0ebb 90cc 293b
000003e0: 8a6b 86ba f6e2 3439 795b e0ba 795f 64bb
000003f0: 8108 133b c32e 07bb 1021 963a c062 4936
0.0008715104 -0.00066896476 0.00090589345 -1.1595912e-05 -0.00047195124 -0.0005963942 -0.0019207117 -0.0003106855
-0.0032162266 -0.0016260118 0.0037763403 -0.0008856618 -0.0022531813 0.0012938209 -0.0021596558 -0.0008242635
-0.0020769287 0.0014665787 0.00046146498 -0.0020416945 0.0024287812 0.0010166888 -0.000111306756 6.741576e-05
-0.0023206887 9.423594e-05 0.0014674693 -0.00049346517 0.0022357216 -0.0011086506 0.0017555725 0.0005373523
-0.00012909048 -0.0020120202 0.0017443651 -0.0012293429 -0.00013386308 -0.0025248744 -0.0005014718 0.0021160983
-0.0017885696 7.162027e-06 -0.0021098515 -0.001599782 0.0019400176 0.0012957134 0.0017059944 0.00034196474
-0.0005601336 -0.0021490853 0.000796432 0.0004889329 0.0023848917 0.0014022533 -0.00015705434 0.004416067
0.0020660039 -0.00021182676 0.00039370096 0.001589988 6.0990693e-05 0.0015147042 0.00021062398 -0.0022300163
-0.00070101133 0.00048286316 -0.0019077207 0.00013497485 -0.0049872664 0.0018791972 -0.0021709974 0.0042312
-0.00036757893 -0.0005497434 -0.0017058967 -0.0014151171 0.00047566454 0.0013091775 -0.0010920487 -0.0026869723
-0.0020019358 -0.0027603798 0.0013696473 0.0005145619 0.0006491294 -0.00060571654 0.0009351175 0.001286352
-0.0004689786 0.0015919168 -0.0015728206 -0.0024572348 0.0017882742 0.0011168122 -0.0017238494 0.0006886281
-0.0011385885 0.0028346106 0.0011746278 0.0010686549 0.0017878363 0.0011648117 -0.0019146187 0.0026935523
0.0006344801 0.002501509 -0.0031469988 0.0011426815 0.0021297769 0.0015772528 0.0031243113 0.0032681678
-0.0011381378 0.0023246033 -0.00052162725 -0.00015189774 0.0026984136 -0.00080806843 -0.0011425264 -0.00037995208
-0.0002499967 -0.0011097627 0.0015484794 -0.0025144166 0.0007843036 0.00040389525 -0.0014909607 0.0019912983
-0.0006567389 -0.0010097953 -0.00032082788 0.00040138268 -0.0020075252 0.002040697 0.0010775657 0.0021898884
-0.005226169 0.0019521947 0.002934235 -0.0032401949 0.0012036819 -0.0016641231 -0.0016083298 -0.0007301017
-0.001750865 -0.001094264 -0.001853914 0.0016979526 -0.0001866537 0.0043346896 -0.0008372148 0.001611286
-0.0019097044 -0.000633771 0.0017536269 -0.00015753628 0.00019662014 0.003324365 0.00075200247 0.0022710941
-0.00017319203 0.0023971787 -0.001483145 -0.0017216577 -0.00068741763 0.0009245606 0.0017503788 0.002273553
-0.0006021469 -0.00030302716 0.00015050385 -0.0017057279 -0.0011477231 0.0036655674 0.0011737568 -0.0011213317
0.0006072689 0.0016823941 0.0040283334 -0.0024964171 -0.0007123669 -8.8974884e-05 -0.00014618177 -0.0014403538
-0.00052141206 -0.00064365135 -0.00059769186 0.0013478196 0.00035894517 0.0033895213 0.0023404728 -0.0029493743
0.00013683789 9.411462e-06 -0.0035750861 0.0013485774 -0.0016990211 0.00036823069 0.0002463376 0.0015737549
0.00036355975 -0.0009836619 0.0014665641 -7.202626e-05 -0.0011897575 0.0006450268 0.002217428 6.399499e-05
-0.0026823103 0.001035842 0.0007679635 0.0027620008 -0.00052937405 -0.0010155065 -0.00092353666 0.000110738154
0.002848747 0.00478853 0.0016154534 0.0016452046 0.00044162484 0.0010822195 -0.00011890932 -0.0015337288
-0.0015074 -0.0008761211 -0.0013971241 -0.000864058 0.0003203341 0.00053045485 0.00093160244 -0.0003737133
0.003925703 -0.0024729217 0.00036610168 0.0006297883 0.0014086423 0.0014412582 -0.00017951059 0.00078099227
0.00067311135 0.00414175 0.0011738784 0.0006124619 0.00087971945 0.0010975507 -0.002168565 0.0025909282
-0.0010255438 0.00017250687 -0.0017117105 -0.0034846945 0.0022435489 -0.0020627237 0.0011453945 3.0008814e-06

network_body._body_endoder.seq_layers.2.weight f4 [256, 256]
00000000: c1e1 a7bd fd19 05be 8d71 833c 4096 dcbd
00000010: dc3f abbc a1d9 b8bd cca4 a5bd cbf2 ff3c
00000020: cf6f 253e 74e1 adbc adfa 44bd 6917 b63c
00000030: ddd0 293d 26c4 adbc 4c6e 96bc 3346 e33c
00000040: 2206 003d e83b 383e 521b 25bd 5772 44bd
00000050: 683b 18bd 3a93 563d d55f 453c 7503 9bbd
00000060: 780a 9f3d 1cdb cd3c 7081 dcbd effd 1dbd
00000070: 5327 a7bc 5a69 80bd 8cea 1abd eae1 433d
00000080: c428 b1bc e251 953d f0a7 083c 606c eb3c
00000090: a9e1 a33c b428 ac3b 0c12 03be 60e8 2bbd
000000a0: f2d3 653d 1860 983d 9e4b 813d 2625 7cbc
000000b0: ac5e e53c c4aa 333d 55fc 4bbd b347 643d
000000c0: 8e4b e93d adf1 ed3a 9fe1 a3bd 9ad5 7abd
000000d0: 1e11 153d 05e7 31bd 6ac7 d6bc e6e6 04bd
000000e0: e2a2 fd3d bac8 383d 0f0f 7dbd 008e 993d
000000f0: 1de7 d83d 44bb 96bc 4171 7a3d a74f 8d3d
00000100: aace 56bd 5493 473d bedc c53b b877 053e
00000110: c62b b83c 648f 3c3d 30f6 18bd 64f9 1bbd
00000120: 239e dabc d683 abbd 5943 3f3d d69a 05bc
00000130: e847 d43d f380 00be 6ed9 c3bd 4512 91bd
00000140: 1e23 ce3c 0630 8fbc 3460 00bd 617d 3abd
00000150: 4c50 96bd f489 77bd ec90 903d 8435 f8bc
00000160: e760 3a3c 510c b0bc 6c1c 7bbc 7b5e 4abd
00000170: 57ff b63d 4e7a 4a3d 3b69 cdbd 8ad2 29bd
00000180: db8c 62bd 15d6 4f3d b50f 223d 5aa0 b1bd
00000190: 9de2 343c 49a7 803c d939 86bd f550 913c
000001a0: 494d 2fbc ea89 83bd 56d9 153e 7766 1f3d
000001b0: 3a7c edbd 1886 1c3d fa1c 17bd 666e 75bd
000001c0: ecc2 a2bc 9379 9cbd 1199 933c 45a9 d13d
000001d0: af8b 67bd 2749 33bd 6dd8 5f3c cf18 86bd
000001e0: cc08 a9bd d063 32bd 58e8 92bd 632c 5abd
000001f0: 0193 e43d 93c9 bc3c 6517 a2bc 64dc c13c
00000200: f560 e8bb 40a1 713c ec2a b5bd 38cd bf3c
00000210: 683b 47bd 5478 8e3d 0318 423c bf67 d6bd
00000220: 07ea 423c 0f3b e53b 0969 18bd f559 30bd
00000230: 95b7 23bc fb44 c93d 7de5 043d 88c6 25bd
00000240: 7513 4f3d 5517 7c3c 0e42 bdbc e695 95bd
00000250: 6c43 ab3d 01f8 babd 9dd0 643d 7b22 8ebb
00000260: 5a88 c03c 074b dd3d 0cc2 a3bd 0342 b13d
00000270: 3a99 093e 3fee afbd 2139 e1bd d7e7 40be
00000280: ea09 dcbd 080c 16bd aac8 3dbd 6c77 3a3d
00000290: 15ef 5d3d 8b16 cd3c 2c57 84bc 0486 0ebe
000002a0: c567 963d 876a 463d 8a93 603d 9b73 a8bd
000002b0: 2afe 5d3d 9fe2 b33c 542f 3a3b bb04 acbd
000002c0: 8855 dcbc 83ef 20bd c3ab 0cbd dc6f c4bc
000002d0: d36c 9c3d 8424 d13c 60e4 fdbd 3478 623d
000002e0: 135a 48bd 945c bcbc f717 04bb f65d 15bd
000002f0: a32d 52bd 080a 653d fef8 22bc 5223 983d
00000300: 6b41 993c 32c1 d9bb 1cd6 053d c8d5 493d
00000310: 1d3e 81bc 26e6 ffbc 7e18 1c3c ba6b 8abd
00000320: 5e0b 193e 1cb1 d3bc 04a1 cbbb 37bf 7f3d
00000330: c66e b0bd fb97 73bc b024 92bc f991 1ebd
00000340: 3d26 acbc 9310 e7bd 2078 a53d a9ae 7e3d
00000350: 0e87 dabc 8f86 26bc 5db2 acbb 6c3f a6bd
00000360: c5ab a53c a981 913d 255d 823c 5241 b53c
00000370: 5068 1ebd 8ae4 533d 52e1 6cbd df01 78bc
00000380: c48b 063d 6a88 69bc b0af e53c 2a67 90bc
00000390: b4af bd3d b72a 26be 5385 a9bc 5c82 233d
000003a0: 393b 08bd 4d56 4bbd 18aa 0b3d e7f1 e43c
000003b0: 2085 8a3d 79af 38bd 9172 cabb 9cc6 953d
000003c0: 5925 993d 9b8e a63c 1a0f b9bd 592c b2bd
000003d0: 683c 67bd d05d e43d 09fc 243e a80a cbbc
000003e0: cdb9 9d3d 08c6 843d a620 973d 68d6 aebd
000003f0: 5a7a bf3d be03 8ebd 099a 57bd 226d 8d3d
-0.08197356 -0.12998195 0.016045356 -0.107708454 -0.020904474 -0.090258844 -0.08088073 0.031243702
0.16155933 -0.021225668 -0.048090626 0.02222796 0.041458953 -0.021211695 -0.01836314 0.027743435
0.03125585 0.17991602 -0.040309258 -0.047960605 -0.03716603 0.0523865 0.012046774 -0.07569019
0.07765669 0.025128894 -0.10766876 -0.038572248 -0.020404493 -0.06270094 -0.037821338 0.04782287
-0.021625884 0.072910085 0.008340821 0.0287382 0.020005064 0.0052538756 -0.12799853 -0.041969657
0.05611033 0.074402034 0.06313251 -0.015389716 0.027999245 0.043864027 -0.04980119 0.05573244
0.11391364 0.001815369 -0.08002018 -0.061238863 0.036393277 -0.043433208 -0.026218135 -0.032446764
0.12384583 0.045113303 -0.06178194 0.074977875 0.10590956 -0.018399842 0.061143164 0.06899958
-0.052443184 0.048724487 0.0060382774 0.1303395 0.02248181 0.046035185 -0.037344158 -0.038079634
-0.026686734 -0.08374755 0.046695087 -0.008154592 0.103652775 -0.1254919 -0.09562956 -0.07083563
0.02516323 -0.017478954 -0.031341746 -0.045529727 -0.07339534 -0.060434297 0.07058892 -0.030298956
0.011375642 -0.021490248 -0.0153266005 -0.04940651 0.08935421 0.049433045 -0.10029837 -0.04146055
-0.05531011 0.050741274 0.03956576 -0.08673163 0.011040357 0.015704768 -0.06554002 0.017738799
-0.010699579 -0.064227894 0.14633688 0.038916077 -0.1159596 0.03821382 -0.03689287 -0.059919737
-0.019868337 -0.07640376 0.018017324 0.10237364 -0.056529697 -0.043770935 0.01366244 -0.065477006
-0.08253631 -0.04355222 -0.07173222 -0.053264987 0.11160851 0.023045337 -0.019786546 0.02366466
-0.0070916363 0.014747918 -0.08846077 0.023413286 -0.04864064 0.069565445 0.011846545 -0.10469007
0.011896617 0.0069955657 -0.037209544 -0.04305454 -0.0099925 0.0982761 0.03244542 -0.040472537
0.050555665 0.015386422 -0.023102786 -0.073039815 0.08362469 -0.09129334 0.05586301 -0.0043376065
0.023502517 0.10805326 -0.07995996 0.08655169 0.13437358 -0.08590364 -0.109972246 -0.1883844
-0.107440785 -0.036632568 -0.046333946 0.045524046 0.054183085 0.025035163 -0.016154848 -0.1391831
0.07344011 0.048441436 0.054828204 -0.08225175 0.054197468 0.021958647 0.0028409557 -0.0839934
-0.026896253 -0.039290916 -0.034343492 -0.02397912 0.07637944 0.025530107 -0.12397075 0.055290416
-0.048914026 -0.022993363 -0.0020155886 -0.03646656 -0.051313054 0.05591777 -0.00994706 0.07428612
0.018707952 -0.006645345 0.032674894 0.049276143 -0.015776688 -0.031237673 0.009527324 -0.067588285
0.14945742 -0.025841288 -0.006214263 0.062438216 -0.08614878 -0.014867778 -0.01783976 -0.03871343
-0.021014327 -0.11282458 0.08079553 0.062178288 -0.026675727 -0.010163917 -0.005270286 -0.081175655
0.020223508 0.07104809 0.015913555 0.022125874 -0.0386737 0.051731624 -0.05783207 -0.015137165
0.032848135 -0.014253715 0.028037876 -0.017627317 0.09262028 -0.16227232 -0.020693457 0.039919242
-0.033259604 -0.04964285 0.03409776 0.02794738 0.06763673 -0.04508922 -0.006178208 0.07313272
0.074778266 0.020331671 -0.090360835 -0.08699865 -0.056454092 0.11150706 0.16111769 -0.024785355
0.07701454 0.06483084 0.07379274 -0.085369885 0.093495086 -0.069343075 -0.052637134 0.06905581

network_body._body_endoder.seq_layers.2.bias f4 [256]
00000000: 1a4b c438 7196 9eb8 9232 8dba bc8c 6a3a
00000010: 36bc 9038 4e12 cc3a f5de 6db9 0f7b e63a
00000020: 8fd4 fe3a c50d 0aba e7fe 94ba a5f9 67ba
00000030: 6c3c f2ba cf0f 4c38 4c32 15ba 6ec5 b539
00000040: afc4 c63a d5db dfba 6b3e 95b9 1387 1f3a
00000050: 6b3c 0db9 0ce3 c43a a67f 083b e8f1 e63a
00000060: 2e70 8d39 2d6f 413b 40ec ba39 d4d8 9038
00000070: 177f 68ba ac04 843a 263e d83a f6c6 833a
00000080: 2c69 09b8 5ebb 0f3a 8e33 1aba 2735 d2ba
00000090: 0f4e b2ba db8e 1739 3bc7 713a 91b2 963a
000000a0: e602 60ba efd4 713a 5b77 ddb9 8112 06b9
000000b0: e776 f23a 2e86 8db9 362d 233a 1614 943a
000000c0: eb7d 7339 40aa 2e3a d008 ef3a 4562 b53a
000000d0: be5d b3b9 3ac7 bab7 c082 b539 e45d 99ba
000000e0: 764a 98ba a8ea 083a a626 4a3b d943 f23a
000000f0: a8de 2bba 4efe eeb9 c86c a639 db75 82ba
00000100: 3232 9b39 bd1e 6a3a b0dd 2339 998d 643a
00000110: 01cc beba f6cf 6a3a 987a 0037 bb5a a3b9
00000120: 75a7 f1b9 aee9 a5ba 542a c13a aabf 253a
00000130: eae0 103a d65b c2b9 f33e b8ba 3fec c639
00000140: 3bb9 8f3a 607a a7b8 3e2f bd39 31b4 d6b9
00000150: e354 b5ba 8887 7eba 3167 a1ba 6a92 e13a
00000160: f6a2 a7b9 1bf6 a53a b7d4 a83a ad97 1dba
00000170: 40c2 c439 b628 9939 9176 a0ba 708f f9ba
00000180: 5700 d0ba c3e2 fbba 247a 893a aa3b 1bb9
00000190: 60dc 3a3a 106e dc39 22da 0a3a e834 053b
000001a0: 40b7 11bb feaf dd3a b660 773a 9a7f 2e3a
000001b0: 37a1 dbb8 0ab4 afb9 fa27 a43a 705d 053a
000001c0: b23a 26ba 1157 ff39 2e21 0ab9 ee79 8338
000001d0: 8c7c 9e3a f800 ceb7 a029 e1b9 aa33 8d39
000001e0: 3995 5b3a 3abb 29ba 30b9 3d3a 9414 f2b9
000001f0: 8ad8 88ba 280f 1fba 3d28 cd3a 9215 063b
00000200: 88ff 8439 7e50 32ba affa 5b3b 1ce3 0cb8
00000210: 40d7 1e37 caf3 4739 37d4 ae3a 8b9b 97b9
00000220: 9d95 f0ba 1682 e2b8 9aad 943a 1527 65b9
00000230: c6e3 33ba 3b75 c23a 4e04 16ba 8b43 38ba
00000240: 71a7 883a 0850 e6ba c184 0838 bce8 993a
00000250: bc6c 853a 928b 81ba be61 fd39 a030 62ba
00000260: c15e 9aba c2c8 f039 e942 0cbb 1161 a439
00000270: 81cb 1cba 7cb8 76b9 7b9c 993a 6b24 bbba
00000280: 278c f03a c295 aa3a 5ef9 a9ba 6784 d739
00000290: b746 7339 7e72 6cb9 aa18 0bbb bcb3 5f3a
000002a0: aaa9 2d39 acd6 de3a caad 28ba c439 0738
000002b0: 95b1 fe3a ea4b a43a 5837 4eba 1213 c839
000002c0: 886f 0f3b 523e 51b8 b917 8bba a22a 7a39
000002d0: b318 3dba ea3b 203a 7f91 0bbb bfb1 a0ba
000002e0: 834d 0e3a a57c 37bb f888 b639 7896 473a
000002f0: 8e17 b938 1080 6dba c53f 09ba a12a 9a39
00000300: fae0 c63a fecb 043b 6441 a438 ed8e 093a
00000310: c4eb d1ba 30e5 113b 16c8 42b9 2afc 09ba
00000320: 7e20 ef39 a072 263a f1ae 6c3a 3e89 e33a
00000330: dc05 a0ba 88ef c4ba b78b 233b 11d4 26b9
00000340: 2eda 723a e65e 123a 2544 753a 7af0 853b
00000350: 12e5 9cba 535a feb9 37a6 363b c770 0b3b
00000360: b5c2 933a 3c33 9b3a cb29 deb9 42f1 80ba
00000370: e880 6e39 20f0 85ba f3d2 883a e40f deba
00000380: bb77 38ba 4059 203a ff98 fa39 32e6 2c3a
00000390: 7e7d b539 ce01 a43a bbf4 2cb8 6abc 86ba
000003a0: ecb5 ca3a 40e0 4aba 5956 8c3a afc4 073a
000003b0: 5848 043a 6191 0dbb 3ebb 4439 75b8 233a
000003c0: c6ca a3b9 361e 583a 9e0b 9a3a b4a5 a1ba
000003d0: 5062 8fba 65af 17bb afaf 603a 735e ed3a
000003e0: 5e44 3dba 8356 6dba ba17 be3a 5c4d 2b38
000003f0: 30a4 a53a 883c 6537 40de 21b9 2817 243b
9.359997e-05 -7.562049e-05 -0.0010772517 0.00089473627 6.901512e-05 0.001556942 -0.00022685139 0.0017584282
0.001944201 -0.0005266334 -0.0011367471 -0.00088491506 -0.0018481142 4.8652113e-05 -0.0005691394 0.00034670107
0.0015164817 -0.0017079065 -0.00028466 0.0006085496 -0.00013469315 0.0015021279 0.0020828038 0.0017619701
0.00026977196 0.0029515729 0.00035652705 6.9068425e-05 -0.00088690355 0.0010072193 0.0016498014 0.0010053802
-3.2761294e-05 0.0005482937 -0.0005882316 -0.0016037569 -0.0013603586 0.000144537 0.0009223108 0.0011497309
-0.0008545354 0.000922515 -0.00042241332 -0.00012786129 0.001849857 -0.00026993587 0.00062246935 0.001129749
0.00023221194 0.00066629425 0.0018236879 0.0013838491 -0.00034211384 -2.22657e-05 0.00034620427 -0.0011700955
-0.0011618871 0.0005222955 0.003084579 0.0018483355 -0.00065563107 -0.0004558437 0.00031743036 -0.0009953337
0.00029601302 0.0008930972 0.00015627476 0.00087186095 -0.0014556648 0.000895738 7.657938e-06 -0.00031157382
-0.00046091867 -0.0012658143 0.0014737346 0.00063228107 0.0005526679 -0.00037070987 -0.0014056846 0.0003794152
0.0010965237 -7.985975e-05 0.00036084087 -0.00040951514 -0.0013834502 -0.0009709527 -0.0012314079 0.0017209772
-0.00031974138 0.0012661846 0.0012880777 -0.0006011676 0.0003752876 0.00029212766 -0.0012242367 -0.001903994
-0.0015869242 -0.001921736 0.0010488671 -0.00014804178 0.00071281753 0.00042043673 0.00052967865 0.0020325724
-0.002223447 0.0016913412 0.00094367133 0.00066565874 -0.000104727624 -0.0003351274 0.0012524121 0.00050874706
-0.0006341144 0.0004870226 -0.00013173066 6.269278e-05 0.0012091561 -2.4557565e-05 -0.00042946357 0.00026932108
0.0008376423 -0.00064747373 0.0007237373 -0.0004617317 -0.001044051 -0.0006067627 0.0015652251 0.0020459634
0.00025367388 -0.00068021554 0.0033566167 -3.3590113e-05 9.467651e-06 0.00019068937 0.0013338391 -0.00028916853
-0.0018355135 -0.0001080075 0.0011343241 -0.00021853701 -0.0006862249 0.0014835963 -0.00057226873 -0.00070291077
0.0010425878 -0.0017571459 3.2548563e-05 0.0011742334 0.00101795 -0.0009883514 0.00048328744 -0.00086284615
-0.0011777506 0.00045925943 -0.0021402186 0.00031352838 -0.0005981252 -0.00023529114 0.0011719608 -0.0014277821
0.0018352316 0.0013014602 -0.0012967994 0.00041106643 0.00023200629 -0.00022549366 -0.0021224418 0.00085335574
0.0001656177 0.0017001233 -0.0006434588 3.2240307e-05 0.0019431586 0.0012534831 -0.0007866523 0.0003816118
0.0021886546 -4.9887523e-05 -0.0010611928 0.0002385774 -0.00072134583 0.00061124435 -0.002129644 -0.0012260004
0.000542842 -0.0027997878 0.00034815795 0.0007613669 8.825875e-05 -0.00090599153 -0.00052356377 0.0002940493
0.0015173249 0.002026319 7.832309e-05 0.0005247433 -0.0016015698 0.002226185 -0.0001857582 -0.00052637106
0.0004560984 0.0006349478 0.0009028754 0.0017359627 -0.0012208777 -0.0015024999 0.0024955103 -0.00015909995
0.00092640787 0.0005583599 0.00093561626 0.004087505 -0.0011970124 -0.00048513952 0.0027870068 0.0021276937
0.0011273237 0.001184083 -0.00042374278 -0.0009837525 0.0002274547 -0.0010218658 0.0010438844 -0.0016941992
-0.0007036884 0.0006116815 0.00047797707 0.0006595581 0.0003461651 0.0012512745 -4.123592e-05 -0.001027954
0.0015465594 -0.00077391043 0.0010706886 0.00051791494 0.00050461804 -0.0021601545 0.0001876177 0.0006245443
-0.0003124086 0.0008244248 0.001175273 -0.0012332709 -0.0010939334 -0.0023145315 0.0008571101 0.0018109813
-0.00072199653 -0.0009053724 0.0014502921 4.0841624e-05 0.0012637433 1.3663557e-05 -0.00015436951 0.0025038216

action_model._continuous_distribution.log_sigma f4 [1, 5]
00000000: fe3d 2e3b edf1 dc3b 4f2c dc3a ca7d 4ebb
00000010: e0c1 e5ba
0.0026587243 0.006742707 0.0016797873 -0.0031508082 -0.0017529093

action_model._continuous_distribution.mu.weight f4 [5, 256]
00000000: 0ff9 2cbc c94e 013d 4b4d 88bc ba96 623b
00000010: 7530 403b a5c9 01bb dd42 353b f572 46bc
00000020: 342a de3b 1bb8 81bc e218 86bc d517 27bc
00000030: 88ed 913b 27c4 86bc e3e6 a7bb 9ee4 e2bb
00000040: 2a98 7bbb 310c 82bb 5c70 7c3c 3508 2f3b
00000050: 661f 12bb 14b4 bebb c7e7 ad3b 92ce b6ba
00000060: fcd9 1e3b 3cd8 87bb 2bbb 693b 3fba bcbb
00000070: fa68 893b 57ec f9bb 0b1e 43bd 714a f13c
00000080: b541 b33c 2f14 83bb 5071 eb3b 9bde 8c3c
00000090: 03bf 91bc b401 b7bb 8e54 c3bc 0bff 22bc
000000a0: 450e 483c 5ab4 93bb a592 2bbc 0a19 cb3c
000000b0: d9d7 903c d991 013c b512 243c 3bce 623c
000000c0: 544c 4c3c be58 66bc b281 c6bb 0c4a 063d
000000d0: 1c92 7abb 4213 d83b bd86 c2bb 2be7 91bc
000000e0: ecb0 673a 0bf8 ba3c 75fc 09bb 6f67 913c
000000f0: bc26 463c 3f1c 173b c01c eeba 036b 5e3a
00000100: 60a5 da3b dae9 843c be84 763c 81ff ad3c
00000110: 86fc a4bc 9741 9e3c e877 24bb 0cca b8bb
00000120: b95e a03c c8dc 913c 04d8 453c 3391 c6bc
00000130: 51fd 46bc b851 13bc f659 f2b9 481b 51bc
00000140: 2482 9eba b77b 8bbc c2c3 0e3c 8e49 44bc
00000150: 357e 4abb 9141 f6bb e99b 8339 f4cd 893c
00000160: 8a8b 32bc 075e acbc 09e0 71b9 8162 3c3c
00000170: 417d b63a d6ae c93c 030b 8abb afea bcbc
00000180: 9601 9dbc 024d b4bb 2654 a2bb 4b47 e23b
00000190: f309 a8bb 43e0 263b 34cc bb3c dbf6 3fbc
000001a0: 97c0 2dbc 52d3 ac3c 8292 a2ba 5815 74bc
000001b0: 76ea e63b 04ed 723c 4dab 2a3a dd66 40b9
000001c0: c7d1 c0bc e708 a0bc 6d18 c8bc d547 dbba
000001d0: e9c4 773a e64b bcbb ede6 dcbb 1976 d7bc
000001e0: f012 99bc e722 ecbb 0ea4 053c a883 e2bb
000001f0: 8ee4 f9bb b2dd d2bb d0b2 823b b8d0 5a3b
00000200: 5fca df3c d697 b239 aa08 d5bb 854a c0bb
00000210: 3f04 e13a ec48 6aba b665 7c3c 7a95 813c
00000220: 5fce bcbb 79f2 fcbb 0818 a03c 75d9 05bd
00000230: 4be4 90bc 347a 03bc 5a79 1d3c 1ff3 9f3b
00000240: 7d2b ae3a 21a3 a3bc 8f24 13bc 6e25 4d3c
00000250: 7f8c 7e3c f450 19bc f3a2 27bc 4f5c 33bc
00000260: 9b20 30bc 5695 0c3c ba65 68bc e38e 29ba
00000270: 3047 53bb de0d 26bc 82e6 80bb 4e8a 26bc
00000280: 064e 573c 9cb2 8bbc f298 08bc 6e1d 843a
00000290: 94c6 bebb 697a 893a dd1e 1fbc 079b 18bc
000002a0: 92a4 873a 2f7c 6a3c 3188 edbb 36a1 51bb
000002b0: b1d2 573c 65e0 ad3c 1e47 3abb 904f a7bb
000002c0: 1dd0 4ebc 909a 0e3c bb22 273c 2f9c c2bc
000002d0: bebd 91b9 17e3 603c 16e2 c6bb 512e 323b
000002e0: 815b 653c 6998 80bc 6ef7 1e3b 488f 343b
000002f0: 48bd 473a 36a4 50bc e3ed 943a c87c cdbb
00000300: 5b25 373c f165 2c3c e047 9bbc 2c22 313c
00000310: 7c8d 92bb 34c7 603b d075 7e39 93f1 273c
00000320: 0106 01bc cf59 a9bc 240a 78bc 51fe 123d
00000330: 1623 20bc 08c9 8f3c 4259 e43b 0265 113c
00000340: 2c7c acb9 4daf 493a 3356 a83c d0c8 2a3c
00000350: c84b 0fbc 0650 cdbb 3531 813c 2e35 3cbc
00000360: 39ec b03b 2a7e f4bb d802 223b 9411 2a39
00000370: 735b 9fbb cbd7 52bc a2d9 bf3c 397e 523b
00000380: 5e8c 913c 5da7 1f3c 1ee9 e83a 0b88 66bc
00000390: 97db 80bb 4313 f1bb a42a 963c 90c8 e1ba
000003a0: 48df 653c e293 0bb7 88ae bc3a df49 14bb
000003b0: e829 933b 967a 54bc a660 6fbc 96cd 773c
000003c0: 2b82 673c 2d78 0c3c 9639 1ebc b4fd 99bc
000003d0: 83d7 35bc 648c 2fbc b107 e3bb d115 f73b
000003e0: 2379 98bc 0efa 023d 3d8a fbbb b6eb 08bb
000003f0: 4aef 923c c709 67bb 44ac b5bc 3823 8d3c
-0.010557427 0.031569276 -0.016638419 0.0034574703 0.0029325758 -0.0019804027 0.0027658262 -0.012112369
0.0067799333 -0.015834859 -0.016369287 -0.010198553 0.0044533648 -0.016450955 -0.0051239594 -0.006924226
-0.0038390257 -0.0039687385 0.015407648 0.0026707773 -0.0022296547 -0.005819807 0.005307171 -0.0013947061
0.0024238816 -0.00414565 0.003566454 -0.005759507 0.0041934224 -0.007627051 -0.047636073 0.029454442
0.021881917 -0.004000209 0.0071851388 0.01719599 -0.017791277 -0.00558492 -0.02384403 -0.009948502
0.012210433 -0.0045075836 -0.0104719745 0.024792213 0.01768105 0.007908308 0.010014226 0.0138431145
0.01246937 -0.014059244 -0.0060579414 0.03278546 -0.003823406 0.0065940926 -0.005936472 -0.017810425
0.0008838314 0.022823354 -0.0021055017 0.017749516 0.012094196 0.0023057607 -0.0018166527 0.0008484574
0.0066725463 0.01622479 0.015046297 0.021239998 -0.020139944 0.019318385 -0.0025095884 -0.0056393202
0.019576417 0.017805472 0.012075428 -0.024239158 -0.012145356 -0.008991651 -0.00046224863 -0.012762852
-0.0012093228 -0.017026765 0.0087136645 -0.011980427 -0.003089798 -0.0075151403 0.0002510243 0.016821839
-0.0108975265 -0.02104093 -0.0002306701 0.011498095 0.0013922827 0.024619501 -0.0042127385 -0.023061125
-0.019165795 -0.005502344 -0.004953879 0.0069054714 -0.005128139 0.002546326 0.02292452 -0.01171657
-0.010604999 0.02109686 -0.0012403282 -0.014897667 0.007046993 0.014827017 0.0006510511 -0.00018348866
-0.02353753 -0.019535495 -0.02442571 -0.0016729782 0.0009451644 -0.0057463525 -0.0067413957 -0.02630143
-0.018685788 -0.007206309 0.0081567895 -0.0069126673 -0.007626123 -0.0064351195 0.0039886013 0.0033388566
0.027318178 0.00034063932 -0.006501277 -0.0058682584 0.0017167403 -0.0008937258 0.015405109 0.015818346
-0.005761906 -0.0077193347 0.019542709 -0.032678086 -0.017686984 -0.008024741 0.009611452 0.004881277
0.0013288107 -0.019975247 -0.008980884 0.012521131 0.015536427 -0.00935768 -0.010231721 -0.010947301
-0.010749961 0.008580526 -0.01418441 -0.000646813 -0.0032238476 -0.010135142 -0.0039337287 -0.01016481
0.013141161 -0.017052941 -0.008337246 0.0010079572 -0.005822012 0.0010488752 -0.009711948 -0.009314305
0.0010348728 0.014311834 -0.0072489013 -0.0031986958 0.013172791 0.021225164 -0.0028423737 -0.00510592
-0.01262286 0.008703843 0.0102011515 -0.023756115 -0.00027797924 0.013726017 -0.006069432 0.0027188251
0.013998867 -0.015697675 0.0024256366 0.0027551223 0.00076194527 -0.012734463 0.00113624 -0.0062709786
0.01117834 0.010522352 -0.018955171 0.01081137 -0.0044724327 0.0034298422 0.00024267216 0.010250467
-0.007874967 -0.020672707 -0.015139136 0.035887066 -0.00977399 0.017551914 0.006968648 0.00887418
-0.00032898912 0.00076936634 0.020548915 0.010423854 -0.008746095 -0.006265643 0.015770534 -0.011487288
0.0053992537 -0.007461329 0.0024720933 0.00016219012 -0.0048631965 -0.012868832 0.023419205 0.0032118692
0.017767128 0.009744492 0.001776967 -0.014070521 -0.003932427 -0.0073570325 0.01833088 -0.001722591
0.014030285 -8.319477e-06 0.0014395276 -0.0022627038 0.0044910796 -0.01296868 -0.014610445 0.015124699
0.014130156 0.008573574 -0.009657284 -0.018797733 -0.011098745 -0.010714624 -0.006928407 0.0075404425
-0.01861245 0.031976752 -0.0076763914 -0.0020892448 0.017936368 -0.003525363 -0.02217687 0.017228708

action_model._continuous_distribution.mu.bias f4 [5]
00000000: 5b9c f6b8 a6c1 6f3a 8282 20b9 0031 8f39
00000010: 18f4 adba
-0.000117593176 0.00091459823 -0.00015307407 0.00027311593 -0.0013271598
