configfiles/results/hb_02/Hummingbird/Hummingbird-499968.onnx (onnx, 330176 bytes, 7 tensors)

network_body._body_endoder.seq_layers.0.weight f4 [256, 55]
0	0x3dde2239	0.10846371
1	0x3cbe60ef	0.02323958
2	0x3dd0442d	0.101692535
3	0x3dbffc91	0.09374345
4	0xbdb6fa66	-0.089344785
5	0xbe24112a	-0.16022173
6	0xbd7bfec4	-0.06152226
7	0x3dce8188	0.100833
8	0x3d97af3d	0.07406471
9	0xbd59d8ee	-0.053185396
10	0xbe0f8a17	-0.14017521
11	0xbdeea4dd	-0.11652539
12	0xbd9ffad5	-0.07811514
13	0xbd335032	-0.043777652
14	0x3dd72d45	0.10506681
15	0xbdc4cad5	-0.09609
16	0xbe2d342f	-0.16914438
17	0xbe123518	-0.14278066
18	0x3d368acb	0.044565957
19	0x3e083ece	0.13305208
20	0xbc43835f	-0.011933177
21	0x3c2f3b6a	0.010695318
22	0xbdbf2469	-0.093331166
23	0x3dde051f	0.108408205
24	0x3dc5eab6	0.09663908
25	0x3e8a06a1	0.26958182
26	0x3e2e4dea	0.1702191
27	0x3cda4bb0	0.026647419
28	0xbd5764f6	-0.05258652
29	0xbdccf131	-0.10006941
30	0x3e241f6a	0.16027609
31	0x3e0c3b7e	0.1369457
32	0x3e52617f	0.20545004
33	0x3e0f2b1a	0.13981286
34	0x3d087a8e	0.033320002
35	0x3da204bc	0.07911059
36	0x3e697bef	0.22801183
37	0x3e7d3550	0.24727368
38	0x3d627df4	0.0552959
39	0xbe433b00	-0.19065475
40	0x3cd9c85f	0.026584802
41	0x3e08ab40	0.13346577
42	0x3be05790	0.0068463758
43	0xbea2c389	-0.31789806
44	0xbcf929dc	-0.030415468
45	0xbd7cc2d4	-0.06170924
46	0x3d5cb32d	0.053881813
47	0x3d3f5485	0.046711463
48	0x3d6e3c38	0.058162898
49	0xbe1d4756	-0.15359244
50	0xbd0ee751	-0.03488857
51	0xbdc130f1	-0.09433163
52	0x3ca7e999	0.02049713
53	0xbb9d5c25	-0.0048022442
54	0xbe56f436	-0.20991597
55	0x3cd01ddd	0.025404865
56	0x3e5743d1	0.21021964
57	0xbae23f20	-0.0017261244
58	0x3e38d9ee	0.18051884
59	0xbd9f3152	-0.07773079
60	0x3d4baed7	0.049727287
61	0xbbef21b0	-0.007297717
62	0xbdf2db72	-0.11858262
63	0x3c918b05	0.017766485
64	0xbaac986e	-0.0013167986
65	0xbd84ef1c	-0.06490919
66	0xbe6d323b	-0.23163693
67	0x3da3c076	0.079956934
68	0xbd93f3c7	-0.07224231
69	0x3d00c16b	0.031434458
70	0x3d9f24b8	0.077706754
71	0xbe597855	-0.2123731
72	0x3d531566	0.05153408
73	0x3d4108fb	0.047127705
74	0xbe1f4419	-0.15553321
75	0xbdaa2e1d	-0.08309577
76	0x3c4f0a4e	0.012636734
77	0x3ec733c5	0.38906685
78	0xbd284aa4	-0.041086808
79	0xbe10ae1d	-0.14128919
80	0xbbf6ddbe	-0.007533758
81	0xbbdc04b9	-0.00671443
82	0xbd8f7583	-0.070048355
83	0xbd8393ee	-0.064247
84	0xbdc2d157	-0.09512585
85	0x3e133ec0	0.14379406
86	0x3e4235d9	0.18965854
87	0xbe405436	-0.18782124
88	0xbd54e624	-0.05197729
89	0xbc7cedcd	-0.0154375555
90	0x3dd2026c	0.10254368
91	0x3d2e987a	0.04262588
92	0xbd9f9716	-0.07792489
93	0x3ea8518d	0.32874718
94	0x3d8adc37	0.06780284
95	0x3d2dd79e	0.042441957
96	0x3ce8fa7c	0.028439753
97	0x3e101a64	0.14072567
98	0x3e8434de	0.25821584
99	0xbe37e480	-0.1795826
100	0xbd9f4d8a	-0.07778461
101	0xbd3c3c3b	-0.045955878
102	0xbe72ae41	-0.23699285
103	0x3e462164	0.19348675
104	0x3d23c0a4	0.03997864
105	0xbb414be0	-0.0029494688
106	0xbe8df320	-0.27724552
107	0x3e2e700b	0.17034929
108	0x3d07c97f	0.033151146
109	0x3e7ff0e1	0.24994232
110	0xbebee9a2	-0.37287623
111	0xbcd9fc39	-0.026609527
112	0x3dd47f29	0.103758164
113	0x3e78bafd	0.2429008
114	0x3d2793a5	0.04091229
115	0x3e797f5c	0.2436499
116	0xbd8aae36	-0.06771509
117	0xbd28b645	-0.04118945
118	0xbde3a5d7	-0.11115616
119	0x3e552054	0.20813113
120	0xbd1c6e63	-0.03819121
121	0x3dc3b57e	0.09556101
122	0x3e8e2cc2	0.27768523
123	0xbd9cc43c	-0.07654616
124	0xbba3d156	-0.00499932
125	0xbdcc72ca	-0.09982832
126	0xbd1a1237	-0.037615027
127	0x3ca608b2	0.020267818
128	0xbd88ffdf	-0.066894285
129	0xbe85c11b	-0.2612389
130	0x3e48a750	0.19595075
131	0x3e2f1bca	0.17100444
132	0xbcc4e3b7	-0.024034364
133	0xbc721223	-0.014774832
134	0x3e1814c6	0.14851674
135	0xbe824084	-0.25439847
136	0x3df193c5	0.11795763
137	0xbdfc294f	-0.123125665
138	0xbdf2d6a6	-0.11857347
139	0x3cafe913	0.021473443
140	0xbe66bdf1	-0.22533394
141	0xbd8540e7	-0.0650652
142	0xbe24bbb1	-0.16087224
143	0x3dfd8f78	0.1238088
144	0x3e37fbf3	0.17967205
145	0xbcd6db6a	-0.026227672
146	0x3e2c5316	0.1682857
147	0x3dacfc3e	0.08446549
148	0x3c8f68d1	0.017506035
149	0x3da9667a	0.08271499
150	0xbb88299a	-0.00415535
151	0x3b6521e6	0.0034962832
152	0x3da43ef5	0.080198206
153	0x3d5c6acc	0.053812787
154	0xba320b1b	-0.0006791816
155	0xbe03e259	-0.12879314
156	0xbe544ee1	-0.20733215
157	0xbd18a65e	-0.037268035
158	0xbd0c47c1	-0.034248117
159	0x3cd0fa7d	0.025510067
160	0x3ea92d54	0.33042395
161	0xbd712932	-0.058877178
162	0xbea74e3c	-0.32676876
163	0xbbc1a34f	-0.0059093605
164	0xbeae0c33	-0.33993682
165	0xbd9a0fcd	-0.07522545
166	0xbd0060b2	-0.031342216
167	0xbe21108f	-0.15728973
168	0x3df2659d	0.118357874
169	0xbd6559a4	-0.05599369
170	0x3c7b3b35	0.01533394
171	0x3e8c77e1	0.2743521
172	0xbe38dc20	-0.18052721
173	0x3da895a3	0.08231666
174	0xbd140c35	-0.036144454
175	0x3de96cd4	0.113977104
176	0xbc4b040e	-0.012391103
177	0x3e51ea90	0.20499635
178	0xbeac443e	-0.33645815
179	0xbd7d333f	-0.06181645
180	0xbd4a0856	-0.049324356
181	0x3de18e06	0.11013417
182	0xbd9767ec	-0.073928684
183	0xbceb6a42	-0.028737191
184	0xbd3235ab	-0.043508213
185	0xbdc6dc1c	-0.09709951
186	0xbe73d1a6	-0.23810443
187	0x3daab27c	0.083348244
188	0xbe5e8e01	-0.21733858
189	0xbcece02d	-0.02891549
190	0x3d2d9433	0.042377662
191	0xbdb6f365	-0.089331426
192	0x3bc617a5	0.006045299
193	0xbd1abb3c	-0.037776217
194	0x3e74bd14	0.23900253
195	0x3e1aadb0	0.15105319
196	0x3d813927	0.06309729
197	0x3cc9063f	0.024539111
198	0xbe5432fd	-0.20722575
199	0xbdf0c295	-0.117558636
200	0xbdfcb024	-0.12338284
201	0xbd34b84f	-0.044121083
202	0x3e86bd47	0.26316282
203	0x3e693a7a	0.22776213
204	0xbe387059	-0.18011607
205	0x3dbddb4f	0.092703454
206	0xbd8e45a2	-0.06946875
207	0x3df03a7b	0.11729904
208	0x3da4cd5e	0.08046983
209	0x3de2c4a8	0.110726655
210	0x3e23e657	0.16005836
211	0xbc70aadd	-0.0146891745
212	0x3d0febc4	0.035136953
213	0x3d301837	0.042991843
214	0x3da5d20a	0.080967024
215	0xbd37da81	-0.044886116
216	0x3dc9eace	0.098592386
217	0x3eafe994	0.34357893
218	0xbde7f948	-0.113268435
219	0x3e81ac75	0.25326887
220	0x3e340bb4	0.1758259
221	0xbe43b221	-0.1911092
222	0xbcb0c10f	-0.021576433
223	0x3de130eb	0.109956585
224	0x3e05a4f4	0.13051206
225	0xbdff1b65	-0.12456397
226	0xbc7afe4e	-0.01531942
227	0x3e064a0f	0.13114189
228	0xbe938c0b	-0.28817782
229	0x3b3d1103	0.002884925
230	0xbe8d4dfa	-0.27598554
231	0x3e18fd27	0.1494032
232	0x3defbe34	0.117062
233	0xbe1dd2a1	-0.1541238
234	0x3e34d59f	0.17659615
235	0x3eb32278	0.34987235
236	0xbd267ebd	-0.04064821
237	0xbe076a1e	-0.13224074
238	0xbe0021a5	-0.12512834
239	0x3c93fd20	0.018065035
240	0x3b853953	0.0040656715
241	0xbe2ede17	-0.17076908
242	0xbd8822c6	-0.066472575
243	0x3d9500d7	0.07275551
244	0x3d1b6435	0.03793736
245	0x3ddf2284	0.10895255
246	0x3e06c311	0.1316035
247	0xbd92e89a	-0.071732715
248	0x3e39c465	0.18141325
249	0xbce82379	-0.028337227
250	0x3e0b97ef	0.13632177
251	0x3e072b6c	0.13200158
252	0x3e02386b	0.12716834
253	0xbe60209c	-0.2188744
254	0xbcbba0c8	-0.022903815
255	0x3d81a97e	0.06331156

network_body._body_endoder.seq_layers.0.bias f4 [256]
0	0x3c472b44	0.012156311
1	0xbc31ad90	-0.010844603
2	0x3c090195	0.008362194
3	0x3a255e3f	0.0006308294
4	0x3c737dec	0.014861565
5	0xbc00c897	-0.007860324
6	0xbad4d688	-0.0016238252
7	0xbb836f35	-0.0040110596
8	0xbbeae4c7	-0.0071683857
9	0x3c734eb2	0.014850305
10	0x3beb2365	0.00717585
11	0x3c0d17a7	0.008611596
12	0x3c79e51f	0.015252381
13	0x3c7edbf3	0.01555537
14	0xbc4ab2ee	-0.012371762
15	0xbc1860d9	-0.009300434
16	0x3b8d903d	0.004320173
17	0x3c0b6f0e	0.008510364
18	0x3903712e	0.00012535296
19	0xbba3a30d	-0.0049938024
20	0xbc12aef3	-0.008952844
21	0x3c59bf7d	0.013290283
22	0xbbf3314c	-0.007421648
23	0xbc06dbe0	-0.008231133
24	0xbb4d5a29	-0.0031334257
25	0xbc2d6757	-0.01058372
26	0xbc026192	-0.007957833
27	0xba132f9b	-0.0005614699
28	0x3c51f57f	0.0128148785
29	0xbbefff7e	-0.007324158
30	0x3b3daa4c	0.0028940616
31	0x38137a66	3.5161524e-05
32	0xbcb50936	-0.022099119
33	0x3abebdad	0.0014552377
34	0x3b43341d	0.00297857
35	0xbc06491c	-0.008196142
36	0x3c2d9720	0.010595113
37	0x3c7cb10c	0.015423071
38	0xbb0d29e5	-0.0021539864
39	0x3c3193a9	0.010838428
40	0xbb8f311c	-0.004369868
41	0xbb34a754	-0.0027565556
42	0xb8e0c3ce	-0.00010717624
43	0x3bed0152	0.0072328234
44	0x3aee4617	0.0018178847
45	0xbc1a2e5e	-0.009410469
46	0xbb775575	-0.0037740145
47	0x3b1baeb0	0.0023755245
48	0x3c246fd2	0.010036426
49	0x3c00ca96	0.0078608
50	0xbab502bb	-0.0013810018
51	0x3c5d6067	0.013511754
52	0xbc7ad0f4	-0.015308607
53	0x3c118a6b	0.008883099
54	0x3b8d17bf	0.0043058093
55	0x3b57ab7e	0.0032908614
56	0x3c0385de	0.008027522
57	0xbac80258	-0.0015259488
58	0xba9ef9c7	-0.0012128883
59	0x3b84da70	0.00405436
60	0x3bcacbe6	0.0061888574
61	0xbc957905	-0.018246183
62	0x3b734d5a	0.0037124963
63	0xbc233963	-0.0099624125
64	0x3bf2a70c	0.0074051674
65	0x3b9fbaa2	0.0048745433
66	0x3c91c421	0.017793717
67	0x3c69a315	0.014260073
68	0x3a502477	0.0007940004
69	0x3c91688e	0.01775005
70	0xbac613c8	-0.0015112096
71	0x3c907e1b	0.017638257
72	0xbbc2d8dc	-0.005946262
73	0x3ca6514b	0.020302435
74	0x3c467345	0.012112443
75	0x3b29e019	0.0025920926
76	0x3c712ec4	0.014720622
77	0x3baa959c	0.005205823
78	0xba75adcc	-0.0009371906
79	0xbc508bfa	-0.0127286855
80	0xb9f3a34e	-0.00046470243
81	0x3bdcd9e9	0.006739844
82	0x3bb8ec9a	0.0056434395
83	0x3c88cccc	0.016699217
84	0xbc2a7ca7	-0.010405696
85	0xbac5c662	-0.001508903
86	0xbbc6d0e7	-0.0060673836
87	0x3a8740f7	0.0010319044
88	0x3b9c61ad	0.004772386
89	0xbc0e62a0	-0.008690506
90	0x3c6de7b5	0.014520575
91	0x3b829bcf	0.003985859
92	0x3c8a51f4	0.016884781
93	0xbb8da285	-0.0043223524
94	0x3be5533d	0.006998448
95	0x3b88ed8a	0.0041787075
96	0x3c3067a9	0.010766902
97	0x3c83b884	0.016079195
98	0x3b4e3b5d	0.0031468489
99	0xbc3ffd1f	-0.011718064
100	0x3c250888	0.010072835
101	0x3bd42305	0.006473901
102	0x3b62b391	0.0034591893
103	0x3c25b772	0.010114538
104	0xbbacd419	-0.0052743074
105	0xbc66e071	-0.014091597
106	0xbc493782	-0.0122813005
107	0x3c533762	0.012891622
108	0x3b65599d	0.003499604
109	0x3aa2ddf3	0.0012425765
110	0xbc137c38	-0.009001784
111	0x3be587d3	0.007004717
112	0x3bb8040b	0.0056157163
113	0x3c72a7cb	0.014810513
114	0x3b5d21ce	0.0033742073
115	0xbc1b353b	-0.00947314
116	0x3c4c6302	0.012474777
117	0xbc131408	-0.008976944
118	0x3a245f47	0.0006270301
119	0x3bfe40e8	0.0077592023
120	0x3a833195	0.0010009283
121	0x3c8bb06a	0.017051894
122	0x39e1daf5	0.0004307848
123	0x3b8e027c	0.0043337923
124	0xbcac45a3	-0.0210293
125	0xba3f2e6c	-0.0007292989
126	0x3c8f8b47	0.017522467
127	0xb99a60c7	-0.00029445274
128	0x3bba998f	0.005694575
129	0xb5edb9d0	-1.7711955e-06
130	0x3a410230	0.00073626917
131	0xbc2247fc	-0.009904858
132	0xbbadb89c	-0.005301548
133	0x3bdb60de	0.006694897
134	0x3bf36dcb	0.00742886
135	0xbc6004f0	-0.013673052
136	0x3c2517e0	0.010076493
137	0xb9b8d4d7	-0.00035253793
138	0xbbd349c9	-0.006448005
139	0x3754c8b4	1.26829145e-05
140	0x3af2b088	0.0018515745
141	0x3b593c26	0.0033147424
142	0x3b8407b5	0.004029239
143	0x3ba54178	0.005043205
144	0xbba88635	-0.005142952
145	0x3c0298d6	0.007971009
146	0xbbc7aa17	-0.0060932743
147	0x3c632cbe	0.013865648
148	0x3ba76a2d	0.0051090927
149	0x3c060c7b	0.0081816865
150	0xbbb11ad4	-0.0054048095
151	0x3ade84a8	0.001697679
152	0x3bee8de1	0.007280097
153	0x3a94b5eb	0.001134572
154	0xbbc3dd76	-0.005977328
155	0x3b8af797	0.004240941
156	0xbada8b00	-0.0016673505
157	0xbb2200a8	-0.002471963
158	0xbc351773	-0.011052954
159	0x3c2d0dd9	0.010562384
160	0x3a97c841	0.0011580066
161	0x3c1bc18d	0.009506595
162	0x3bf5cdac	0.0075013246
163	0xbbb672ad	-0.0055678696
164	0x3bce4895	0.0062952735
165	0x3aee8f8c	0.0018200739
166	0xbc1be2d7	-0.009514532
167	0xbb85e30b	-0.0040859035
168	0xbc2504ea	-0.010071972
169	0x3b3e51c7	0.0029040442
170	0xbc1a9771	-0.0094355205
171	0x3b5d0d8a	0.0033729994
172	0x3bc92a4d	0.006139076
173	0x3a150b82	0.0005685614
174	0xbac14960	-0.0014746599
175	0xbbb2d15f	-0.005457088
176	0xbb3913f0	-0.0028240643
177	0xbbb1e837	-0.0054292935
178	0xbb3f8a19	-0.00292266
179	0x3aeafba5	0.0017927779
180	0x3c0c1f35	0.008552362
181	0xbc434696	-0.0119186845
182	0x3a1c8cbf	0.00059719005
183	0x3a720db0	0.0009233607
184	0x3c2d9faa	0.010597149
185	0xbc0ccd77	-0.0085939085
186	0xbc794dfa	-0.015216345
187	0xbbc81711	-0.0061062654
188	0x3a2c3314	0.00065688905
189	0xbc731010	-0.014835373
190	0x39aae65e	0.00032596564
191	0x3c7518a5	0.014959489
192	0xbaf24ab9	-0.0018485404
193	0x3bbf5662	0.005839155
194	0x3c6abc69	0.014327147
195	0xbbfce28c	-0.007717436
196	0xbc43237b	-0.011910315
197	0x3c1f4bfa	0.009722704
198	0x3c62407f	0.013809322
199	0xbb33c8f7	-0.0027433017
200	0x3aa5f55f	0.0012661627
201	0x3bf64916	0.0075160367
202	0x3b87479e	0.0041284105
203	0x3bb66417	0.005566131
204	0xbb1cfeb6	-0.002395553
205	0x3bdea152	0.006794133
206	0xbb554b09	-0.0032545945
207	0xbc24d031	-0.010059402
208	0x3b394e60	0.0028275475
209	0xbb9269a4	-0.0044681598
210	0x3b7b5e9b	0.003835595
211	0xbb5dcbba	-0.0033843354
212	0x3bbbcfcc	0.0057315584
213	0x3bc70537	0.0060736197
214	0x3bf59967	0.0074950936
215	0x3b38a238	0.0028172862
216	0x3a5af789	0.00083529257
217	0xbbb46e97	-0.0055063474
218	0xbc338f9c	-0.010959532
219	0x3c20eb8e	0.009821786
220	0x3cac48fc	0.021030895
221	0x3bdfe583	0.00683278
222	0x3a8fbf26	0.0010967001
223	0xb9eccdb4	-0.00045166689
224	0xbb112fee	-0.0022153812
225	0x3c165c70	0.009177312
226	0x3b62663c	0.00345458
227	0x3a928c85	0.0011180794
228	0x3b507cc0	0.0031812638
229	0x3c488dd7	0.0122408485
230	0x3c88801e	0.016662654
231	0x3c4f34d6	0.012646874
232	0xbbc6ca10	-0.006066568
233	0x3c2b0b9f	0.010439782
234	0xba8f7fd1	-0.0010948126
235	0x3ba76555	0.0051085153
236	0xbb1d668f	-0.0024017429
237	0x3c1373c6	0.0089997705
238	0xbb1bcb59	-0.0023772328
239	0x3c20d2b2	0.009815859
240	0xbb65c451	-0.003505964
241	0xbc1c0e5f	-0.009524911
242	0x3bb49bc3	0.0055117323
243	0xbc5747f7	-0.013139716
244	0xb9a8d7b0	-0.00032204157
245	0x3aedf238	0.0018153852
246	0x3c292077	0.010322682
247	0x3b863587	0.0040957364
248	0x3c6113bf	0.013737618
249	0xba0b3068	-0.00053096423
250	0x3bd2d68f	0.006434269
251	0x3c6dce0e	0.014514459
252	0xbb26c086	-0.0025444343
253	0xbbe82c29	-0.0070853424
254	0x3b874455	0.004128019
255	0x3b3cad79	0.0028789921

network_body._body_endoder.seq_layers.2.weight f4 [256, 256]
0	0xbd18a3a7	-0.037265446
1	0x3c7b3139	0.01533156
2	0xbe1153a3	-0.14192061
3	0x3ccfa273	0.025346017
4	0x3d17f3da	0.03709779
5	0xbc0bc29f	-0.008530288
6	0x3d1cb0c9	0.038254533
7	0x3d92c7e7	0.071670346
8	0x3bad0c1a	0.0052809836
9	0x3d9a359f	0.07529759
10	0xbcbcb378	-0.023034796
11	0xbd0ae13a	-0.0339062
12	0x3c8f34eb	0.017481288
13	0xbdb37951	-0.08763374
14	0x3d04188d	0.032249976
15	0xbbcca2ef	-0.006245009
16	0x3d9dc828	0.077041924
17	0x3e1c1045	0.15240581
18	0xbd0a9327	-0.03383174
19	0xbcbf66f5	-0.023364523
20	0x3d875f29	0.06609947
21	0x3da3b175	0.079928316
22	0x3d4272d0	0.047472775
23	0x3b9a989a	0.0047178986
24	0xbab8e1c0	-0.0014105365
25	0x3d0bdd31	0.03414649
26	0xbc48d31f	-0.012257366
27	0xbd500e3d	-0.05079483
28	0xbcab1740	-0.02088511
29	0x3dedd8de	0.1161363
30	0x3d43f813	0.047844004
31	0xbdc678b4	-0.09690991
32	0xbdbccbc0	-0.0921855
33	0xbc7c4fe0	-0.015399903
34	0xbe385ce8	-0.18004191
35	0x3da5cabb	0.080953084
36	0xbe03114d	-0.12799568
37	0x3d209e54	0.039213493
38	0x3da99356	0.08280055
39	0xbda45a39	-0.08025021
40	0xbde6c2ec	-0.11267647
41	0xbddf120d	-0.10892115
42	0xbbf1d978	-0.0073806606
43	0x3bf1fa77	0.007384594
44	0xbd31b52a	-0.043385662
45	0xbd215789	-0.03939012
46	0x3d102739	0.035193656
47	0xbd9185cf	-0.071056
48	0xbdbf1955	-0.093310036
49	0x3c6fbefb	0.014632936
50	0xbc8272e3	-0.015923923
51	0x3d1f5587	0.038899925
52	0x3cda3ac5	0.026639352
53	0x3d2e9418	0.042621702
54	0xbca385b0	-0.019961208
55	0xbc17876f	-0.0092485985
56	0x3e142968	0.1446892
57	0xbcd37cf6	-0.025816422
58	0x3e08e20e	0.13367483
59	0xbd1afcc9	-0.03783873
60	0x3d4a9c7c	0.04946564
61	0x3a48090c	0.00076307426
62	0xbcc1cb6b	-0.023656568
63	0x3d7fd546	0.062459253
64	0xbcfbebbf	-0.030752061
65	0x3c975c33	0.018476581
66	0xbd86d0ef	-0.0658282
67	0x3c59e9ba	0.013300354
68	0xbc5f9736	-0.013646891
69	0x3cb78368	0.022401527
70	0xbcb7e16c	-0.022446357
71	0xbe212fcd	-0.15740891
72	0x3ded9c1b	0.116020404
73	0xbcd519e7	-0.026013328
74	0xbd7063cb	-0.05868892
75	0xbd08fb1f	-0.033442613
76	0xbdb21720	-0.08695817
77	0xbbb2bc67	-0.005454588
78	0xbdda1d3e	-0.10650109
79	0x3ba4ad51	0.0050255437
80	0x3d77cef1	0.06050009
81	0xbcd66518	-0.026171252
82	0xbdc5128c	-0.09622678
83	0x3ce5d20c	0.02805426
84	0x3e30d2d0	0.17267919
85	0xbdfb85e5	-0.12281398
86	0x3d47d7f1	0.048789922
87	0x3ba1af20	0.0049342066
88	0xbcbf5e1d	-0.023360306
89	0xbd841881	-0.06449986
90	0xbd165f2e	-0.036711864
91	0xbceaa42c	-0.028642736
92	0x3cac065c	0.020999126
93	0x3d585fcb	0.05282573
94	0xbd72090d	-0.059090663
95	0xbce773c2	-0.02825344
96	0x3d951378	0.07279104
97	0xbd6269e3	-0.055276763
98	0xbdc9f7c4	-0.09861711
99	0x3b96a0a8	0.0045967884
100	0xbcb52ef5	-0.022117117
101	0xbcbab3ad	-0.022790754
102	0xbda950ca	-0.082673624
103	0xbcb464ba	-0.022020686
104	0xbd201c82	-0.039089687
105	0x3d404790	0.046943247
106	0x3d2929cb	0.041299623
107	0x3c8903d8	0.016725466
108	0x3d9c6695	0.076367535
109	0xbd4ed3e8	-0.05049506
110	0x3d2818c2	0.041039236
111	0xbd2c0916	-0.042000853
112	0x3ce80098	0.028320596
113	0xbc24e12a	-0.010063449
114	0x3d0d1e92	0.034452982
115	0xbc26705e	-0.010158626
116	0x39426703	0.00018539657
117	0x3e12a275	0.14319785
118	0xbc986c89	-0.018606441
119	0xbd2ad545	-0.041707296
120	0xbdf9b5fe	-0.121929154
121	0x3d3dc55d	0.0463308
122	0xbcd8f8d7	-0.026485844
123	0xbdbb8e57	-0.091580085
124	0x3d89e04b	0.067322336
125	0xbdb104ef	-0.08643519
126	0x3d01ac3f	0.031658407
127	0x3e041502	0.12898639
128	0xbd460e26	-0.048353337
129	0x3d0d5370	0.0345034
130	0xbd90765f	-0.070538275
131	0x3d505556	0.050862633
132	0xbcb3ac28	-0.021932676
133	0x3d0bad16	0.034100614
134	0xbbee6e22	-0.0072763124
135	0xbdc262a7	-0.09491473
136	0x3d0679f4	0.032831147
137	0x3c9eac38	0.01936923
138	0x3b427d0a	0.002967658
139	0xbd9bcfc4	-0.076079875
140	0x3cc7013f	0.024292586
141	0xbded31f5	-0.11581794
142	0x3bb26970	0.005444698
143	0x3d828b0e	0.06374179
144	0x3d709fd1	0.058746163
145	0xbca3ac7a	-0.019979704
146	0x3b9be7d6	0.0047578616
147	0xbd38853f	-0.04504895
148	0x3bca1f9e	0.00616832
149	0x3d7ec41a	0.062198736
150	0x3b9174ed	0.0044389875
151	0x3caa1926	0.020763945
152	0x3b820c76	0.0039687706
153	0x3cbb9c27	0.022901608
154	0x3dead731	0.11466826
155	0x3b0ace16	0.0021179966
156	0xbdfae1f6	-0.1225013
157	0xbde399ad	-0.11113296
158	0xbc9654e5	-0.018351028
159	0x3d45d40e	0.048297934
160	0xbcf0424f	-0.029328493
161	0x3d33da0b	0.043909114
162	0x3d5af9aa	0.053460754
163	0xbd278318	-0.040896505
164	0x3cd4b0cd	0.025963211
165	0xbd2cf3e9	-0.0422248
166	0x3cc8ce8a	0.024512548
167	0xbd0a9700	-0.03383541
168	0xbc0f1a75	-0.008734335
169	0xbdb2c24e	-0.08728467
170	0xbde1b844	-0.11021474
171	0x3dc263bc	0.09491679
172	0x3e02a43f	0.12757967
173	0x3d5a67bd	0.05332159
174	0x3c848af0	0.016179532
175	0xbd88e126	-0.06683569
176	0x3cd6637e	0.026170488
177	0x3d96af62	0.0735767
178	0x3da004f8	0.07813448
179	0xbd62b71b	-0.055350404
180	0xbd4e6f12	-0.050398894
181	0x3e18ff93	0.14941244
182	0x3d2b26d3	0.041785073
183	0x3bf44388	0.0074543394
184	0x3d23f70f	0.040030535
185	0x3da7cd24	0.08193424
186	0x3cdd53cb	0.027017495
187	0x3ca0594f	0.019573836
188	0x3d516d39	0.051129553
189	0x3c3d4727	0.011552609
190	0xbd8ab9a5	-0.0677369
191	0x3b99219b	0.0046731955
192	0x3bfa3377	0.0076355296
193	0x3d453992	0.048150606
194	0x3d6397be	0.055564635
195	0x3d9f124c	0.07767162
196	0xbd061ea5	-0.03274407
197	0xbcff21ac	-0.031143986
198	0x3da16324	0.07880238
199	0x3bfd54c2	0.007731051
200	0x3c4262d9	0.011864387
201	0x3d39bd7b	0.04534672
202	0x3c5624be	0.013070283
203	0x3c963c1a	0.018339206
204	0x3c9d973c	0.019237153
205	0x3da14c3f	0.07875871
206	0x3db5ba25	0.08873395
207	0x3bb177b1	0.0054158797
208	0xbc0d1615	-0.008611222
209	0x3c271080	0.010196805
210	0xbdc0efd4	-0.094207436
211	0x3d979ed0	0.07403338
212	0xbc90cd1a	-0.017675925
213	0x3d0e800c	0.034790084
214	0xbd89e46d	-0.06733022
215	0x3bc04359	0.0058674035
216	0xbd340bc9	-0.04395655
217	0xbbbcb2a1	-0.005758599
218	0xbdea09b9	-0.11427636
219	0xbbc13c7d	-0.0058971033
220	0x3d20d548	0.0392659
221	0xbd5417bd	-0.05178045
222	0x3c05469f	0.008134513
223	0xbdc110b2	-0.094270125
224	0x3cb07a3e	0.021542665
225	0x3d659240	0.056047678
226	0xbd5c818c	-0.053834483
227	0xbd299ed1	-0.041411225
228	0xbda65bae	-0.08122955
229	0xbcff2cb6	-0.03114925
230	0xbe2aa522	-0.16664556
231	0xbd56b496	-0.052418314
232	0x3c8c2e51	0.01711193
233	0x3a4df624	0.0007856807
234	0xbbe3a1f3	-0.006946796
235	0xbdba3504	-0.09092143
236	0xbdadce37	-0.08486598
237	0xbd5a34a7	-0.05327287
238	0xbd018dae	-0.031629257
239	0x3dfee32f	0.124456756
240	0x3b6c8a09	0.0036093018
241	0x3b9e55a7	0.004831988
242	0xbd1fe55e	-0.0390371
243	0x3e0ea41b	0.13929789
244	0x3e19997a	0.14999953
245	0xbd7d3aa5	-0.061823506
246	0xbbe8b0b5	-0.0071011432
247	0x3dc0b166	0.09408836
248	0x3d7e736e	0.0621218
249	0x3be4942c	0.0069756713
250	0x3da12a7e	0.07869433
251	0x3db06d74	0.086146265
252	0x3d9ed9cf	0.077563874
253	0x3c4a8c33	0.012362528
254	0x3d62fb3d	0.05541538
255	0xbd7afac3	-0.0612743

network_body._body_endoder.seq_layers.2.bias f4 [256]
0	0xbc3fb130	-0.01169996
1	0x3bde08b8	0.0067759417
2	0xbaca9e67	-0.0015458585
3	0x3a92dd95	0.0011204953
4	0xbc4c949e	-0.012486605
5	0xbc3c0943	-0.011476818
6	0x3b1dd54d	0.0024083436
7	0x3c346c67	0.011012173
8	0xbb30724d	-0.0026923597
9	0x3c6dcce5	0.014514183
10	0x3b397c61	0.0028302895
11	0x3b9911b2	0.004671299
12	0x3b86edc9	0.0041177017
13	0xbc01d1ed	-0.007923585
14	0x3bccc2c1	0.0062488024
15	0x3bd0c521	0.006371156
16	0x3be0ebd4	0.0068640504
17	0xbc473982	-0.012159707
18	0x3c0ed976	0.008718839
19	0xbc674c5b	-0.014117326
20	0xbbdba987	-0.006703559
21	0xbba384ff	-0.0049902196
22	0x3bc3df6e	0.0059775626
23	0x3b2f3ad8	0.0026737954
24	0x3b5453fb	0.003239869
25	0x3b80d924	0.003932135
26	0x3babf7a7	0.0052480283
27	0x3c4be8eb	0.012445669
28	0x3b94c312	0.0045398558
29	0x3b446ce6	0.0029972135
30	0xbc05a64a	-0.008157322
31	0xbc44a709	-0.012002715
32	0xbc3d3477	-0.011548153
33	0x3b585af4	0.0033013197
34	0x3bf806da	0.007569176
35	0x3c1fec94	0.009760994
36	0x3c6e4bdb	0.014544453
37	0x3c10427e	0.0088049155
38	0x3a902e68	0.0011000158
39	0xbc30bc40	-0.01078707
40	0xbb2eab8d	-0.0026652545
41	0x3be04ac5	0.0068448507
42	0xba76fab5	-0.00094215135
43	0xbb32cb06	-0.0027281656
44	0xbbbdb32a	-0.0057891803
45	0x3c48a68e	0.012246741
46	0xbaf57223	-0.0018726032
47	0x3a7467d7	0.00093233347
48	0x3afc64bd	0.0019256097
49	0x3c612fbb	0.01374429
50	0x3bc551a4	0.006021695
51	0xbb0f6eca	-0.0021886104
52	0x3aade945	0.0013268372
53	0x3b866a71	0.0041020443
54	0x3b1ba2aa	0.0023748078
55	0x3c590df5	0.0132479565
56	0xbc2676eb	-0.010160188
57	0xbc228bc9	-0.009921023
58	0x3bdaded4	0.006679395
59	0x3ba7c01c	0.005119337
60	0xbc363cd6	-0.011122903
61	0xbc1af915	-0.0094588
62	0x3c80dab0	0.015729278
63	0xbc652548	-0.013985939
64	0xbb008788	-0.0019612033
65	0x3c4e6e19	0.0125994915
66	0x3b477e00	0.0030440092
67	0x3c2d6976	0.010584226
68	0xbb2ac04a	-0.0026054555
69	0x3c282576	0.010262838
70	0xbb3eed05	-0.0029132974
71	0x3bab262f	0.0052230577
72	0xb8c84370	-9.5493044e-05
73	0x3c1d6410	0.009606376
74	0xbc1500c5	-0.009094422
75	0x3c31164c	0.010808539
76	0xbc0827a0	-0.008310229
77	0xbac9b384	-0.0015388583
78	0x3c24d571	0.010060654
79	0x3bfbf83c	0.007689504
80	0x3c81cd59	0.015844988
81	0xbc3fa860	-0.011697859
82	0x3c4ae98d	0.012384784
83	0x3c58ae5e	0.013225166
84	0x3c09d11c	0.008411672
85	0xb9631f74	-0.00021660124
86	0x3a5e9935	0.00084914576
87	0x3c4174ad	0.011807603
88	0xbbc15f85	-0.0059012794
89	0xbb95785b	-0.0045614666
90	0x3c6c5b26	0.014426028
91	0xba58e857	-0.00082743674
92	0xbc24778e	-0.01003827
93	0xbb89a41f	-0.004200473
94	0x3a28a447	0.00064331706
95	0xbb4b822b	-0.0031052928
96	0x3ae28c86	0.0017284311
97	0x3c4de25f	0.012566178
98	0xb9ac1bfd	-0.0003282725
99	0x3bd73ce6	0.006568539
100	0x3af4afbd	0.0018668097
101	0x3bfe862d	0.00776746
102	0x3b84a07a	0.0040474506
103	0x3b4b015c	0.0030976152
104	0x3a680179	0.0008850317
105	0xbafa5889	-0.0019099872
106	0x3c392abb	0.011301692
107	0xba168350	-0.0005741613
108	0x3c08dad0	0.00835295
109	0x3ba10f02	0.004915119
110	0x3a4a913a	0.0007727329
111	0x3a42bc82	0.00074286025
112	0x3b9b0ee0	0.004731998
113	0xbb30dbca	-0.0026986473
114	0x3b013263	0.001971387
115	0xbbfe07f8	-0.007752415
116	0xbab76b32	-0.0013993739
117	0xba327ea6	-0.0006809033
118	0x3b8c0072	0.004272514
119	0xbad9e698	-0.0016624508
120	0xbb1b9c44	-0.0023744265
121	0xbc0253e5	-0.007954572
122	0x3aba4d47	0.0014213704
123	0xbb0ab26d	-0.002116348
124	0x3bc5e161	0.00603883
125	0xbc37eb64	-0.011225555
126	0x3c123b47	0.008925266
127	0x3c41ad9d	0.011821178
128	0x3b8a6614	0.0042235944
129	0x3c12cf56	0.008960566
130	0x3be8b5cb	0.0071017495
131	0x3a8e59d5	0.0010860512
132	0x3c0c3f87	0.008560068
133	0xbc30da08	-0.01079417
134	0x3a435c10	0.0007452378
135	0x3c4bb8c1	0.0124341855
136	0xbb894668	-0.0041893013
137	0x3b26f9a4	0.0025478387
138	0xbb9eee24	-0.004850166
139	0x3c1252e5	0.008930896
140	0x38964280	7.164944e-05
141	0x3b4493ff	0.002999544
142	0xbc3a4cba	-0.011370832
143	0x3ca425ce	0.020037558
144	0x3c13441f	0.008988409
145	0xbb4a0f85	-0.0030832004
146	0xbbffe735	-0.0078095444
147	0x3b62e950	0.0034623928
148	0xbb2aaa61	-0.0026041495
149	0x3abd6ee8	0.0014452608
150	0x3be048a5	0.0068445974
151	0x3ae242af	0.0017262305
152	0xbc06a329	-0.008217611
153	0x3c082204	0.008308891
154	0x3940329c	0.000183294
155	0x3bee183a	0.0072660716
156	0x3ba8efba	0.0051555308
157	0x3c2714d8	0.010197841
158	0xbc633fef	-0.013870223
159	0xbb51e137	-0.0032025108
160	0x3bb187fc	0.005417822
161	0xbb557321	-0.0032569843
162	0xbadeec28	-0.0017007636
163	0xbbf1cb0d	-0.007378942
164	0x3b52f922	0.0032191952
165	0x3bd82d23	0.0065971776
166	0xbb4c526e	-0.0031177062
167	0xbc38ecc8	-0.011286922
168	0xbb4785e3	-0.0030444793
169	0x3c2d16dd	0.010564533
170	0x3c3e1445	0.011601512
171	0x3c02b7fa	0.007978434
172	0x3c4b6c45	0.01241595
173	0xbba89876	-0.005145128
174	0x3b88c1d8	0.0041734986
175	0x3be8bb1d	0.0071023838
176	0xba1ea130	-0.00060512405
177	0xbc343e32	-0.011001157
178	0xbbbaddc0	-0.005702704
179	0x3bfcfbc0	0.0077204406
180	0x3b9687c8	0.004593823
181	0xbc365c1b	-0.011130358
182	0x39fcebba	0.00048240816
183	0x3c4f036e	0.012635095
184	0xbc907a1f	-0.017636357
185	0x3c3bc018	0.011459373
186	0xbc51bbfc	-0.012801167
187	0x3b82e77a	0.0039948793
188	0x3bcbfddb	0.0062253303
189	0x3b65ca5d	0.0035063245
190	0xbc465f79	-0.012107723
191	0x3bfaa5a4	0.0076491404
192	0x3b252765	0.0025200483
193	0x3becb15b	0.007223291
194	0xbc0a53cd	-0.008442831
195	0xbb818ed8	-0.003953796
196	0x3b4a4996	0.0030866615
197	0xbc70feae	-0.014709158
198	0x3b9023d3	0.004398802
199	0x3c3529d5	0.011057337
200	0x3bc2ddb1	0.005946838
201	0xbbb4fc73	-0.0055232584
202	0xbc303a2d	-0.010756058
203	0xbb0c4ad0	-0.0021406896
204	0xbbbe56d1	-0.005808689
205	0x3bb03a6e	0.005378059
206	0x3a35d8c4	0.00069369026
207	0x3a060729	0.0005112761
208	0x3b79ab36	0.0038096434
209	0xbc1c97e3	-0.009557697
210	0xba9610de	-0.0011449119
211	0x3b7c9569	0.0038541204
212	0xbc07272d	-0.008249086
213	0x3c20bade	0.009810178
214	0xb8e7b13d	-0.000110479516
215	0x3bec2531	0.007206582
216	0x3b59b6d4	0.0033220546
217	0x3bffe83a	0.007809666
218	0x3c440437	0.0119638955
219	0xbba4567f	-0.005015194
220	0xbc52ff34	-0.012878228
221	0xbb4b6168	-0.00310334
222	0x3b60bc9f	0.0034292114
223	0xbad75f4f	-0.0016431602
224	0xba767264	-0.0009401201
225	0xbba35303	-0.004984261
226	0xbc133623	-0.008985075
227	0xbc6fe7cb	-0.014642666
228	0xbaf5436b	-0.0018712109
229	0x3c261014	0.010135669
230	0x3baff3a0	0.0053696185
231	0x3bf11ed3	0.007358411
232	0xbb15d508	-0.0022862572
233	0xbb1f5707	-0.0024313347
234	0xbbb450d9	-0.005502802
235	0x3be24bca	0.0069060074
236	0xbc776a96	-0.015101096
237	0x3b5cf4e2	0.0033715297
238	0x3b959004	0.004564287
239	0x3ca7f5cd	0.02050295
240	0xbc960ecc	-0.018317603
241	0x3c2c3f77	0.010513178
242	0x3b2b2c3c	0.0026118895
243	0x3c0498cd	0.008093071
244	0xbaf3b135	-0.001859224
245	0x3b8120c4	0.0039406735
246	0x3aace435	0.001319057
247	0x3ad89a79	0.0016525529
248	0x3b9d24ae	0.0047956323
249	0x3c0fc12b	0.008774082
250	0x3b9a2214	0.0047037695
251	0xbb786f98	-0.0037908312
252	0x3b3557ca	0.0027670735
253	0xbc389349	-0.011265584
254	0xbb8f1950	-0.004367031
255	0x3bc08679	0.0058754054

action_model._continuous_distribution.log_sigma f4 [1, 5]
0	0x3cd891ba	0.026436675
1	0x3c9374a3	0.017999953
2	0x3cc0dfdd	0.023544246
3	0xbca36a06	-0.019948017
4	0x3cc08b02	0.023503784

action_model._continuous_distribution.mu.weight f4 [5, 256]
0	0x3b8e5be6	0.0043444512
1	0xbc1db8c4	-0.009626571
2	0xbcbc3df4	-0.02297876
3	0x3cd102e0	0.025514066
4	0x3c4b7f9c	0.012420561
5	0x3c2c8048	0.0105286315
6	0xbc838888	-0.016056314
7	0xbc15143b	-0.009099062
8	0xbc8c4616	-0.017123263
9	0xbb7b1e4d	-0.0038317621
10	0x3cbb7cb2	0.022886608
11	0x3bcef0bd	0.0063153193
12	0xbd0437b1	-0.032279674
13	0x3a360133	0.0006942928
14	0xbc64171e	-0.013921527
15	0xbb45d30b	-0.0030185606
16	0xbc04d4fa	-0.008107418
17	0x3b82b55e	0.003988906
18	0x3d0a4bdc	0.03376375
19	0x3ca21d4a	0.019789357
20	0x3c061350	0.008183315
21	0x3c3054da	0.010762418
22	0xbc35c071	-0.011093245
23	0xbcd78f12	-0.026313338
24	0x3bdb555d	0.0066935257
25	0xbc3a98e7	-0.011388994
26	0xbc8e920a	-0.017403621
27	0x3cb359dc	0.021893434
28	0x3c7be091	0.015373365
29	0xbc9ac597	-0.018893046
30	0x3be559aa	0.006999214
31	0x3abbf64e	0.0014340372
32	0x3c6536f5	0.013990154
33	0xbca852bc	-0.020547263
34	0xbb2e111a	-0.0026560486
35	0x3c3907bd	0.011293349
36	0x3940bcf0	0.00018380932
37	0xbc841bbe	-0.01612651
38	0x3c1ca23d	0.009560165
39	0xbb86ca42	-0.0041134665
40	0xbc14e507	-0.0090878075
41	0xbb84a0ee	-0.0040475046
42	0x3c00794b	0.0078414185
43	0xbc009932	-0.007849025
44	0x3c07ff2c	0.008300584
45	0x3a9d09f6	0.0011981118
46	0xbc2d258a	-0.010568032
47	0xbc618840	-0.013765395
48	0xbc7d68b6	-0.01546686
49	0xbc37e6d5	-0.011224468
50	0x3c81b216	0.015831988
51	0x3c9cf019	0.019157456
52	0xbb14e81d	-0.0022721358
53	0x3ca06440	0.019579053
54	0xbcdc3f30	-0.026885599
55	0x3c1e633b	0.009667213
56	0x3baa5e5e	0.0051992377
57	0x3c6fd8d9	0.014639103
58	0x3bc81526	0.0061060367
59	0x3c9361fe	0.017991062
60	0x3b972d5d	0.004613562
61	0x3c043f31	0.008071707
62	0x3bf3b52c	0.007437369
63	0xba2880a0	-0.0006427858
64	0xbab4cd6d	-0.0013794132
65	0x3b1e17c6	0.0024123057
66	0x3cc0762e	0.023493852
67	0xbd2537d1	-0.040336434
68	0xbc1afed5	-0.009460171
69	0x3cc4d706	0.024028312
70	0x3ca4916a	0.02008887
71	0x3c746e57	0.014918885
72	0x3c8a2cdb	0.016867092
73	0xbc490487	-0.012269146
74	0xbbd771fa	-0.0065748664
75	0xbcbf9d6a	-0.02339049
76	0x3c511488	0.012761243
77	0x3c672216	0.014107248
78	0x3cf35216	0.029702228
79	0x3bafadbd	0.0053612874
80	0xbb050256	-0.0020295582
81	0xbb49e6f4	-0.0030807825
82	0x3cb7e0d9	0.022446083
83	0xbc1fa76c	-0.009744506
84	0xba90313d	-0.0011001002
85	0xbc11e3d0	-0.008904412
86	0x3cedc330	0.029023737
87	0xbcbf5156	-0.023354214
88	0xbba37610	-0.0049884394
89	0xbc85aa71	-0.016316624
90	0xba0eda0e	-0.0005449363
91	0xba9e9a0a	-0.001210035
92	0x3c82f315	0.015985051
93	0x3c908f4a	0.01764645
94	0x3cde8bd5	0.027166286
95	0xbcebcfd4	-0.028785624
96	0xbc01028b	-0.007874141
97	0xbd02fa54	-0.031977013
98	0xbc78154f	-0.015141799
99	0xbbb57ba6	-0.0055384217
100	0x3b7559c4	0.0037437538
101	0xbbd54cd7	-0.006509404
102	0x3c8e23c7	0.017351044
103	0xbcf259d3	-0.029583847
104	0xbba32b63	-0.0049795373
105	0x3abda42a	0.001446848
106	0x3ca2803e	0.019836541
107	0xbc26e0b8	-0.010185413
108	0xbb5e8cb3	-0.0033958375
109	0x3c99ca47	0.018773211
110	0x3cd9235e	0.026506122
111	0x3be6cfcb	0.007043814
112	0x3c890283	0.01672483
113	0x3d077efd	0.03308009
114	0xbce4d51b	-0.027933648
115	0xbcf08fd2	-0.029365454
116	0x3a0c3d6d	0.00053497293
117	0x3c94d47e	0.01816773
118	0x3ca61bb2	0.020276878
119	0x3aae2259	0.0013285383
120	0x39f2f692	0.00046341546
121	0x3bbdc1df	0.0057909335
122	0x3c3480a7	0.011017001
123	0xbc721e04	-0.014777664
124	0x3c718c8f	0.014742984
125	0xbc50ffbb	-0.012756283
126	0x3c6867d7	0.014184914
127	0xbcabb66a	-0.020961005
128	0xbbf925d4	-0.0076033864
129	0x3bd9132f	0.0066246013
130	0xbca5e560	-0.020250976
131	0x3c63341a	0.013867402
132	0x3c5cd10e	0.013477577
133	0x3ad4ab4e	0.0016225369
134	0x3b6b0ae9	0.0035864657
135	0xbcd974d3	-0.026544964
136	0x3bf6cd1a	0.007531774
137	0x3c2a5a00	0.010397434
138	0x3c67659d	0.014123348
139	0x3c821c71	0.015882703
140	0x3cc521da	0.024063993
141	0xbc878c7f	-0.016546486
142	0x3cae9826	0.021312784
143	0xbcea1df3	-0.028578734
144	0xbc683607	-0.014173037
145	0x3bed1206	0.0072348146
146	0x3cc67a46	0.024228226
147	0xbaba7a1a	-0.0014227063
148	0x3c469560	0.012120575
149	0x3b8641e0	0.0040972084
150	0xbcf90879	-0.030399548
151	0x3c1db3aa	0.009625355
152	0xbc74a7b0	-0.014932558
153	0xba8ffd66	-0.0010985553
154	0x3c2716d3	0.010198313
155	0x3c9849b2	0.018589828
156	0xbbec419e	-0.0072099706
157	0xbb9c89ff	-0.0047771926
158	0x3c155723	0.009115013
159	0x392fcb2a	0.00016764985
160	0x3ce2a8cb	0.027668377
161	0xbc2e2cdd	-0.010630813
162	0x3c6ca0d3	0.01444264
163	0xb9c49b35	-0.0003749967
164	0x3cdaa5b5	0.026690343
165	0x3c20e34a	0.009819815
166	0x3baaebf1	0.0052161147
167	0x3c1a1798	0.009405039
168	0xbcd82880	-0.0263865
169	0xbc44d9b2	-0.012014793
170	0xbbfd0e85	-0.007722678
171	0xbc80868f	-0.015689163
172	0x3c2416be	0.010015188
173	0x3ae3ef3f	0.0017390026
174	0xbcf0db24	-0.02940137
175	0x3b8cdfed	0.004299155
176	0xbc65178f	-0.013982668
177	0xbc6804b7	-0.01416128
178	0xbc00fa9a	-0.007872248
179	0x3cb081c7	0.021546258
180	0xbc98455d	-0.018587762
181	0x3c36f9ed	0.011167985
182	0x3c1c958c	0.009557139
183	0xbc37f314	-0.011227388
184	0xbb9e99cc	-0.0048401114
185	0x3c08ab69	0.008341649
186	0x3c83deb0	0.016097397
187	0xbc1e48ad	-0.009660882
188	0x3c17232a	0.009224692
189	0x3c695008	0.014240272
190	0x3a63b73d	0.00086866674
191	0xbb75fc0d	-0.0037534267
192	0x3b874cc1	0.004129023
193	0x3c0370f0	0.008022532
194	0x3c9ac4c9	0.018892663
195	0xbc0fca5f	-0.008776276
196	0xbc3cfd38	-0.011534981
197	0x3b3f1308	0.002915563
198	0xbbcd106c	-0.006258061
199	0xbc24e494	-0.010064263
200	0xbb06bbc1	-0.0020558687
201	0x3c456d88	0.01205004
202	0x3bd4be65	0.0064924234
203	0x3c439e45	0.01193959
204	0x3b1344e6	0.0022471487
205	0xbc956c83	-0.018240219
206	0x3be50033	0.006988549
207	0x3a762680	0.0009389892
208	0xba2a62ba	-0.0006499697
209	0x3b3e7b6b	0.0029065262
210	0x3cded106	0.02719928
211	0xbcd50215	-0.02600197
212	0xbbbde824	-0.0057954956
213	0xbc6c13fb	-0.014409061
214	0x3ca1d6a5	0.01975567
215	0xbcbf4d4d	-0.02335229
216	0xbcfd7cca	-0.030943293
217	0xbd48be00	-0.049009323
218	0xbcb9e7bd	-0.02269351
219	0x3b169217	0.002297526
220	0x3ae30779	0.0017320953
221	0x3d2b3657	0.04179987
222	0xbd0b6425	-0.034031052
223	0x3c8fc32a	0.017549116
224	0x3c3570c2	0.011074247
225	0xbbb9d62d	-0.0056712837
226	0x3abcf1d8	0.0014415337
227	0xbc0a4ad0	-0.008440688
228	0x3c9c42e1	0.01907486
229	0x3b18d1ff	0.0023318527
230	0x3cc40047	0.023925913
231	0x3b9fc638	0.0048759244
232	0x3c09b81d	0.008405712
233	0xbc557a81	-0.0130296955
234	0x3c71e06c	0.014762979
235	0x3c3c9b14	0.011511583
236	0x3bbfc4eb	0.005852332
237	0x3c841b17	0.016126199
238	0x3b3ea534	0.0029090168
239	0xbcb5fb8c	-0.022214673
240	0xbb6fe8c6	-0.003660725
241	0xbc95541c	-0.018228583
242	0xbbd8fc20	-0.0066218525
243	0xb94622ca	-0.00018895711
244	0x3bbc66d4	0.0057495628
245	0xbc88131d	-0.016610676
246	0x3b849771	0.0040463735
247	0xbcc30b8e	-0.02380922
248	0x3c670ada	0.014101708
249	0x3c3c2647	0.011483735
250	0xbd0aa801	-0.033851627
251	0x3b9c1ef5	0.0047644326
252	0x3aae5822	0.0013301412
253	0x3ab3ec9c	0.0013727131
254	0x3bbff020	0.0058574826
255	0xbcdb14a5	-0.026743243

action_model._continuous_distribution.mu.bias f4 [5]
0	0xba87a370	-0.0010348391
1	0xbb5b64d1	-0.003347684
2	0x3a874a3a	0.0010321804
3	0x3c8dfc2e	0.017332163
4	0x3bac950b	0.0052667907
