configfiles/results/hb_02/Hummingbird/Hummingbird-955072.onnx (onnx, 330176 bytes, 7 tensors)

network_body._body_endoder.seq_layers.0.weight f4 [256, 55]
00000000: ed42 c63d 1510 d63c 06e9 a53d db24 ca3d
00000010: ee34 bcbd 879d 15be e705 8cbd 8dcb f53d
00000020: 505b 833d 47d3 58bd 29f5 09be b239 f5bd
00000030: 161a 89bd c7f5 5abd 6bd2 d83d f49c aebd
00000040: 2bab 2ebe e097 1abe 8cf6 eb3c f0b3 093e
00000050: 3aaa 22bc 5079 2a3c 7b58 cebd d059 b73d
00000060: 783a cc3d 1da6 843e 05e3 303e 48d1 013d
00000070: c385 7cbd 28d1 bebd bc45 203e cddf 0a3e
00000080: 96ce 4a3e 2c0d 093e 5d98 273d fc91 903d
00000090: ef48 693e fad8 763e cead 673d 0561 35be
000000a0: e720 293d 6483 0a3e e4de b93c 5ef1 b0be
000000b0: 7fe1 29bd 0ad0 95bd a766 6a3d 1c43 2f3d
000000c0: 4d12 443d 5e3a 23be 4bfc 2dbd 116c bfbd
000000d0: 3f63 723c efdc f7bb 85be 52be 7488 883c
000000e0: ea44 4c3e 0c0c 4f3c 46b4 4e3e bdd3 9cbd
000000f0: 1ff2 3a3d 5a0e b8bb 8c63 10be faa7 763b
00000100: e2a8 1cbb 5a72 99bd b37d 6ebe 6348 b93d
00000110: b321 9ebd e29a f83c 465e 7c3d f690 55be
00000120: aab7 833c 145e 423d 06e8 1dbe 214a b5bd
00000130: 5c4a c73b b35e cf3e 3c98 08bd 2cc3 11be
00000140: b5f1 77bc ff6c 30bc 599a c4bd 13c5 76bd
00000150: c06c c2bd 3b79 0f3e 179e 3c3e 793f 35be
00000160: 05c1 54bd c08f 83bc 5f1f d13d 90fd 1e3d
00000170: 5f4c b3bd 04ff a53e 4c51 8e3d 9312 453d
00000180: 8c2f b33c 405a 043e 2570 813e 307e 3ebe
00000190: f930 a3bd e6ce 31bd 4020 74be 0bd4 483e
000001a0: 7cc4 053d c5c0 59bb 35fe 91be 9c7e 2d3e
000001b0: f4f3 083d ff44 793e cb13 bebe ae37 d3bc
000001c0: 1f9a e83d 759c 643e c175 f93c c0bc 663e
000001d0: f0af 8ebd 23a1 f1bc 6005 c8bd 5dfc 483e
000001e0: 3087 53bd 25d1 bb3d b46a 903e f9d0 89bd
000001f0: 8b57 8fbc 8725 f4bd df46 2dbd 4984 563d
00000200: b573 57bd 818b 8cbe 5ab1 373e 7555 2b3e
00000210: c340 d9bc 3d1d 33bb b81d 083e 9e0c 86be
00000220: dadf e33d 9f70 02be 542b d9bd c9c9 e53b
00000230: b936 6dbe 4343 8ebd 6818 1bbe d287 f73d
00000240: bc42 263e 1aea 1cbd b7a9 273e 6eb8 cd3d
00000250: 2087 2a3c c95b 803d 5fc2 96bc d209 973b
00000260: 8d37 ae3d 9fb3 403d 202f 32bc 0e4f 12be
00000270: a1d5 57be d4c2 15bd b007 48bd eb0a 283d
00000280: 2055 ae3e cd51 81bd ab2e a6be 9b88 99bc
00000290: 62c4 b0be af77 bbbd a34d 12bd e91b 22be
000002a0: e2f8 133e 659a 43bd c5fc d03b b717 903e
000002b0: be33 4ebe ea0e 6b3d 8d61 0dbd 691b cf3d
000002c0: 27c5 e7bb b273 573e 987e aebe b4b1 75bd
000002d0: d601 73bd 5831 ed3d 58d8 d0bd 4b08 12bd
000002e0: 0e3e 20bd 7f90 e3bd e404 74be 3c56 c53d
000002f0: cd0f 4ebe 2d1e d0bc d8dd 1d3d 3e2a b9bd
00000300: 2212 5ebc f079 e4bc ee18 783e ff5c 123e
00000310: e450 843d 452a de3c 5015 52be 0404 edbd
00000320: 39e4 fabd 95b6 2cbd bace 833e f445 653e
00000330: 0362 33be 07ac c43d eda7 9dbd 1258 cc3d
00000340: 6b2d b33d 2474 e83d 6fce 2b3e 1a40 1fbc
00000350: 8259 073d 48a0 633d 323e 923d e535 50bd
00000360: 6115 b73d 53cb af3e 151c d8bd 0908 7d3e
00000370: bdc4 253e 36b8 37be 8375 60bd e281 ea3d
00000380: d3fa 023e bd69 e5bd 1469 c4bc 89ce 123e
00000390: 5052 92be 891f 163b 8fd7 84be dce7 143e
000003a0: 6cd3 ef3d 8ce2 20be 943a 343e e0ba bd3e
000003b0: f679 36bd 9ad0 06be 45b2 08be 1eb4 8f3c
000003c0: d318 243a 9179 28be 6a6c afbd f976 723d
000003d0: 8566 253d 6cf6 e73d a4ab 083e 39d7 7bbd
000003e0: 6be7 2f3e 8e02 cebc b028 043e ca59 0d3e
000003f0: 199c f53d 5bd8 68be 7640 96bc 567c 6b3d
0.09680734 0.026130715 0.08101086 0.09870311 -0.09189783 -0.14610873 -0.06837063 0.12001715
0.06413901 -0.052935865 -0.13472427 -0.11973895 -0.066944286 -0.053457048 0.10587009 -0.0852603
-0.17057483 -0.15096998 0.028804086 0.13447547 -0.0099282805 0.0104049 -0.1007547 0.08952677
0.099720895 0.25907984 0.17274101 0.031693727 -0.061651003 -0.09317237 0.15651602 0.13561936
0.19805369 0.13383931 0.04091679 0.07059094 0.22781728 0.24106207 0.056562237 -0.17712791
0.041291144 0.13526684 0.02268929 -0.3455915 -0.041474815 -0.07315071 0.057226803 0.04278861
0.047869015 -0.15940234 -0.042476933 -0.09346784 0.01479417 -0.007564179 -0.2058049 0.016666628
0.19948164 0.01263715 0.20185956 -0.07657573 0.04564106 -0.005616945 -0.14100474 0.0037636743
-0.0023904373 -0.07492514 -0.23290138 0.0904701 -0.07721271 0.030347291 0.061613344 -0.2085608
0.016078789 0.047453 -0.15420541 -0.088520296 0.0060818624 0.40501937 -0.033348307 -0.14234608
-0.015133311 -0.010768174 -0.09599752 -0.06024654 -0.09493399 0.1401109 0.18419681 -0.17699994
-0.05194189 -0.016059756 0.10211062 0.038816035 -0.08754801 0.32421124 0.069491 0.048113417
0.021873258 0.12925053 0.25280872 -0.18602824 -0.07968325 -0.043410204 -0.23840427 0.19612138
0.032658085 -0.0033226472 -0.28514257 0.16942829 0.033435777 0.24342726 -0.37124476 -0.025783386
0.11357521 0.22325309 0.030451657 0.2253294 -0.06967151 -0.029495781 -0.0976665 0.19627519
-0.051642597 0.091707505 0.28206408 -0.067293115 -0.017497798 -0.1192122 -0.042303916 0.05237225
-0.05260058 -0.27450183 0.17938748 0.16731818 -0.026520139 -0.002733066 0.13292587 -0.261815
0.11126681 -0.12738274 -0.10603967 0.00701258 -0.23165406 -0.06946423 -0.15146029 0.120864525
0.16236395 -0.038309194 0.16373335 0.10044943 0.010408193 0.06267507 -0.01840323 0.004609325
0.08506689 0.0470463 -0.010875493 -0.1428797 -0.21077587 -0.036562756 -0.048835456 0.041026037
0.3404932 -0.063144304 -0.3245748 -0.018741896 -0.34524828 -0.09153687 -0.03571857 -0.1583096
0.1445041 -0.047754664 0.0063777887 0.28143093 -0.20136926 0.05738727 -0.03451686 0.1011265
-0.007073063 0.21040228 -0.34080958 -0.059983924 -0.059327923 0.11581677 -0.10197514 -0.03565244
-0.03912168 -0.11111545 -0.2382999 0.096355885 -0.20123215 -0.025405014 0.038541645 -0.0904126
-0.013554128 -0.027890176 0.2422826 0.14293288 0.06460741 0.027119765 -0.20515943 -0.115730315
-0.12250561 -0.04216631 0.25743657 0.22389966 -0.17517857 0.09603124 -0.07698045 0.099777356
0.08748897 0.11350277 0.16777967 -0.009719873 0.033044346 0.055572778 0.07140769 -0.050832648
0.089396246 0.34334812 -0.10552231 0.24710096 0.16188331 -0.17941365 -0.054799568 0.114505544
0.12790994 -0.112018086 -0.023975886 0.143366 -0.28578424 0.002290698 -0.25945708 0.14541572
0.117102474 -0.15711421 0.17600471 0.37056637 -0.044549905 -0.13165513 -0.13349254 0.017541941
0.00062598026 -0.16452624 -0.085656 0.059195492 0.040380973 0.11326298 0.13346726 -0.06148455
0.17178123 -0.025147703 0.12906146 0.13803783 0.11992664 -0.22738783 -0.018341284 0.057491623

network_body._body_endoder.seq_layers.0.bias f4 [256]
00000000: f80b 1e3c 282e 88bc 5818 a33a 6842 8e39
00000010: 4dbf 8e3c eb77 25bc e199 363b 2939 1dbb
00000020: 8aac 2fbb 2502 8f3c b574 033c eda8 2d3c
00000030: ee60 c53c 14df 343c e9dd b9bc b96e 3dbc
00000040: 9efc bd3b a01c 933c 82f3 9d3b d8ac 2ebc
00000050: 4b3e 4e3a 238a 7a3c da50 57bb 691f c4bb
00000060: 4165 e9bb a56e 1abc dcd5 8ebb 7db2 933b
00000070: cee4 6f3c 0ba1 debb 31b2 48bb f1ee 813a
00000080: e59b d6bc 36df d43b e74c 8f3b 4847 87bb
00000090: 5644 1b3c 3e17 8b3c b758 6dbb e7cc de3b
000000a0: aab2 4cbb 68a7 ffb9 0668 673b fc77 9e3b
000000b0: d44d 883c f1ec c13b 19bf d7bb 33ef 8d3b
000000c0: 367b 3d3c c4c8 6b3b a035 a03b 7ca9 5f3c
000000d0: a182 8dbc 91e7 cd3b f7fb eb3b 145b 1fba
000000e0: 9b36 633c ba06 05b9 68c3 9dbb 0f7b 353c
000000f0: d85c 0a3c cfeb a5bc 89ce 0f3b b8e8 2cbc
00000100: 8bd8 1a3c 2d7b a03b a438 ce3c 861c 943c
00000110: d270 433a a204 983c 0bcd 1bbb abae dc3c
00000120: 247a fdbb c968 9b3c dde7 403c 1522 ba3b
00000130: d8a9 363c 1dd7 133c 8da7 313c bfeb 0bbc
00000140: bfd2 213b 2444 233c 2501 f53b 0812 b23c
00000150: 6a4e 1abc cb20 e6bb 6981 21bc 7d18 76bb
00000160: 407c ef3a 2e22 08bc ad26 e33c 902b 973b
00000170: bacb 9c3c 6fb4 60bb f54b e93b 84c7 493c
00000180: c57a 5f3c 046d a23c e333 3639 d032 67bc
00000190: 70e5 673c 37bf 7f3c cb3a 99b9 1684 f03b
000001a0: 34c0 0eba 5aed 79bc 2bed 62bc 4cd9 413c
000001b0: 33f5 943c 0493 b03a 149f e9bb e685 3e3c
000001c0: a39d 903c 7d24 823c 1f50 94ba 78b4 75ba
000001d0: 7fa4 a23c d2f3 b1bb 040d 9e3b a3e8 603c
000001e0: ca0f 913a a430 d73c 0ba8 4fbb e344 25bb
000001f0: 981d cabc c265 64b9 370b c93c 68e8 38ba
00000200: 4e26 e13a 31f4 a8bb 567b 803a f81e f0bb
00000210: 6fda 7eba 0918 913b f5a6 5c3c 4da3 c6bb
00000220: 8773 523c 8686 163b 3d77 94bb 0abc 9f3b
00000230: 7c1b 273b 5353 2c3b 2d76 863a b105 303c
00000240: 4a30 9f3b 38e7 a73c 63cb e3bb d48f 723c
00000250: 24db 2d3c 0f6b d73b a788 4bbc 91bd 933b
00000260: 2cac 453c e0df ea3b 0fab 17bb 8884 083c
00000270: 4b46 ddb9 0052 0fbb 7df2 12bc f26a 593c
00000280: 7a8e bc39 3ec3 643c 9a41 033c a18e 933a
00000290: 2563 ed3b 215c d73b e67e 50bc a74a acbb
000002a0: 0eaa 90bc 79aa c1ba 4a04 67bc 104b 3a3a
000002b0: e2d1 483c 7918 603a 77f1 803b 9925 2dbc
000002c0: b432 5ebb 78bd 26bb d8d4 f03a aaac b539
000002d0: 7bec f13b 7d80 8bbc f418 39ba 260c 25bb
000002e0: 7327 843c 4fe8 4fbb 457a c5bc 04b1 20bc
000002f0: f84f 4f3b 9679 a9bc 9a26 4c3b ec97 8c3c
00000300: cc5b 15b8 cd0d 013c dc88 a53c 8a20 50bc
00000310: b20e 52bc b0e3 883c 6ded 8c3c 7a9f 92bb
00000320: b63d 6d3b 996a 203c 9c8c abbb 7977 f43b
00000330: 69eb 4a3a 5d71 1e3c c927 af3b 5b31 0bbc
00000340: 4577 373b 63c7 30bc 4613 033b 5ae2 30bb
00000350: 8d47 2a3c bc62 413c 9a3c af3b 416e 183c
00000360: 4a89 9bba 1386 36bc 7706 59bb 8103 f33a
00000370: 7b3c bc3c e073 2d3c cf85 42bb 63f0 5cba
00000380: b123 c4bb aedb 50bb 64f0 de3a d84e 9c3b
00000390: 7921 953b d462 0c3c 6bc8 a73c 6e52 383c
000003a0: 08cb aebb 274b 4a3c f22a 7339 529c f639
000003b0: 31cc 86bb 3aa6 223c f271 2f3b 3d6f 6a3c
000003c0: f3fb b2bb de7c 41bc c130 a63b 61cc 66bb
000003d0: b2cc 75bb 395b 53bb a3c7 343c 4325 ca3b
000003e0: e338 683c 6d12 5fb9 9205 9c3a 2927 7d3c
000003f0: 957c cdbb 745e 1dbb bdc2 943b 9efa 343b
0.009646408 -0.016623572 0.0012443168 0.00027133827 0.017425204 -0.010099391 0.0027862715 -0.002399037
-0.0026805722 0.017457077 0.008023431 0.010599357 0.024094071 0.011039514 -0.022688823 -0.011562043
0.0057979366 0.017957985 0.004820288 -0.010661326 0.0007867559 0.015291723 -0.0032854588 -0.0059851897
-0.007122666 -0.009425794 -0.00435899 0.0045073614 0.014641954 -0.0067941 -0.0030623788 0.0009913129
-0.026197383 0.0064963354 0.004373181 -0.0041283704 0.009476742 0.016978856 -0.0036216208 0.0067993286
-0.0031234422 -0.00048762118 0.0035309806 0.0048360806 0.016638674 0.005918138 -0.00658406 0.0043314933
0.01156502 0.003597782 0.004889205 0.013651248 -0.017274203 0.0062837084 0.0072016674 -0.00060789404
0.013867999 -0.00012686374 -0.004814554 0.011076703 0.008444987 -0.020254044 0.0021943173 -0.010553531
0.009451042 0.004897496 0.025173493 0.018080007 0.0007455471 0.018556897 -0.0023773338 0.026938757
-0.0077355076 0.018970864 0.0117740305 0.0056803324 0.011148892 0.009023455 0.01084317 -0.008540093
0.0024692265 0.009964976 0.007476943 0.021737114 -0.009418109 -0.007022952 -0.009857514 -0.0037551217
0.0018271282 -0.00830893 0.027728403 0.0046133474 0.019140113 -0.0034287234 0.0071196505 0.012315635
0.01364011 0.019827373 0.00017376202 -0.014111236 0.014153823 0.015609554 -0.00029226238 0.0073399646
-0.00054455106 -0.015254343 -0.013850491 0.011831593 0.018183326 0.0013471548 -0.0071295593 0.011628604
0.017653292 0.01588654 -0.0011315382 -0.00093729 0.019853828 -0.005430677 0.004823329 0.01372734
0.0011067328 0.02626831 -0.0031685855 -0.0025218062 -0.024672315 -0.00021781682 0.02454148 -0.0007053674
0.0017177553 -0.005156063 0.0009802382 -0.0073279105 -0.000972188 0.004427914 0.01346754 -0.0060619474
0.012844927 0.0022968366 -0.004530816 0.004874711 0.002549856 0.0026294782 0.0010258608 0.010743544
0.0048580514 0.020495996 -0.006951736 0.014804799 0.010611329 0.0065740417 -0.012422717 0.004508682
0.012064975 0.0071678013 -0.002314273 0.008332379 -0.00042204777 -0.0021868944 -0.0089689465 0.013270127
0.00035964308 0.013962565 0.008011246 0.0011257717 0.007244485 0.006572262 -0.012725567 -0.0052579227
-0.017659213 -0.0014775536 -0.014100144 0.0007106522 0.012257071 0.00085485686 0.003935035 -0.010568046
-0.0033904733 -0.0025442522 0.0018373979 0.00034651655 0.007382927 -0.017029041 -0.0007060908 -0.0025184243
0.016132092 -0.003172416 -0.024106154 -0.009807829 0.0031633358 -0.02068786 0.0031150938 0.017162286
-3.560986e-05 0.0078768255 0.020206861 -0.01270307 -0.012820886 0.016710132 0.017203057 -0.0044745775
0.0036200113 0.00979104 -0.005235268 0.0074605313 0.00077407673 0.009670583 0.005345319 -0.008495654
0.0027994674 -0.010789725 0.0020000502 -0.0026990385 0.010393036 0.011803325 0.0053478004 0.00930363
-0.0011866477 -0.011140364 -0.0033115426 0.0018540473 0.022978058 0.010586709 -0.0029681807 -0.00084281544
-0.0059857 -0.003186922 0.0017008898 0.004770141 0.0045511094 0.008568484 0.020481309 0.0112501215
-0.005334262 0.012347019 0.00023190284 0.00047037244 -0.004113697 0.009927327 0.0026770798 0.014308748
-0.0054621636 -0.011809556 0.00507173 -0.0035217034 -0.003750604 -0.0032250418 0.011033925 0.0061689927
0.014173719 -0.00021273801 0.0011903516 0.015451231 -0.006270955 -0.0024012597 0.004539816 0.00276152

network_body._body_endoder.seq_layers.2.weight f4 [256, 256]
00000000: 6a7b 4abd cc04 ab3c 3e9c 16be 7433 203d
00000010: 59bf 823d 5a10 86bc aeaa 643d beed 933d
00000020: 68f4 e439 38a7 ad3d 072d 38bd c0eb 2dbd
00000030: 8228 f73c 101a 9fbd 4bf0 c03c daec 433b
00000040: 7bea c43d 47a5 313e 15a1 4abd 30da 01bd
00000050: bbaf b03d ad6f c23d bfca 5c3d 016c 2dbb
00000060: c187 673c b8ae 743d 9d39 2f3b 9cf3 1ebd
00000070: d770 b3bb 2a01 d03d 92ee 263d 46b2 b6bd
00000080: 293d c3bd 3a89 f83b 23d7 3cbe 27de 9d3d
00000090: f418 03be ad1d ed3c 5d0e c93d 7032 88bd
000000a0: 1ff6 c0bd f620 cfbd a216 bcba 3ce0 2c3c
000000b0: 5d9c 0abd d370 23bd 0ee3 843c 8448 46bd
000000c0: 7500 c0bd f7f2 8f3c 5ab7 84bc 7c79 c13c
000000d0: bdf8 0b3d c51a e03c 0fa8 02bd 10e8 ebbb
000000e0: fe32 0e3e c690 b1bc fc88 023e 03b3 0abd
000000f0: aee1 d23c 301f 36bc 6e70 75ba 6c8b 863d
00000100: cafa 96bc c10a cf3c 9445 82bd bdb9 063c
00000110: 5dd0 7dbc 2807 ed3c a3da 04bd 68c8 30be
00000120: ce48 d83d bb6b d4bc 0c27 85bd 864c 63bc
00000130: 23e0 e2bd a7c6 91bb 2731 8cbd cef4 0bbb
00000140: 44a0 aa3d dd52 183b 003e dabd 9910 453d
00000150: e1a7 1f3e 3e0e 0abe 4e24 683d ba2d ca3c
00000160: 122b d4bc 2693 60bd 50e1 16bd 6aab 32bd
00000170: 7aea ea3c 09cd 0a3d e72e 4fbd a928 abbc
00000180: ae76 813d 5578 55bd e97d b9bd 6dc9 8539
00000190: c042 cdbc c680 debc 97b9 94bd 6b6c cfbc
000001a0: bef9 b7bc 69f6 7c3d bff3 4f3d e3ca 783c
000001b0: 8ec8 b53d 68dc 68bd aa1d a03c 14ac dabc
000001c0: 802a 623d 0881 40bc d538 dc3c bef9 78bc
000001d0: 3e87 183d a013 1b3e efe4 5f3a 81e0 dcbc
000001e0: 7727 06be 0981 833d ea0f 5abc 0ef8 d0bd
000001f0: bcd3 783d 3a9a 95bd d400 eb3c 410d 173e
00000200: 97a1 18bd 8608 f63c e712 8ebd fd08 873d
00000210: e7e5 a9bc 3163 2b3d 7ab3 b8bb 399c cdbd
00000220: 7e71 e93c 7acc 0a3d 33e8 df3c a602 93bd
00000230: 37f4 923c a326 cbbd 9080 003b f802 913d
00000240: 5ab5 7d3d b99e 6b3b 81df 303c 00f5 44bd
00000250: 5487 993c 01ba 893d 78d0 d5b9 5026 aa3c
00000260: e0e4 da3c 6154 5b3c b48b 073e a794 3c3d
00000270: fe1f 0ebe 7428 01be f6cd dfbb 9ae9 353d
00000280: bf19 f0bc 1feb 223d 2385 1e3d 4ab9 54bb
00000290: b6f3 0b3d 811d 52bd 931e ef3b b259 2dbd
000002a0: b197 2a3a 7ecc 9bbd 2abe d0bd 6de7 c93d
000002b0: f094 0b3e b184 413d f75e 8d3c 0202 a7bd
000002c0: e012 643c c822 af3d 7625 aa3d c624 91bd
000002d0: fa6c 40bd 1d77 073e 1d0a 033d 5631 933b
000002e0: 9b1b 553d 00c3 913d 6931 a43c 9bc7 bc3c
000002f0: d9b0 643d 7350 1d3c 8b88 abbd cf56 48bc
00000300: 9a8b 91ba 717a 5a3d b403 483d dfad a73d
00000310: 1275 0dbd 9def f5bc 6326 ad3d 060b 463d
00000320: 7742 8a3c 910b 573d 724d 313c 9ba7 ce3c
00000330: d048 db3c 6795 ac3d d632 f03d 9c2f 53bc
00000340: 9bcd 83bc fb66 203d bfab abbd 7227 8d3d
00000350: d8eb d7bc efc6 c63c 60ae 83bd f6fa 193c
00000360: 7cb8 45bd b8ca e3bb c959 e6bd 1259 cabb
00000370: d9eb e53c 005e 93bd 3b3d b7bb 40ff d9bd
00000380: 3b64 533c fcd8 483d 8cca 96bd e51e 75bd
00000390: c781 bfbd cfec f8bc e4a5 2bbe 77d8 7dbd
000003a0: 7b22 333c 5d8d 4c3c 895d bcbc c59c 72bd
000003b0: 4261 a2bd 65d1 30bd 352d 01bc abfa ee3d
000003c0: f912 25bc 1282 8b3b 14ee d9bc d3a4 013e
000003d0: f577 0e3e a729 95bd c70f dbbb b297 bc3d
000003e0: bee1 893d a8bc ae3a b0d4 923d 6eb7 8f3d
000003f0: 80b0 b13d 2077 ce3c c018 5c3d 3e26 6bbd
-0.049434103 0.02087631 -0.14708039 0.03911157 0.06384153 -0.016365219 0.055826835 0.0722308
0.00043669646 0.0847916 -0.044964816 -0.042461157 0.030170683 -0.07768643 0.02355208 0.0029895813
0.09615036 0.17348205 -0.049470026 -0.03170222 0.08627268 0.09493957 0.05390429 -0.002646208
0.014131487 0.059736937 0.002673722 -0.038806543 -0.005476098 0.10156472 0.040754862 -0.08920722
-0.0953315 0.007584718 -0.18441443 0.07708388 -0.12802488 0.028944815 0.09817193 -0.06650245
-0.09421944 -0.10113709 -0.0014350007 0.0105515085 -0.033840526 -0.03990252 0.01622155 -0.048409
-0.09375087 0.01757191 -0.01620071 0.023617499 0.034172762 0.027356515 -0.031898554 -0.007199295
0.1388664 -0.021675479 0.12747568 -0.033862125 0.025742378 -0.011115834 -0.00093627616 0.06569561
-0.018430132 0.025273683 -0.06360927 0.008222994 -0.015491572 0.028934076 -0.03243507 -0.17263949
0.105607614 -0.025930276 -0.06501588 -0.013873225 -0.11077907 -0.00444873 -0.068453126 -0.0021355632
0.083313495 0.002324275 -0.10656357 0.048111532 0.15591384 -0.13481995 0.056675248 0.024680007
-0.025899444 -0.05482783 -0.03683597 -0.043620504 0.02867626 0.033886943 -0.05058184 -0.020893412
0.063214645 -0.05211671 -0.090572186 0.0002551781 -0.025056243 -0.027161013 -0.07261961 -0.025320252
-0.022457954 0.061758433 0.050769564 0.015185091 0.088761434 -0.05685082 0.019545395 -0.026693381
0.055216312 -0.011749513 0.026882568 -0.015196262 0.037238352 0.15144205 0.00085408887 -0.02696252
-0.13100992 0.06421096 -0.013309458 -0.10203563 0.0607488 -0.07304807 0.028686918 0.1475115
-0.03726348 0.030033361 -0.06937199 0.06593511 -0.020739509 0.041842643 -0.0056366296 -0.10039563
0.0284965 0.03388641 0.0273324 -0.071782395 0.017938716 -0.09919479 0.001960788 0.07080644
0.06194053 0.003595276 0.010795475 -0.048085213 0.018741287 0.067249306 -0.00040781847 0.020770222
0.026720464 0.013386817 0.13236886 0.046040203 -0.13879392 -0.12613088 -0.0068299724 0.044412233
-0.029309152 0.03977501 0.038701188 -0.0032459074 0.034167968 -0.05129767 0.007297346 -0.04232187
0.0006507589 -0.07607363 -0.10192521 0.09858594 0.13631034 0.047245685 0.017257197 -0.0815468
0.013920516 0.08551556 0.08307926 -0.07087092 -0.04697893 0.13229032 0.031992067 0.0044919653
0.05202828 0.071172714 0.020043092 0.023044398 0.055832718 0.0096017 -0.08375653 -0.012227728
-0.0011104227 0.053339425 0.048831657 0.0818746 -0.034535475 -0.030021483 0.08454587 0.048350357
0.016877396 0.052501265 0.010821687 0.025226405 0.026768118 0.08426934 0.11728446 -0.012889769
-0.016089251 0.03916071 -0.08382367 0.06892289 -0.026357576 0.02426478 -0.06429744 0.009398213
-0.04827164 -0.006951656 -0.11247594 -0.006175169 0.028066562 -0.071956635 -0.005592016 -0.10644388
0.012902315 0.049035057 -0.073628515 -0.059843916 -0.09350925 -0.030386357 -0.16762501 -0.061974015
0.010933514 0.0124848755 -0.02299382 -0.05923154 -0.07928707 -0.043168444 -0.007884313 0.11668905
-0.010075324 0.004257449 -0.026602782 0.12660532 0.13912947 -0.07283335 -0.0066852304 0.09208621
0.0673251 0.001333137 0.07169473 0.07017408 0.08676243 0.025203288 0.05373454 -0.057409517

network_body._body_endoder.seq_layers.2.bias f4 [256]
00000000: cf4a cabb 8904 103c 5966 3aba 2a4a 133c
00000010: aa20 d1bb d92f 5ebc 0f91 58b9 7ff3 713c
00000020: 62e5 a4bb 1f82 933c 588b fe3b 8bb6 463c
00000030: 19d8 4e3a 433f 3ebc b58c 513c e775 1d3c
00000040: a29f 0e3c 3a58 67bc c142 4a3c 7e2e 98bc
00000050: a1ad 7cbb 625f 643a 2ffc ad3b eb7c 693a
00000060: 73df e93b 244e 893b 1bfa 133c 5684 963c
00000070: b36d 123c 06c5 2d3b a118 99ba 9b85 83bc
00000080: 7341 84bc 7aa8 60b9 0782 0e3c 4296 133c
00000090: 865c 783c ae43 023c 9db6 283c 5b30 63bc
000000a0: 8f76 90bb 885d 6e3b ad1e acba 7941 48bb
000000b0: 855c 65bb cc7e 843c bfc6 753b 66db 733a
000000c0: dee1 c53b fb48 5c3c 280b 103c f626 a9bb
000000d0: 42eb df3b 7746 423c 764d 663b 1d9b 853c
000000e0: 0b4d 14bc ef40 27bc 307d 243c 0837 953b
000000f0: bd20 5ebc ec03 2ebb b9e6 633c cedf a4bc
00000100: 8f12 9d3b 2efd 9b3c 5073 b03b 63f3 4b3c
00000110: 1b29 0bbc f460 423c b536 c5b9 8e94 973a
00000120: 0f9c c33b b56d 5e3c 29f0 22bc fc3d 4d3c
00000130: 335b e5bb 3060 deb9 3c34 8a3c a62a fc3b
00000140: a314 9f3c b1cd 29bc babc 993c 451a 613c
00000150: 6c1c 783c 0267 8bbb 42e5 2838 ba80 3d3c
00000160: 5f1c 81bc 7474 1cbc 2758 823c 6e10 5db9
00000170: 195b 07bc 0ec5 7dbb 7a1a 013c 338b 06bc
00000180: c3cb 0a3c 235a 753c c34b eb3a 1d93 0d3c
00000190: f1ca e7ba f953 573c b451 fb3b 195a ae3a
000001a0: 7c91 e13b eaad 7fbb 435c f33b b03a 953b
000001b0: 3aa8 783c ae32 3b3b 9993 a23a 403f a3ba
000001c0: 3a82 2b3c 32a1 a339 cebb c5b9 d3f8 36bc
000001d0: 3633 09bc fe2f 803a 042b 643c c451 11bb
000001e0: 9bc5 b4bb df40 3dbb afb4 893b 1c3c 17bb
000001f0: 8017 c33b 97ef 8ebc 705e 663c 142f 1b3c
00000200: a3eb 4c3c 7a24 663c 6476 283c 7e4d 153c
00000210: b5e7 fd3b 3eb1 06bc b825 0ab9 4919 803c
00000220: bcd6 35bb ffb6 243c b1a9 54ba ea18 183c
00000230: 208f 05bb 26b6 dc3b a7f3 1fbc add0 aa3c
00000240: 280c 783c 6456 d6bb e251 f9b9 c940 ff3b
00000250: 3d4f c2bb fb6a 0d3c b341 473c bbee 9fba
00000260: 55c4 9ebc dac5 103c f833 38ba 1542 183c
00000270: 2350 de3b f39b 8a3c 8d3d 7abc 2b68 27bc
00000280: 83d2 f63b 9ac1 ad3b 9193 253c b211 4bbc
00000290: 886f d73b 3878 793c eea8 08bb f944 3ebc
000002a0: bb6a babb 8823 8b3c e1d5 933c 03ce 943b
000002b0: ca80 8e3c 9798 88bb 25f3 47bb a7a9 653c
000002c0: c289 47ba 6f49 56bc 6894 e0bb 9964 c33b
000002d0: f4e4 053c 88b0 96bc 2b9f 89bb abb8 813c
000002e0: 6689 b7bc 1ba9 733c 42f9 01bc dc2e af3a
000002f0: a113 e73b 5e76 a7ba ae90 8abc 7417 3b3c
00000300: 867d e93b ebf0 5e3c 81cc 6ebc 0a70 26bc
00000310: e800 363c 6cd2 a5bc 9a9c 893b cb75 3d3c
00000320: eb76 103c a053 6cbb a89e c4bb 7994 e1bb
00000330: da34 d1bb 2161 f43b cff7 45b8 847f b03b
00000340: 89ff a73b 0827 4abc 98ab 043c a6d5 533b
00000350: d141 a5bb 5741 533c 5c4a 163c 6766 343c
00000360: 0ae0 cf3a d132 e33b 3331 3b3c f4c8 abba
00000370: 016f fdbb 91fd ed39 f686 14bb 70ba 703a
00000380: 563e 9dba 41f6 e6bb 0371 da3a 042f 9bbc
00000390: 97ae 96ba 210c 3f3c d982 a73b 4765 553c
000003a0: 77fd e8bb 2f52 93bb f26a 73bc 0b76 073c
000003b0: c2fe 5ebc a845 e2ba 4087 c13b 0718 963c
000003c0: beb6 81bc efd8 c43b dd58 0a3c def6 bc3b
000003d0: b797 aabb b885 3f3b dc2d 8b3b 6517 c43b
000003e0: d273 123c b484 873c 342c 833b 77e8 95bb
000003f0: 0f90 583c 6767 77bc 3641 ecbb b5b8 333c
-0.0061734687 0.008790144 -0.0007110588 0.00898985 -0.0063820677 -0.013561212 -0.00020653404 0.014767527
-0.0050322274 0.018006383 0.007768076 0.012128483 0.00078904774 -0.011611762 0.012789895 0.00961063
0.008705052 -0.014120156 0.012345017 -0.018576857 -0.003855564 0.0008711723 0.0053096036 0.0008906859
0.007137233 0.0041902233 0.009031798 0.01837365 0.008937287 0.002651514 -0.0011680314 -0.016054919
-0.01614449 -0.00021425067 0.008697993 0.009007992 0.015158778 0.007950706 0.010297445 -0.013866509
-0.0044086645 0.0036371667 -0.0013131701 -0.0030556603 -0.0034997773 0.016173743 0.0037502495 0.0009302407
0.0060388884 0.013445134 0.008791722 -0.005162115 0.006833465 0.01185762 0.0035141385 0.016309315
-0.009051572 -0.0102083525 0.010039613 0.0045536794 -0.01355761 -0.002655263 0.013909989 -0.02012625
0.004793472 0.019041624 0.00538484 0.012448165 -0.008493687 0.011863936 -0.00037615528 0.0011564658
0.0059695314 0.013575961 -0.009944954 0.012526985 -0.006999397 -0.00042414805 0.01687061 0.007695514
0.01941902 -0.010363982 0.01876675 0.013739173 0.015143495 -0.004254223 4.0267834e-05 0.011566335
-0.015760599 -0.009549249 0.015911175 -0.00021082323 -0.0082614655 -0.003872219 0.007879848 -0.008211899
0.008471432 0.014975104 0.0017951656 0.008641032 -0.0017684383 0.013142579 0.007669652 0.0013301998
0.006883798 -0.0039013573 0.00742677 0.0045541152 0.015176827 0.0028564143 0.0012403607 -0.0012454763
0.01046806 0.00031209883 -0.00037714693 -0.011167723 -0.008374026 0.0009779928 0.013926271 -0.002217398
-0.0055167205 -0.0028877778 0.0042024474 -0.00230766 0.005953729 -0.01744823 0.014060602 0.0094716735
0.012507352 0.014046783 0.010282133 0.009112714 0.007748569 -0.008220969 -0.00013174757 0.015637057
-0.00277464 0.010053395 -0.0008112444 0.009283284 -0.0020379499 0.006735581 -0.009762681 0.020851457
0.015139617 -0.0065410603 -0.00047553988 0.0077897054 -0.005929856 0.008631463 0.01216166 -0.0012201885
-0.019380728 0.008836234 -0.0007026787 0.009293099 0.0067844554 0.016920066 -0.015273464 -0.010217707
0.007532419 0.00530262 0.010105983 -0.012394356 0.006574575 0.015226416 -0.0020852643 -0.011613124
-0.005688993 0.016984716 0.018046321 0.00454116 0.017395396 -0.0041685808 -0.0030509916 0.014017499
-0.0007611775 -0.013079031 -0.006853629 0.00596292 0.008172262 -0.018394724 -0.0041998825 0.015835127
-0.022404384 0.014871861 -0.007932963 0.0013365406 0.0070519005 -0.0012776365 -0.016914692 0.011419166
0.0071255593 0.013607244 -0.014575125 -0.010158548 0.0111086145 -0.020241939 0.0041995766 0.011563729
0.008817415 -0.0036060587 -0.0060003586 -0.0068841544 -0.006384474 0.0074578677 -4.719925e-05 0.005386295
0.0051268977 -0.012338407 0.008097552 0.003232339 -0.0050432463 0.012893996 0.009173002 0.011010743
0.0015859616 0.006933548 0.011425304 -0.0013106153 -0.00773418 0.00045393084 -0.002266345 0.0009183055
-0.0011996727 -0.0070483987 0.001666576 -0.018943317 -0.0011496124 0.011660607 0.005112034 0.013024635
-0.0071102935 -0.004495881 -0.014857041 0.00826789 -0.013610544 -0.0017263191 0.0059060156 0.018322004
-0.015834209 0.006007306 0.008444038 0.0057667335 -0.005206074 0.002922399 0.00424741 0.005984234
0.0089387465 0.01654277 0.004003072 -0.004574831 0.01321794 -0.015100337 -0.007209922 0.010969331

action_model._continuous_distribution.log_sigma f4 [1, 5]
00000000: 1b99 133d 5c8f 713c 9304 d33c 1662 bcbc
00000010: 3c72 9d3c
0.036034685 0.014743652 0.025759017 -0.02299599 0.01921951

action_model._continuous_distribution.mu.weight f4 [5, 256]
00000000: 7d77 c23b 7299 e6bb 42fe dbbc 8043 203d
00000010: 8cb1 3ab9 727f 1c3b cf0d 77bc 0229 95ba
00000020: 5245 b1bc 2db2 473b 5298 a83c 43a7 2e3c
00000030: 4ef1 05bd ff52 acbb 7f68 51bc 3852 34ba
00000040: 6cc0 ecbb 7acb af39 a441 3a3d e111 663c
00000050: d506 2a3c 99c3 0d3c 5675 5abc 63d7 cebc
00000060: f977 2d3c e600 3bbc 31a2 2bbc 1316 b43c
00000070: f7e7 8a3c 3bb4 8abc 0a25 13bc 10cd e1bb
00000080: f14a 503c c8e3 96bc 5a67 aab9 ed1c 8f3c
00000090: bf34 bb3b c800 32bc dde2 f93b caa9 acba
000000a0: b7e0 ddbb dae1 b0bb 50be 9fbb 4fa8 dbbb
000000b0: 3a12 db3a 3513 e03b f754 58bc 61df 7bbc
000000c0: b4f1 dabb dca5 053b c8b5 813c f0da 8d3c
000000d0: 0017 2fba 660c f53c 99d5 0abd 7fe4 083c
000000e0: 1abe 093a adf1 3c3c 7f9e 603c 27e2 833c
000000f0: f2b2 dc3a 88bf 633c 9d3f 023c 7f30 8ebb
00000100: 40e0 083a 6bd7 ae3b 1aee f63c 4405 2fbd
00000110: 0c4a 53bc a124 0a3d 75f1 b43c 9595 433c
00000120: ad38 733c f0e2 0abc c24d 4abc dc24 acbc
00000130: 0f80 2a3c 9805 3a3c 83e2 223d 1fcb 343c
00000140: 2378 843b 835f 63bc e151 f13c 8a4d b6bb
00000150: 8f6d faba d1a8 53bc f588 ce3c 38ab aabc
00000160: c1eb 02bc 3acb ccbc ba03 c73b c63c 88ba
00000170: e121 313c f7ff 653c b1ee ef3c c9df fcbc
00000180: 6c12 acbb f0aa ddbc 5e33 bcbb eb66 e838
00000190: 4eed fe3a 0986 12bc 6c93 b93c 81ec 13bd
000001a0: 6016 86bb ee68 5d3b 2b45 933c ce5e f1bb
000001b0: 6c75 91bb e949 e43c b4e0 e73c 0c35 043c
000001c0: b21c be3c 4197 fa3c 1c04 91bc d6ed 00bd
000001d0: c200 583b e845 f13c a62d e33c 7432 de3b
000001e0: 078a 52bb 613c 433b f46c 933c cddf 8dbc
000001f0: 402c cc3c 6580 a7bc 3223 a23c 9864 a0bc
00000200: cdc6 413b 23eb 043c 7ca0 6dbc 6499 793c
00000210: c266 913c 3668 033b 344e 0fbc d3a7 cdbc
00000220: a1d5 253c c3b9 4e3c 6f77 d33b 8129 bd3c
00000230: 90a9 ae3c 5d4a dabb 1383 b33c 87d1 cbbc
00000240: 0a5f 52bc b440 ae3b 0a91 b63c b3c0 cf3b
00000250: 3a63 5c3c 260d d7bb efa5 edbc 31f1 133b
00000260: 4a81 9bbc b2ac abbb 491f 483c c0e6 993c
00000270: a1b5 dabb 9428 113a 09dc 0f3c f882 773b
00000280: 9aec b73c 7b53 8fba 0b76 7d3c 7b9b 8fbb
00000290: db1a de3c 29b9 5c3c d9f0 9c3b 9f15 513b
000002a0: 2239 06bd fdda 0cbc 563a d0bb 8028 a6bc
000002b0: 355f 9c3c acc4 a9bb 9b99 06bd 14fb 283a
000002c0: 4f22 92bc 794a 91bc e1b6 2bbb 629f e03c
000002d0: 9504 31bc 97f7 d53b 2f7d d23b b73c fdbb
000002e0: ab8c 11bc 6bdf 353c a3be 983c e423 10bc
000002f0: 17eb 883c b757 613c 800e 8bbb 51df 493c
00000300: 483b 1dbb aece 6f3b fcb8 9b3c 4606 62bc
00000310: 8b4d 07bc d4e2 e3bb 5bf0 f1bb e112 f7bb
00000320: 124f 5b3a 5530 813c 3fa6 4d3b aff4 033c
00000330: 6340 f0ba 7851 6bbc 3a68 873c 7a90 2f3c
00000340: 34e4 ae3a 5fd9 333c 24ef 083d 0dba a3bc
00000350: 951d 88ba e2bb 5dbc 365b ba3c b946 95bc
00000360: 3322 fabc 559b 30bd 1d88 4abc 0ec1 313b
00000370: 952a d8ba 7038 193d 2104 0ebd bf57 763c
00000380: 226c 943c 3d2b b03a b7e8 e73b 6051 2cbc
00000390: a234 c23c d553 163b 31b6 dc3c e801 c73b
000003a0: e09f 823b f92e 90bc cf60 1a3c 770f b63b
000003b0: 8acb abbb e4af 443c d2a0 b33b df1a b1bc
000003c0: 6404 bebb 875e 42bc a356 5cbb edc6 7f3a
000003d0: 3edf 1d3b f663 9bbc e9ce aa3b 912c c1bc
000003e0: 3fb5 b33c f16d 5a3c 463d 07bd 04e7 ea3b
000003f0: e476 953b be0a 53bb 5426 abbb d4f7 dbbc
0.0059346543 -0.007037335 -0.026854638 0.039126873 -0.00017804484 0.0023879674 -0.015078976 -0.0011380019
-0.0216395 0.0030471191 0.020580444 0.0106599955 -0.03270083 -0.0052589173 -0.0127812615 -0.00068787066
-0.007225087 0.00033530203 0.045472756 0.014042349 0.010377605 0.008652591 -0.013333639 -0.025249189
0.010587686 -0.011413788 -0.010475681 0.021983182 0.016956313 -0.016931644 -0.008980999 -0.0068909004
0.01271318 -0.018419161 -0.0003250193 0.017469848 0.005713075 -0.010864444 0.007625921 -0.001317316
-0.006771173 -0.0053980174 -0.004874982 -0.0067034136 0.0016713806 0.006838227 -0.013203851 -0.015373082
-0.0066816453 0.002039305 0.01583375 0.017316312 -0.00066791475 0.029913139 -0.03389511 0.008355259
0.00052544626 0.011532229 0.013709663 0.016099049 0.0016837998 0.013900645 0.007949737 -0.0043392773
0.0005221404 0.0053357384 0.030142833 -0.04272963 -0.012896072 0.03372634 0.022087792 0.011937519
0.0148450555 -0.008476958 -0.0123476405 -0.02101367 0.010406508 0.011353873 0.0397668 0.011034756
0.0040426417 -0.013877752 0.029457988 -0.0055634426 -0.0019106137 -0.012918667 0.02521179 -0.020833597
-0.007990778 -0.02499925 0.0060734423 -0.0010394088 0.0108113 0.014038078 0.029288622 -0.030868428
-0.0052512195 -0.027059048 -0.005743428 0.00011081792 0.0019449384 -0.008943089 0.022653304 -0.03611422
-0.004092023 0.0033784467 0.017977318 -0.007366038 -0.0044390466 0.027867274 0.028305389 0.008069288
0.023207042 0.030589702 -0.017702155 -0.031476818 0.0032959436 0.02945228 0.027731728 0.006780917
-0.0032125728 0.0029790627 0.017996289 -0.01731863 0.024923444 -0.020446965 0.019792173 -0.019579217
0.0029567957 0.008112702 -0.0145035945 0.015234325 0.017749194 0.0020051128 -0.008746672 -0.025104439
0.010121734 0.012617531 0.0064534466 0.02309108 0.021321088 -0.006661697 0.021913087 -0.024880184
-0.012840042 0.005317772 0.022285957 0.00634011 0.013451392 -0.0065628467 -0.029009787 0.0022574181
-0.018982548 -0.0052390927 0.01221449 0.018786788 -0.006674484 0.00055373576 0.008780488 0.0037767272
0.022451688 -0.0010934913 0.015470038 -0.0043825484 0.027112415 0.01347188 0.0047894535 0.0031903756
-0.03276933 -0.008597133 -0.0063546104 -0.020282984 0.019088367 -0.005180916 -0.032861333 0.0006446105
-0.017838625 -0.017735707 -0.0026201534 0.02741975 -0.010804315 0.006529759 0.0064236145 -0.007728185
-0.0088836355 0.01110063 0.01864559 -0.0087976195 0.016713662 0.013753823 -0.004243672 0.012321309
-0.0023991633 0.0036591697 0.019009106 -0.013795441 -0.008258234 -0.0069545303 -0.007383389 -0.0075400923
0.00083659694 0.015770117 0.0031379608 0.008053943 -0.0018329736 -0.014362685 0.016529191 0.010715598
0.0013343156 0.010977118 0.033431187 -0.019986177 -0.0010384793 -0.013533564 0.02274857 -0.0182222
-0.030533886 -0.043116886 -0.0123615535 0.0027123126 -0.0016492183 0.03740734 -0.034671906 0.015035569
0.018117968 0.001344062 0.0070773023 -0.010517448 0.023706738 0.0022938151 0.026942344 0.0060732253
0.0039863437 -0.017600523 0.009422495 0.005556043 -0.0052427696 0.012004826 0.0054818178 -0.021619258
-0.0057988632 -0.011863357 -0.0033620975 0.000975712 0.0024089362 -0.018968564 0.005212654 -0.023580821
0.02193701 0.013331876 -0.03301742 0.0071686525 0.004561292 -0.0032202448 -0.005223075 -0.026851572

action_model._continuous_distribution.mu.bias f4 [5]
00000000: 216a 873b 211b 1dbb 39cf 233c aec4 c23c
00000010: 8e40 913b
0.0041325246 -0.002397247 0.009998136 0.023775425 0.0044327443
