configfiles/results/hb_04/Hummingbird/Hummingbird-851072.onnx (onnx, 401856 bytes, 7 tensors)

network_body._body_endoder.seq_layers.0.weight f4 [256, 125]
0.08104001 0.17608145 -0.029419368 -0.19120772 0.07870291 -0.08032671 -0.031275794 -0.10876142
-0.02626086 -0.1599538 0.048694685 -0.05681972 0.082498886 0.1070285 0.06382646 0.17012842
-0.10169724 0.013509559 -0.0661402 0.10399871 -0.0045034727 0.20931412 0.15501516 -0.0007057617
-0.022048099 0.009638096 -0.015053806 -0.06416769 0.058865793 -0.18533799 0.10082309 -0.17523433
0.012040249 0.19539596 -0.033783954 -0.06698693 -0.11476278 0.020471716 0.016112484 -0.0047998554
0.0034756777 -0.13521905 0.004775174 -0.035185646 -0.11949574 0.004433397 0.021671614 -0.010916257
-0.12131915 0.0019160543 -0.025321253 0.070819266 0.1609487 0.06301788 -0.071109116 -0.107239015
-0.0065724445 -0.20931621 -0.04256493 -0.07760375 -0.043688107 -0.074304335 0.1809831 0.1324669
-0.020088298 0.008249845 0.009446626 -0.0858897 0.09209584 -0.08044289 0.30010733 0.011395081
0.09720398 0.14345697 -0.07864627 0.11802388 0.007278962 0.02734822 0.08298853 -0.046455298
-0.091372445 0.0037408615 -0.062058922 0.060523745 -0.08584792 -0.0900427 0.056794386 -0.18049295
0.14470918 0.054613557 -0.121689975 0.15450354 -0.24300694 0.027030362 -0.1466192 -0.08860297
0.11393438 0.10647054 -0.07138937 0.0794311 0.08914261 -0.10595388 0.013017756 0.016114347
0.015997361 0.017435491 0.03997516 -0.08476011 0.14594714 0.037043188 -0.08801246 0.19337739
0.16770512 -0.04063152 0.26518118 0.076082006 -0.0126050385 0.14733161 -0.039550435 0.010615558
-0.09886999 0.08159741 -0.00028982552 -0.03015117 0.04780653 -0.078665055 0.09627715 -0.10888155
-0.054434467 -0.028143877 -0.0038978807 0.024850013 -0.07662828 -0.13592368 -0.050532907 0.11781671
0.11353888 -0.23007867 0.10699891 -0.035230115 0.06674655 -0.13598226 0.024421558 0.00054974575
-0.1317915 -0.017393263 0.02170138 0.024503129 -0.05928473 0.06718665 -0.010548541 0.113912806
-0.058212724 0.05514255 0.10371725 -0.074809596 0.071018465 0.05072483 -0.037796896 -0.15470979
-0.023108881 0.12728983 0.0075513506 0.019864677 -0.12143587 0.14856751 -0.027294898 0.026663223
0.1590133 -0.0715662 0.0914227 0.070507705 0.08940109 -0.03885454 0.013161991 0.0154621955
0.23616911 0.028017268 -0.010646645 0.03523777 -0.10907944 0.09841833 0.15136136 -0.049869593
0.030462764 -0.07986688 -0.058055803 0.0038806803 0.0032271857 0.02440036 -0.114265546 -0.041998025
0.04681057 0.08054777 -0.09675785 -0.06707955 -0.13824917 -0.094389305 0.1667131 -0.016626129
-0.005272856 0.049096085 0.087862104 -0.002331447 0.014425926 -0.01091993 0.22519733 0.052331623
0.08073703 0.0040768236 -0.1613155 -0.01666403 0.021311352 -0.040401638 0.06613365 0.051594596
0.07754801 -0.124658324 -0.0049225814 -0.062040076 -0.030745955 -0.005158753 0.06723636 -0.06028253
0.14796343 0.056326147 -0.044719845 -0.009676455 0.1633136 -0.045523774 -0.0074205766 -0.105095804
0.024396466 0.04773305 0.11256927 -0.10999379 0.060862087 0.052844733 0.090506755 -0.1428929
-0.06475523 0.04434786 -0.06918339 -0.03623464 0.031931076 0.18911996 0.08698242 -0.07416729
0.016684828 -0.034189217 0.10426958 0.013654074 -0.13496886 -0.07181532 0.027916899 -0.09441222
00000000: 4ef8 a53d b24e 343e e300 f1bc f5cb 43be
00000010: fe2e a13d 5582 a4bd 0c1b 00bd 4fbe debd
00000020: 0421 d7bc eeca 23be 1474 473d cbbb 68bd
00000030: 2df5 a83d c231 db3d 72b7 823d 2536 2e3e
00000040: a446 d0bd 3357 5d3c 8374 87bd 47fd d43d
00000050: de91 93bb 7156 563e 4bbc 1e3e de02 39ba
00000060: 379e b4bc 1be9 1d3c 3da4 76bc 5a6a 83bd
00000070: 421d 713d 3ec9 3dbe 567c ce3d a170 33be
00000080: 7744 453c e115 483e 0b61 0abd 7230 89bd
00000090: c008 ebbd 4db4 a73c 54fe 833c 1b48 9dbb
000000a0: 32c8 633b dd76 0abe 1079 9c3b d31e 10bd
000000b0: 2fba f4bd 0846 913b ab88 b13c 1ada 32bc
000000c0: 2d76 f8bd 1d24 fb3a 846e cfbc b109 913d
000000d0: bccf 243e 850f 813d a8a1 91bd 21a0 dbbd
000000e0: a95d d7bb fd56 56be 9058 2ebd b7ee 9ebd
000000f0: 4df2 32bd df2c 98bd a253 393e 67a5 073e
00000100: 3790 a4bc 5c2a 073c 05c6 1a3c f0e6 afbd
00000110: be9c bc3d 3ebf a4bd aba7 993e 6fb2 3a3c
00000120: e112 c73d 62e6 123e 4c11 a1bd 81b6 f13d
00000130: 5c84 ee3b 6009 e03c e4f5 a93d e947 3ebd
00000140: 7a21 bbbd 3e29 753b 7f31 7ebd bfe7 773d
00000150: 09d1 afbd 4f68 b8bd 3ba1 683d 25d3 38be
00000160: a52e 143e 77b2 5f3d 9838 f9bd 2d36 1e3e
00000170: d0d6 78be c76e dd3c 5823 16be 7975 b5bd
00000180: 6e56 e93d 3a0d da3d 9734 92bd c6ac a23d
00000190: 6790 b63d 59fe d8bd 6d48 553c 3c02 843c
000001a0: e60c 833c e0d4 8e3c febc 233d b596 adbd
000001b0: 2b73 153e 99ba 173d e03f b4bd b904 463e
000001c0: e4ba 2b3e 3d6d 26bd d4c5 873e e2d0 9b3d
000001d0: 5d85 4ebc 19de 163e a3ff 21bd e1ec 2d3c
000001e0: 597c cabd 8b1c a73d b9f3 97b9 96ff f6bc
000001f0: c8d0 433d 251b a1bd f42c c53d 4afd debd
00000200: adf6 5ebd fd8d e6bc 9673 7fbb 4192 cb3c
00000210: 4aef 9cbd 942f 0bbe 98fb 4ebd e349 f13d
00000220: 1387 e83d be99 6bbe 3f22 db3d 744d 10bd
00000230: 6ab2 883d ef3e 0bbe b80f c83c d01c 103a
00000240: 5af4 06be 517c 8ebc 18c7 b13c c9ba c83c
00000250: 8cd4 72bd 2899 893d cad3 2cbc 1e4b e93d
00000260: 7770 6ebd 28dd 613d b669 d43d c635 99bd
00000270: 2172 913d d7c4 4f3d ebd0 1abd 3e6c 1ebe
00000280: d64e bdbc 4458 023e 5271 f73b 3fbb a23c
00000290: 5fb3 f8bd 1522 183e 8d99 dfbc d56c da3c
000002a0: 62d4 223e 4d91 92bd d33b bb3d 5866 903d
000002b0: eb17 b73d f025 1fbd 64a5 573c 2655 7d3c
000002c0: 51d6 713e 7884 e53c 446f 2ebc 7b55 103d
000002d0: 0b65 dfbd 8d8f c93d 79fe 1a3e 0f44 4cbd
000002e0: 0c8d f93c 3f91 a3bd eccb 6dbd 0353 7e3b
000002f0: 317f 533b 44e3 c73c 0e04 eabd 1f06 2cbd
00000300: 71bc 3f3d 3bf6 a43d fb28 c6bd 0161 89bd
00000310: 3191 0dbe 2e4f c1bd d7b6 2a3e 8533 88bc
00000320: ecc7 acbb fa18 493d 0cf1 b33d 31cb 18bb
00000330: b85a 6c3c 82e9 32bc 219a 663e af59 563d
00000340: 7559 a53d e096 853b e42f 25be 0183 88bc
00000350: 2595 ae3c 307c 25bd 1471 873d db54 533d
00000360: 7ed1 9e3d dd4c ffbd 9b4d a1bb bc1d 7ebd
00000370: f1de fbbc c20a a9bb 37b3 893d d0ea 76bd
00000380: ba83 173e 3fb6 663d 282c 37bd fe89 1ebc
00000390: ae3b 273e 2377 3abd 4f28 f3bb 783c d7bd
000003a0: 19db c73c bb83 433d b88a e63d 6d44 e1bd
000003b0: 864a 793d b873 583d 9b5b b93d 8452 12be
000003c0: 649e 84bd 1aa6 353d 05b0 8dbd c66a 14bd
000003d0: 29ca 023d aaa8 413e d723 b23d 05e5 97bd
000003e0: 9fae 883c fe09 0cbd 4a8b d53d 56b5 5f3c
000003f0: 4735 0abe e913 93bd fbb1 e43c 325b c1bd

network_body._body_endoder.seq_layers.0.bias f4 [256]
0.02041872 0.0018539766 0.0035553363 0.0024604374 -0.013117292 0.0016398692 0.012854379 -0.0037120008
0.0054269144 0.008203344 -0.0016737512 0.007838911 0.008155907 0.002304618 -0.006591588 0.005206351
0.0034631991 0.004554019 -0.008646861 0.004017726 0.014021633 0.0025533373 -0.0045200894 -0.010937214
0.0041930615 0.011822822 0.0018422069 0.002215831 -0.017412642 -0.0014576702 0.0060016075 -0.0017417377
0.014680214 0.017509844 0.013424811 -0.011510801 0.015452167 0.0082329465 0.0038005728 -0.009123144
0.0012832977 0.016055806 0.017375655 0.0112372385 0.00786335 -0.004124721 0.023370711 -0.003629737
-0.004981103 0.0053596394 0.00956801 0.016234638 0.00017328344 -0.004962644 -0.0075775194 0.0009210119
-0.0057946737 -0.008520131 0.009144844 -0.006686451 0.006236302 0.0054278593 0.0020894494 0.010358688
-0.0057475013 0.0016445162 -0.0069021457 -0.001776632 0.0002774783 0.004060607 -0.013120785 -0.005259873
-0.008088042 0.016263945 -0.0018017007 0.0034276063 0.00738044 -0.0013809924 -0.007505177 -0.009519386
0.0035788782 0.015081733 -0.0030597309 0.004437339 0.003987533 0.012863953 0.0039057622 0.024911279
-0.0076949704 0.0051424783 -0.003825107 -0.004140766 0.012094138 -0.00818372 0.016198607 0.012078074
0.016939063 0.0037304536 0.0039108163 0.02502167 0.0070624053 -0.005476239 0.0037993072 0.0013771576
-0.0011654013 -0.0067727384 0.008746083 0.017033316 -0.012044315 -0.0013603545 -0.0086412 0.011233438
-0.0020140817 -0.013433055 -0.0050455616 -0.005957352 0.004627091 -0.0015843271 -0.007269341 -0.0123553295
-0.004545127 0.019566592 0.004119194 -0.001072178 0.0095395865 0.017756237 0.0026624596 0.010755218
-0.01264063 -0.0022974873 0.015367822 -0.005548846 0.0023463173 0.0051716175 5.879855e-05 -0.005060637
0.015405115 0.0051939003 -0.0037002668 0.00063299184 -0.0016397927 0.013709721 -0.0018372897 0.00091286836
0.0010898779 0.014006917 -0.005687589 -0.004675427 -0.0011695655 0.013802465 -0.0052978355 0.011394441
-0.0150032295 -0.0024854052 0.0050715418 0.0012792189 0.0012028861 0.015339199 -0.0015570085 0.004439118
-0.0023199923 -0.0084999995 -0.0025809426 -0.0020416186 -0.014291479 -0.0036417737 0.005027739 -0.00860329
0.007070401 -0.0021950775 0.014182191 -0.003386834 -0.0024046795 0.005485216 0.005911257 -0.020429866
0.009848237 0.016261697 0.007453352 0.0070640766 0.007793553 0.0011936312 -0.0033831862 -0.00042837084
-0.00045001405 0.0028691236 -0.0054710954 -0.0055258404 0.01687445 -0.00024167905 0.0019930662 0.0035324402
-0.0030587222 0.0050559808 0.016706854 -0.00028467862 0.005164029 -0.0060268836 0.009437795 -0.005174558
-0.021408757 -0.0057311826 0.0057032937 0.011625868 -0.0013946666 0.0012279776 0.0033198218 -0.00055189955
-0.019168194 0.014792195 0.0021190627 0.00034636905 0.004573983 0.0047888774 0.010338763 0.0017974997
0.0077853925 -0.010248646 -0.010674226 -0.0012593634 -0.0036847743 -0.0038709224 0.010252109 -0.007309412
-0.0013441517 0.025868386 0.0063971537 -0.0048702173 0.005326129 -0.0134594925 0.017671423 0.011102286
-0.012543718 -0.0026496728 0.002844298 0.0011302482 0.015796423 0.0068342695 0.0003005161 0.0075039957
-0.00015868562 0.007445971 -0.003115786 -0.0019011714 -0.0009149734 0.0047581014 0.015800282 -0.017351538
-0.0030961852 -0.0018667955 0.01641826 0.0037061418 0.005593996 -0.0022965728 0.017338552 0.008933641
00000000: 2945 a73c 2201 f33a a500 693b 4a3f 213b
00000010: e9e9 56bc e1f0 d63a 2c9b 523c 0a45 73bb
00000020: 42d4 b13b 5267 063c c561 dbba c76e 003c
00000030: 5aa0 053c 1309 173b 3ffe d7bb 0a9a aa3b
00000040: d7f6 623b e139 953b 90ab 0dbc 21a7 833b
00000050: feba 653c e455 273b 421d 94bb 0032 33bc
00000060: f365 893b 82b4 413c 3576 f13a 7a37 113b
00000070: f5a4 8ebc 4c0f bfba 22a9 c43b 054b e4ba
00000080: 4885 703c ce70 8f3c bdf3 5b3c cc97 3cbc
00000090: 162b 7d3c 7be3 063c 0813 793b 3d79 15bc
000000a0: 5334 a83a 7787 833c 6457 8e3c 651c 383c
000000b0: 48d5 003c ab28 87bb ef73 bf3c e2e0 6dbb
000000c0: 8538 a3bb ea9f af3b 25c3 1c3c 81fe 843c
000000d0: 6bb3 3539 ad9d a2bb d74c f8bb 1070 713a
000000e0: 3fe1 bdbb 0598 0bbc 41d4 153c 041a dbbb
000000f0: e559 cc3b 2fdc b13b 25ef 083b 7db7 293c
00000100: 8955 bcbb cf8c d73a 652b e2bb e1dd e8ba
00000110: 827a 9139 d70e 853b 90f8 56bc 035b acbb
00000120: b583 04bc f73b 853c 0b27 ecba b1a1 603b
00000130: 9ed7 f13b 6a02 b5ba fded f5bb 33f7 1bbc
00000140: 9d8b 6a3b 6019 773c c485 48bb 1967 913b
00000150: daa9 823b 54c3 523c d1f7 7f3b bd12 cc3c
00000160: 1726 fcbb 3c82 a83b a5ae 7abb 43af 87bb
00000170: 7e26 463c 0215 06bc f1b2 843c 1de3 453c
00000180: cac3 8a3c a07a 743b 4e26 803b 3ffa cc3c
00000190: c06b e73b 0672 b3bb ccfd 783b be81 b43a
000001a0: 61c0 98ba d9ed ddbb bb4b 0f3c 7489 8b3c
000001b0: 8555 45bc ec4d b2ba d293 0dbc 740c 383c
000001c0: affe 03bb 5116 5cbc 3d55 a5bb e435 c3bb
000001d0: da9e 973b 32a9 cfba a733 eebb 026e 4abc
000001e0: 4aef 94bb 1e4a a03c 4efa 863b 5388 8cba
000001f0: ed4b 1c3c 8775 913c a97c 2e3b a736 303c
00000200: a51a 4fbc 7191 16bb 51c9 7b3c 18d3 b5bb
00000210: acc4 193b ac76 a93b 769e 7638 b3d3 a5bb
00000220: bc65 7c3c 9831 aa3b 2d80 72bb 5def 253a
00000230: 50ee d6ba bd9e 603c 36d1 f0ba 8f4d 6f3a
00000240: 3cda 8e3a 457d 653c f45e babb 5334 99bb
00000250: 1b4c 99ba bc23 623c 7799 adbb c0af 3a3c
00000260: 1bd0 75bc 2ee2 22bb 2d2f a63b 77ab a73a
00000270: 29aa 9d3a 4451 7b3c 8914 ccba 0576 913b
00000280: 030b 18bb 9543 0bbc 0825 29bb adcc 05bb
00000290: cf26 6abc d3aa 6ebb bbbf a43b d0f4 0cbc
000002a0: d3ae e73b 4adb 0fbb 6c5c 683c a5f5 5dbb
000002b0: d497 1dbb 54bd b33b 38b3 c13b 895c a7bc
000002c0: 805a 213c 4037 853c 403b f43b c579 e73b
000002d0: 1061 ff3b 9e73 9c3a 72b8 5dbb f696 e0b9
000002e0: ddef ebb9 e807 3c3b e046 b3bb 1c12 b5bb
000002f0: 493c 8a3c 3a6b 7db9 1a9e 023b 8380 673b
00000300: d874 48bb a4ac a53b d0dc 883c eb40 95b9
00000310: 0437 a93b 2a7d c5bb fba0 1a3c 578f a9bb
00000320: 6b61 afbc a5cc bbbb b2e2 ba3b 6d7a 3e3c
00000330: 3fcd b6ba 17f4 a03a 5e91 593b 5aad 10ba
00000340: 9e06 9dbc f65a 723c f9df 0a3b de98 b539
00000350: 5ae1 953b 04ec 9c3b ea63 293c 159a eb3a
00000360: 9b1c ff3b f0e9 27bc f3e2 2ebc 3911 a5ba
00000370: 417c 71bb 4daf 7dbb 76f8 273c cb83 efbb
00000380: 3f2e b0ba f0e9 d33c 379f d13b 5896 9fbb
00000390: cf86 ae3b 3485 5cbc a9c3 903c 5de6 353c
000003a0: 2b84 4dbc 22a6 2dbb 6767 3a3b d624 943a
000003b0: 8067 813c 02f2 df3b 978e 9d39 14e4 f53b
000003c0: d964 26b9 55fd f33b 3732 4cbb ba30 f9ba
000003d0: d3da 6fba d9e9 9b3b 986f 813c d024 8ebc
000003e0: 5ee9 4abb 43af f4ba 967f 863c bee2 723b
000003f0: d74d b73b 1982 16bb 9409 8e3c 685e 123c

network_body._body_endoder.seq_layers.2.weight f4 [256, 256]
0.0023342033 -0.08624882 0.10157106 -0.13705146 0.06702603 0.048142582 0.06642681 -0.060438648
-0.036671527 -0.09525202 0.020490998 -0.072475575 -0.11098512 -0.029868226 0.08752908 -0.13258734
0.022741612 -0.07238444 0.053973053 0.09389413 -0.087823465 -0.09794171 -0.048332486 -0.008174979
-0.0071603 0.046938315 -0.07820794 -0.004190725 0.0097902445 -0.012296955 -0.012449129 -0.02274433
-0.0980556 -0.07028288 0.05816284 0.027914057 -0.11135963 0.013354696 -0.10766134 -0.05451782
-0.0050185244 -0.0060500167 -0.02394917 0.11659116 0.08053125 -0.07786535 0.059365887 0.02145713
0.07235221 0.005884306 0.03043834 -0.052882582 0.03280211 0.059333567 0.03836614 -0.0062855915
0.039914586 0.03404472 0.069190845 0.053601157 -0.024225662 -0.079452194 -0.01538326 0.015642848
0.08552991 -0.082862295 0.0067812568 0.03340687 -0.043250725 -0.11136709 0.037312742 -0.025433503
0.022914922 -0.053128336 0.10501768 0.07123541 -0.07156362 0.0034660697 0.032159694 0.014684077
-0.02265372 -0.0949412 -0.13449243 -0.011442009 -0.056452665 -0.15170996 -0.0020812622 0.013487236
-0.07684802 -0.016889615 -0.032994047 0.06566524 -0.1138851 -0.022154303 -0.045484148 0.030344095
0.122861184 0.016282823 0.034709286 -0.1485214 0.10312834 -0.061176844 0.041087996 -0.08401186
-0.036337327 0.031422574 0.028092245 -0.022709662 0.10094067 -0.07075364 -0.0039539393 0.030715099
-0.17227094 0.010689059 0.06515604 -0.03698248 -0.049883373 0.00886628 0.08156941 0.067836694
0.032566354 0.025590621 -0.004500927 -0.11920551 0.0027341004 0.011930691 0.0075620264 -0.065357566
0.047005333 0.048315547 -0.011101866 0.06528012 -0.016642755 -0.0019361266 0.06788908 -0.05471366
0.105998084 0.058404155 -0.013202432 -0.12455416 -0.032436687 -0.049023498 0.006604779 0.034223035
0.13822027 -0.049217906 0.040186495 0.029635824 0.06547438 0.08765069 0.038249474 -0.051070947
0.027593864 0.08819012 0.12658459 -0.069951706 -0.026949333 -0.023675622 -0.049038906 -0.07117871
-0.00082597655 0.019482905 -0.04637695 0.04868246 -0.09518425 0.10741741 0.027703408 -0.041026197
0.106461324 0.06547377 -0.05580138 0.06192854 -0.022509387 -0.06479808 -0.028611032 0.039149705
0.0450517 -0.0093546435 0.14232795 0.08304488 -0.013411418 0.010976018 -0.053786606 0.06332326
0.010475523 0.12535074 0.0063322983 0.039408296 -0.008846433 -0.009214513 0.027924294 0.028841278
0.047803044 -0.02816574 -0.030996937 0.13257474 0.052038494 -0.029887397 0.033129245 -0.06169658
0.13875766 -0.04376769 0.021928383 0.00043189153 -0.026294293 -0.009736349 -0.010932575 -0.08861681
0.02980983 0.08856335 -0.024359819 0.06713524 0.012488402 -0.15128039 -0.015542118 0.15002531
0.06167819 -0.034459963 0.0663397 0.1416609 -0.0031191972 0.06616097 0.00039387913 -0.041774914
0.009455632 -0.015341781 0.095056295 0.07249985 -0.12874757 0.013838172 -0.061051056 0.10199369
0.10776772 0.02015403 0.006187763 -0.07830173 0.07301271 -0.020678934 0.084066205 -0.069168
-0.07943018 -0.058339696 -0.046176217 -0.08449012 0.12239536 0.104719654 -0.022620961 0.02823693
0.029616196 0.0156141035 -0.08903791 0.053432852 -0.0019249612 0.023575462 -0.030241774 -0.052391045
00000000: 6ff9 183b 39a3 b0bd 7d04 d03d 3857 0cbe
00000010: f144 893d 2831 453d c80a 883d 848e 77bd
00000020: e234 16bd 7e13 c3bd bddc a73c 136e 94bd
00000030: 2b4c e3bd 36ae f4bc 7242 b33d fac4 07be
00000040: 9e4c ba3c 4b3e 94bd d912 5d3d 914b c03d
00000050: cadc b3bd aa95 c8bd 49f8 45bd 59f0 05bc
00000060: f3a0 eabb 6442 403d 7c2b a0bd 5952 89bb
00000070: 4367 203c 2b79 49bc 6ef7 4bbc 5152 babc
00000080: 60d1 c8bd 78f0 8fbd 283c 6e3d 05ac e43c
00000090: 8510 e4bd a8cd 5a3c 8c7d dcbd 144e 5fbd
000000a0: 6f72 a4bb 383f c6bb 0d31 c4bc 59c7 ee3d
000000b0: 91ed a43d de77 9fbd a529 733d ddc6 af3c
000000c0: 652d 943d 23d1 c03b d359 f93c 689b 58bd
000000d0: 815b 063d c107 733d d025 1d3d 5df7 cdbb
000000e0: 7a7d 233d 7a72 0b3d eeb3 8d3d e38c 5b3d
000000f0: e574 c6bc d5b7 a2bd 120a 7cbc 6e25 803c
00000100: 4e2a af3d b5b3 a9bd 4e35 de3b a4d5 083d
00000110: ac27 31bd 6e14 e4bd 3fd5 183d ec59 d0bc
00000120: 13b8 bb3c 199d 59bd 8213 d73d dfe3 913d
00000130: f28f 92bd 0027 633b e2b9 033d 7c95 703c
00000140: 4b94 b9bc 8870 c2bd 62b8 09be 4477 3bbc
00000150: e93a 67bd db59 1bbe c965 08bb 91f9 5c3c
00000160: 7f62 9dbd 175c 8abc c424 07bd 7f7b 863d
00000170: 973c e9bd f17c b5bc 964d 3abd 2e94 f83c
00000180: a59e fb3d 8e63 853c 532b 0e3d fe15 18be
00000190: f334 d33d 9294 7abd e34b 283d 690e acbd
000001a0: 73d6 14bd f5b4 003d b521 e63c 9d09 babc
000001b0: fbb9 ce3d 49e7 90bd 0c90 81bb 3b9e fb3c
000001c0: cb67 30be 2a21 2f3c 8870 853d f17a 17bd
000001d0: 8252 4cbd e043 113c dd0d a73d f7ed 8a3d
000001e0: 4c64 053d 6ca3 d13c 837c 93bb 0522 f4bd
000001f0: 982e 333b f278 433c e0ca f73b 30da 85bd
00000200: aa88 403d 86e6 453d 9ae4 35bc 95b1 853d
00000210: 6356 88bc a1c5 fdba 6e09 8b3d 6e1b 60bd
00000220: 8615 d93d 3239 6f3d 034f 58bc 4016 ffbd
00000230: 55dc 04bd ddcc 48bd e76c d83b 742d 0c3d
00000240: 9d89 0d3e b798 49bd 989a 243d d4c6 f23c
00000250: 6f17 863d 3482 b33d 7bab 1c3d c52f 51bd
00000260: 870c e23c 069d b43d 649f 013e d742 8fbd
00000270: d9c4 dcbc 61f3 c1bc 05dd 48bd 25c6 91bd
00000280: 5986 58ba 9d9a 9f3c c2f5 3dbd 4267 473d
00000290: f6ef c2bd a9fd db3d 42f2 e23c 160b 28bd
000002a0: 6508 da3d 1d17 863d fd8f 64bd c8a8 7d3d
000002b0: 9b65 b8bc dbb4 84bd af61 eabc 715b 203d
000002c0: 2288 383d 3844 19bc 6bbe 113e 6f13 aa3d
000002d0: 90bb 5bbc c2d4 333c 584f 5cbd a0af 813d
000002e0: 87a1 2b3c f25b 003e 2b7f cf3b 986a 213d
000002f0: a1f0 10bc 78f8 16bc 7dc1 e43c 8b44 ec3c
00000300: 20cd 433d d7bb e6bc 4aed fdbc acc1 073e
00000310: 5126 553d 6ad6 f4bc 88b2 073d 8eb5 7cbd
00000320: 7d16 0e3e c045 33bd 27a3 b33c 806f e239
00000330: 2167 d7bc 3585 1fbc 8b1e 33bc bb7c b5bd
00000340: bf33 f43c b460 b53d 3e8e c7bc 337e 893d
00000350: 289c 4c3c 3fe9 1abe 5ea4 7ebc 3ca0 193e
00000360: 45a2 7c3d e425 0dbd 1cdd 873d 8e0f 113e
00000370: 726b 4cbb 677f 873d 9081 ce39 2c1c 2bbd
00000380: cceb 1a3c 185c 7bbc e0ac c23d cd7a 943d
00000390: 67d6 03be 80b9 623c ac10 7abd 11e2 d03d
000003a0: 53b5 dc3d 101a a53c b8c2 ca3b a85c a0bd
000003b0: b087 953d de66 a9bc e72a ac3d f4a7 8dbd
000003c0: 4aac a2bd 9bf5 6ebd 4623 3dbd 2809 adbd
000003d0: 6baa fa3d 4277 d63d 984f b9bc 2251 e73c
000003e0: aa9d f23c 4cd2 7f3c 8259 b6bd 68dc 5a3d
000003f0: fb4e fcba 5421 c13c 99bd f7bc fe97 56bd

network_body._body_endoder.seq_layers.2.bias f4 [256]
-0.006218417 -0.006869979 0.009094112 -0.0011685436 -0.013397364 -0.0051019713 0.01087308 -0.007008401
0.009641394 0.009250836 0.0048347358 0.001157929 -0.005734495 0.0052435 0.008199393 0.001592664
0.005557903 0.0007981921 -0.0003939603 0.0130419135 0.0106253 0.015488501 -0.007900291 0.011427051
0.0031613875 -0.002799792 0.0026896875 -0.001537463 -0.013189352 0.0002578893 -0.008721112 0.005536396
0.0046594376 -0.008571422 -0.0012792068 0.008948245 0.0024587333 0.00373906 0.0049356213 -0.015057214
0.00064207433 0.002531844 0.0047886595 -0.007041731 -0.011742612 0.001182082 -0.002290031 0.01027796
-0.0038794787 -0.00927468 -0.0040080245 0.0046328334 0.0036856027 0.0055509377 0.010543317 -0.0072415187
0.004963488 -0.00054276915 0.0036185342 -0.0036486918 -0.009966075 0.012382409 -0.0042400127 -0.0045771524
-0.006514815 -0.004807596 -0.0011561617 -0.0014642709 0.012684705 -0.002753166 -0.0044874134 0.004273172
0.01552755 0.0037413053 0.011100458 0.000547796 0.015587736 -0.0009816076 -0.0025236288 0.0007959342
0.003070341 0.009384247 0.010226507 0.010052888 0.007123695 -0.0026918785 0.009547702 0.00033465508
0.0038612615 -0.0020683268 0.00089473487 0.018553691 -0.005565443 -0.001148319 -0.012746896 0.009437827
-0.00048874755 -0.007727888 0.008236695 -0.006657941 0.004483897 0.011954387 0.0057120994 -0.00987739
0.007928023 0.0105608795 0.0107860435 -0.00857378 0.0075688525 0.00717565 -0.004641337 0.019136129
4.782579e-05 -0.009575801 -0.010296675 -0.0109554 -0.0010539368 -0.003485651 0.0037383798 0.006402412
0.014394464 0.0029617206 -0.008136346 0.009627656 0.0061237547 0.0075596618 -3.3076583e-05 -0.005600466
-0.003049903 -0.004123348 0.010168949 0.005341522 0.00879092 0.009672041 0.006284498 -0.0017863375
-0.002306228 0.00066789525 -0.00697588 0.0054977206 0.0058378326 0.0013363417 -0.0104565285 -0.010545577
0.009939942 0.0041881967 0.0054617138 0.00066409697 0.001164935 0.00062592153 0.011027963 0.01473793
0.0068534473 -0.010845547 0.013387851 -0.00063081516 -0.012477059 -0.005236978 -0.002422856 0.006284804
0.01482137 -0.009101113 0.004202813 -0.005727179 0.0036559755 0.007260295 -0.0044790083 0.0011933581
-0.01212823 0.0043943883 0.012868028 0.008388639 0.0014493341 0.0033489005 0.009342808 -0.0055352617
0.0014546326 0.0087415725 0.005320069 0.0028188755 0.009853569 -0.011627276 0.008752575 -0.010994865
0.013509484 0.010885861 -0.008822829 -0.008721972 -0.007914626 0.005921322 0.0064619486 0.006660122
0.0040444126 0.007598184 -0.0013926122 -0.0041047893 0.006322916 0.020528128 -0.00011220504 0.006046889
0.0023820784 -0.008562567 -0.0072125737 -0.00069221144 -0.00905591 -0.008211873 0.0061144857 0.0022474313
-0.00918029 -1.7298116e-06 0.0074476856 -0.0053830245 0.016908202 0.0041030045 0.004242543 -0.0060725696
0.0033717598 0.019162992 -0.0051120576 0.00019884732 -0.0028320893 0.0027862876 0.0037374496 0.004922774
0.008401022 -0.0060593328 0.013122205 0.00076560205 -0.00949639 0.0016473752 0.0053250385 -0.0062379665
-0.0010620146 0.0063734176 0.0065652984 -0.0041478598 0.00039509975 0.0052731642 0.0010750716 0.011090691
0.0049904757 0.009799493 -0.008193873 -0.0088549275 0.0016758246 -0.00079127715 -0.002950851 0.0045241574
0.008615549 -0.009995275 0.0035355454 0.0051892106 0.010838891 0.008627995 -0.0051941923 0.00013206582
00000000: ddc3 cbbb 901d e1bb 78ff 143c d129 99ba
00000010: 9e80 5bbc 702e a7bb 0125 323c bba6 e5bb
00000020: f0f6 1d3c d290 173c b46c 9e3b a6c5 973a
00000030: 6ee8 bbbb abd1 ab3b bf56 063c f0c0 d03a
00000040: 121f b63b c43d 513a 758c ceb9 c0ad 553c
00000050: bd15 2e3c 7bc3 7d3c 3970 01bc 8738 3b3c
00000060: 482f 4f3b b77c 37bb 7845 303b b384 c9ba
00000070: 2718 58bc 5135 8739 ffe2 0ebc a86a b53b
00000080: 32ae 983b 266f 0cbc 0fab a7ba a99b 123c
00000090: b322 213b 040b 753b feba a13b 88b2 76bc
000000a0: e150 283a 4bed 253b 30ea 9c3b 52be e6bb
000000b0: 1664 40bc 17f0 9a3a 5814 16bb e464 283c
000000c0: da3e 7ebb d4f4 17bc bf55 83bb 06cf 973b
000000d0: 278a 713b a4e4 b53b e0bd 2c3c 434a edbb
000000e0: c1a4 a23b 9f48 0eba ee24 6d3b e41e 6fbb
000000f0: c048 23bc 96df 4a3c ceef 8abb f0fb 95bb
00000100: 3b7a d5bb 0a89 9dbb 598a 97ba c7ec bfba
00000110: 82d3 4f3c 766e 34bb 270b 93bb f705 8c3b
00000120: 4467 7e3c b030 753b b2de 353c f899 0f3a
00000130: b463 7f3c 49a9 80ba 7763 25bb 3da6 503a
00000140: c637 493b 62c0 193c 148d 273c deb4 243c
00000150: e36d e93b 3a6a 30bb f76d 1c3c a574 af39
00000160: 380d 7d3b c48c 07bb a48c 6a3a e9fd 973c
00000170: 525e b6bb 3183 96ba 5bd8 50bc 1ea1 1a3c
00000180: 4b1f 00ba 393a fdbb 34f3 063c db2a dabb
00000190: a7ed 923b 55dc 433c 902c bb3b c7d4 21bc
000001a0: 8ae4 013c 8a07 2d3c f2b7 303c 0a79 0cbc
000001b0: 2304 f83b b721 eb3b 5b16 98bb 5fc3 9c3c
000001c0: 8d98 4838 d2e3 1cbc 63b3 28bc 477e 33bc
000001d0: 4024 8aba 856f 64bb 9bff 743b 53cb d13b
000001e0: c2d6 6b3c 6d19 423b 4f4e 05bc 51bd 1d3c
000001f0: c7a9 c83b 0ab7 f73b b6bb 0ab8 1d84 b7bb
00000200: e2e0 47bb 261d 87bb aa9b 263c ef07 af3b
00000210: ca07 103c 7b77 1e3c 31ee cd3b 8a23 eaba
00000220: 1624 17bb b115 2f3a ec95 e4bb 3926 b43b
00000230: 4a4b bf3b 3028 af3a dc51 2bbc 5bc7 2cbc
00000240: 23db 223c 243d 893b 2df8 b23b cb16 2e3a
00000250: bbb0 983a e214 243a a1ae 343c 5c77 713c
00000260: e292 e03b 85b1 31bc b858 5b3c 4a5d 25ba
00000270: 946c 4cbc f59a abbb c7c8 1ebb c2f0 cd3b
00000280: 55d5 723c d61c 15bc c0b7 893b 0fab bbbb
00000290: 1799 6f3b c5e7 ed3b a5c4 92bb 746a 9c3a
000002a0: 7cb5 46bc cdfe 8f3b 6cd4 523c 8170 093c
000002b0: 95f7 bd3a 3a79 5b3b 9412 193c 2461 b5bb
000002c0: 5fa9 be3a d038 0f3c f953 ae3b e2bc 383b
000002d0: dd70 213c 5580 3ebc f666 0f3c ce23 34bc
000002e0: e256 5d3c 9c5a 323c a18d 10bc 9ae6 0ebc
000002f0: 59ac 01bc a607 c23b c1be d33b 273d da3b
00000300: fe86 843b 30fa f83b 5088 b6ba 7881 86bb
00000310: 7730 cf3b 9b2a a83c 9f4f ebb8 fb24 c63b
00000320: a51c 1c3b 024a 0cbc 7457 ecbb 8675 35ba
00000330: 3d5f 14bc 178b 06bc 065c c83b a449 133b
00000340: ed68 16bc e02b e8b5 b70b f43b 1564 b0bb
00000350: 1283 8a3c 7f72 863b 0805 8b3b 68fc c6bb
00000360: bef8 5c3b b5fb 9c3c 0c83 a7bb ac81 5039
00000370: 939a 39bb 269a 363b 00f0 743b 394f a13b
00000380: 71a4 093c 5e8d c6bb 84fe 563c afb2 483a
00000390: bf96 1bbc bdec d73a a97d ae3b db67 ccbb
000003a0: 4c33 8bba 1ad8 d03b b721 d73b c5ea 87bb
000003b0: 6425 cf39 82ca ac3b 6be9 8c3a bbb5 353c
000003c0: 2587 a33b 0d8e 203c 983f 06bc 4214 11bc
000003d0: 58a7 db3a b66d 4fba 1163 41bb 623f 943b
000003e0: 3b28 0d3c 39c3 23bc 9cb4 673b 410a aa3b
000003f0: 9b95 313c 6f5c 0d3c 0b34 aabb 267b 0a39

action_model._continuous_distribution.log_sigma f4 [1, 5]
0.041268565 0.021219607 0.026328126 -0.0051327692 0.011231068
00000000: 3a09 293d bed4 ad3c 15ae d73c ca30 a8bb
00000010: 8302 383c

action_model._continuous_distribution.mu.weight f4 [5, 256]
-0.0187884 -0.012529336 -0.016618382 -0.007972712 0.013973188 -0.0019775238 -0.011568854 0.020582458
0.00295025 -0.013252624 -0.02252032 0.0003861349 -0.0037380888 -0.00058474345 -0.024308456 -0.0007734441
0.013193804 -0.018487155 -0.0020379089 -0.017574364 0.003087703 -0.021756858 0.023681011 -0.026150635
-0.009660535 0.0096784085 0.012267096 -0.016785594 0.00081473606 -0.0042969277 0.015577362 0.012379132
0.00803854 -0.0015927971 -5.0225306e-05 -0.014245598 -0.004823925 -0.01644844 -0.008610874 -0.007183035
-0.009476799 -0.0031954953 -0.013948597 -0.005118085 0.014661511 -0.009957473 -0.0073999884 0.013580658
-0.018726567 -0.015115263 -0.0045220335 0.011320018 -0.018081464 -0.009783694 0.00783476 0.0017770379
0.020486418 0.010245231 0.009520816 -0.017230097 0.0018741627 0.0107347565 0.0062724096 -0.0053908266
0.007937176 -0.0005254621 0.01261886 -0.009782464 0.0036899436 -0.00030651563 0.026777333 -0.021420948
-0.008849592 -0.024942104 0.013142396 -0.021013085 -0.0022768206 0.017063953 -0.026139671 -0.03493519
-0.020370731 0.020676175 -0.019098984 -0.013481093 -0.02250059 -0.0028887675 -0.022025526 -0.011743856
0.018893886 -0.0021353948 -0.0010217316 -0.006390807 -0.0075096544 -0.00082652795 0.01190003 0.012257701
-0.009927739 -0.013592911 0.0014204415 -0.0026418683 0.005650912 0.009059671 0.0059280535 -0.0029501077
-0.023125693 0.0031285284 -0.005083969 -0.014086293 0.0073360982 0.006885526 0.011907283 0.008422476
0.008408309 0.0268613 0.001345381 0.00065096066 -0.01287348 0.0036699541 -0.00052572414 0.025515908
-0.009830052 -0.005300073 0.009463328 -0.0056030382 -0.008328177 -0.0045284224 0.007946771 -0.023695463
-0.024322262 0.03453515 0.016965453 -0.008464769 -0.0029888158 -0.013810561 -0.04343835 -0.012772719
0.007511212 0.012974596 -0.012897508 -0.0070040636 0.007778149 0.010429873 0.01864844 0.006805533
0.004338029 -0.015154661 0.017128406 0.008829346 0.021134235 0.008539688 -0.0031318443 -0.0047738943
-0.00061028334 -0.00052470405 -0.013660536 -0.0037507704 0.0040960717 0.0056147007 0.0123183 0.0036944512
-0.019165065 -0.0110563245 0.0010924096 0.018801337 -0.0027966057 0.007284734 -0.007485209 -0.0053028907
0.016390242 0.0032820513 0.008354185 0.018330878 -0.0022270926 -0.0091936365 -0.0076141944 -0.0077907513
-0.0011203191 -0.0032515828 -0.017880935 0.025265276 -0.009535837 0.014959509 -0.00708834 0.0015346917
-0.017004253 -0.006595014 0.022943715 0.014242388 0.0128379185 0.008463971 -0.020777315 -0.0079298355
-0.0028357748 0.0061653606 0.0040651523 -0.010688852 0.010457698 0.0030431575 -0.004095947 -0.011357367
-0.00089629204 0.010161633 0.00093292136 0.0026927544 0.00037130647 0.0052233404 -0.004319142 0.01021046
0.005385924 0.013928295 0.008168998 0.013148643 0.0059336927 0.015750023 0.026797168 0.0016631501
0.0021402119 0.0002917788 0.0063293865 -0.010536085 -0.015598381 0.0005313015 0.009327765 0.0094464775
-0.013222836 0.0085918335 -0.014119231 -0.014837665 0.0049830335 -0.021739805 0.018679664 -0.019022413
0.012574233 0.004311424 0.013124271 -0.007217447 0.0141444085 0.0022406806 -0.009802771 -0.0010342066
-0.0046801465 0.010748298 0.00048903486 0.0028935012 -0.008561702 0.018059129 0.012661516 0.012767052
0.00535988 -0.009792493 0.019908613 -0.000631783 -0.0010965434 -0.0021983327 -0.007415434 -0.021871759
00000000: 21ea 99bc d847 4dbc 4623 88bc fa9f 02bc
00000010: ccef 643c 5899 01bb 4a8b 3dbc 8b9c a83c
00000020: fb58 413b 8921 59bc 897c b8bc 2672 ca39
00000030: b9fa 74bb 7849 19ba 8722 c7bc f4c0 4aba
00000040: d32a 583c 6072 97bc 708e 05bb 1df8 8fbc
00000050: 0f5b 4a3b 703b b2bc aefe c13c db39 d6bc
00000060: 3847 1ebc 3092 1e3c eefb 483c f181 89bc
00000070: 0394 553a 3ecd 8cbb 3138 7f3c d8d1 4a3c
00000080: 15b4 033c 67c5 d0ba 03a9 52b8 5e66 69bc
00000090: 0412 9ebb e1be 86bc a014 0dbc aa5f ebbb
000000a0: 9344 1bbc 846b 51bb a888 64bc 9cb5 a7bb
000000b0: d636 703c ab24 23bc 9a7b f2bb 6881 5e3c
000000c0: 7568 99bc 02a6 77bc 912d 94bb 9977 393c
000000d0: 941f 94bc c94b 20bc 5d5d 003c 7feb e83a
000000e0: 22d3 a73c 9ddb 273c 32fd 1b3c 2226 8dbc
000000f0: 77a6 f53a d5e0 2f3c c988 cd3b 88a5 b0bb
00000100: ee0a 023c 2abf 09ba 56bf 4e3c a146 20bc
00000110: fbd2 713b d5b3 a0b9 235c db3c fc7a afbc
00000120: e1fd 10bc 6253 ccbc 3453 573c a223 acbc
00000130: b636 15bb b4c9 8b3c dd22 d6bc 3418 0fbd
00000140: 85e0 a6bc 1561 a93c 7975 9cbc cddf 5cbc
00000150: 2853 b8bc 7a51 3dbb e06e b4bc 4d69 40bc
00000160: 5ac7 9a3c fbf1 0bbb a0eb 85ba fa69 d1bb
00000170: 8c13 f6bb 5aab 58ba 58f8 423c 86d4 483c
00000180: f5a7 22bc cdb4 5ebc 1c2e ba3a 3223 2dbb
00000190: 492b b93b 046f 143c 1e40 c23b 9856 41bb
000001a0: 1872 bdbc ff07 4d3b 6c97 a6bb 32ca 66bc
000001b0: a763 f03b fa9f e13b c416 433c 6dfe 093c
000001c0: 01c3 093c 3b0c dc3c 7f57 b03a 3ba5 2a3a
000001d0: 4aeb 52bc 9d83 703b c0d0 09ba bd06 d13c
000001e0: 3a0e 21bc 3cac adbb 130c 1b3c b199 b7bb
000001f0: e872 08bc 2963 94bb 2c33 023c fd1c c2bc
00000200: 7b3f c7bc bb74 0d3d 22fb 8a3c d1af 0abc
00000210: 02e0 43bb b145 62bc 69ec 31bd ab44 51bc
00000220: 9d20 f63b 6693 543c 1250 53bc 5882 e5bb
00000230: d8df fe3b 0fe2 2a3c 9dc4 983c f300 df3b
00000240: 0626 8e3b 414b 78bc df50 8c3c f6a8 103c
00000250: b421 ad3c 0cea 0b3c a13f 4dbb 546e 9cbb
00000260: 6cfb 1fba 4b8c 09ba 71d0 5fbc 7ccf 75bb
00000270: 5738 863b 86fb b73b b2d2 493c 9b1e 723b
00000280: 0e00 9dbc 9625 35bc 2f2f 8f3a 4305 9a3c
00000290: 4247 37bb c7b4 ee3b 7c46 f5bb dfc3 adbb
000002a0: d444 863c af17 573b fedf 083c a32a 963c
000002b0: 6af4 11bb e8a0 16bc 7e80 f9bb 8f49 ffbb
000002c0: acd7 92ba 8218 55bb 0a7b 92bc 20f9 ce3c
000002d0: 333c 1cbc ba18 753c 4e45 e8bb b527 c93a
000002e0: 814c 8bbc fd1a d8bb 75f4 bb3c e858 693c
000002f0: 2256 523c 78ac 0a3c 3035 aabc 24ec 01bc
00000300: 68d8 39bb cb06 ca3b f834 853b 4b20 2fbc
00000310: c456 2b3c b66f 473b 4b37 86bb 4014 3abc
00000320: 24f5 6aba fa7c 263c 4b8f 743a ec78 303b
00000330: e9ab c239 8e28 ab3b 9787 8dbb c649 273c
00000340: 687c b03b 8133 643c 43d7 053c 686d 573c
00000350: 6c6f c23b 3106 813c bc85 db3c 0ffe d93a
00000360: cc42 0c3b e3f9 9839 be66 cf3b 8b9f 2cbc
00000370: 5a90 7fbc 0a47 0b3a 7bd3 183c 66c5 1a3c
00000380: 98a4 58bc c3c4 0c3c 5954 67bc ad19 73bc
00000390: b748 a33b ad17 b2bc 1806 993c e4d4 9bbc
000003a0: 2804 4e3c d946 8d3b 2f07 573c 5580 ecbb
000003b0: f3bd 673c 62d8 123b cd9b 20bc 378e 87ba
000003c0: ea5b 99bb a119 303c 9332 003a e5a0 3d3b
000003d0: 6246 0cbc bdf0 933c 3f72 4f3c e62c 513c
000003e0: efa1 af3b b170 20bc 6317 a33c 3d9e 25ba
000003f0: e4b9 8fba e711 10bb 2bfd f2bb 672c b3bc

action_model._continuous_distribution.mu.bias f4 [5]
-0.0074992427 0.0077410815 -0.0040974226 0.015511306 -0.0012629234
00000000: 35bc f5bb e6a8 fd3b ac43 86bb 2223 7e3c
00000010: ad88 a5ba
