configfiles/results/hb_04/Hummingbird/Hummingbird-499968.onnx (onnx, 401856 bytes, 7 tensors)

network_body._body_endoder.seq_layers.0.weight f4 [256, 125]
000000 aa e9 8d 3d a1 d8 33 3e 5c a5 b7 bc 0e 68 29 be
       0.069293335 0.17563106 -0.022417717 -0.165436
000010 bc e5 be 3d d4 ea b5 bd 24 f9 f6 bc 8b d6 cf bd
       0.09321162 -0.088826805 -0.030148096 -0.10148343
000020 ea 6f a0 bc 4e dd 1f be 53 19 17 3d 22 6b 61 bd
       -0.019584615 -0.15611765 0.036889385 -0.05503381
000030 17 a2 bb 3d 8a ac e6 3d d9 c5 89 3d 31 a4 26 3e
       0.091617756 0.11263378 0.067271896 0.16273572
000040 45 e3 d0 bd ac 60 8c 3c dd 9d 81 bd d3 8e dd 3d
       -0.10199598 0.01713594 -0.06328938 0.10818257
000050 73 0a 58 bc 3b 81 55 3e 07 8c 23 3e ef 11 e0 3b
       -0.013186085 0.20850079 0.15971385 0.0068380754
000060 bf df 95 bc fa 4a 86 3b 2d 2e 8c bc 45 15 81 bd
       -0.018295167 0.0040982934 -0.017111862 -0.06302885
000070 07 72 7c 3d 2b 5d 3a be 26 8a b7 3d 4c b8 31 be
       0.061632182 -0.18199603 0.089618966 -0.1735546
000080 fd 3b 7c 3c 53 74 51 3e 50 39 f3 bc e2 d2 91 bd
       0.015395162 0.2045453 -0.029690415 -0.07120301
000090 f4 71 f0 bd 0d 4d b3 3c 61 0d 9c 3c 83 4c c3 ba
       -0.11740485 0.021887327 0.019049348 -0.0014900122
0000a0 83 50 d5 bb 33 a3 0c be f3 f5 39 3c 1a 17 bc bc
       -0.006509842 -0.1373413 0.011350143 -0.022960234
0000b0 7d 2c ec bd 22 df 1f ba 31 0f 9d 3c bb 76 00 bc
       -0.11531923 -0.0006098618 0.019172283 -0.007840808
0000c0 a0 23 ef bd 8a cd 61 3b e1 33 0a bd 7a 38 8f 3d
       -0.11676717 0.0034454786 -0.03374088 0.06993194
0000d0 57 44 23 3e b9 83 8d 3d 34 9a 89 bd 7f 4b e1 bd
       0.15944038 0.0690989 -0.06718865 -0.11000728
0000e0 c5 e3 21 bc 33 8e 4b be 32 66 2c bd 79 0f 9d bd
       -0.009880965 -0.19878463 -0.04208965 -0.07668967
0000f0 23 15 4a bd 38 62 9f bd fb 23 40 3e 53 c2 0b 3e
       -0.049336564 -0.077824056 0.18763725 0.13648348
000100 63 76 8d bc 24 3f 18 3c fb 78 19 3b 02 b5 83 bd
       -0.017268365 0.009292398 0.0023418057 -0.06431009
000110 bc 68 c5 3d b3 c7 a1 bd 3f 6b 96 3e ac 57 2a 3c
       0.09639117 -0.07899418 0.29378697 0.010396879
000120 07 54 cc 3d e9 85 15 3e 52 0c 9a bd 71 94 f0 3d
       0.099769644 0.14601864 -0.07521881 0.11747063
000130 ee 18 1e 3b 93 a7 1b 3d 18 c1 ac 3d b5 9b 3f bd
       0.0024123746 0.038001608 0.08435267 -0.046779353
000140 b7 7a d0 bd 7b bf d7 3b 74 e7 47 bd ba 69 77 3d
       -0.10179656 0.0065841055 -0.048804715 0.060403563
000150 d8 b9 a6 bd 62 e6 a9 bd 85 50 39 3d 4f 86 29 be
       -0.08140916 -0.08295895 0.045242805 -0.16555141
000160 e4 d9 17 3e 11 cd 63 3d 21 57 07 be d1 fa 16 3e
       0.14829212 0.05561549 -0.13216831 0.14744116
000170 02 be 62 be c5 a2 16 3d 1d 94 0f be 25 6e a4 bd
       -0.22142795 0.036776323 -0.14021344 -0.08028821
000180 3a 33 d3 3d ea 1e c1 3d 30 4d 8e bd c3 f8 a9 3d
       0.10312505 0.094297245 -0.06948316 0.08299401
000190 aa 23 83 3d 8b af d1 bd c7 75 2c 3c 3a 7c a9 3c
       0.06403287 -0.1023856 0.010526127 0.020689119
0001a0 a9 d0 a7 3c e0 55 f3 3c 1f 83 72 3b 02 9a a6 bd
       0.02048524 0.029704034 0.0037004424 -0.081348434
0001b0 f1 01 1e 3e de 6e 28 3d 28 a2 bd bd 9f 38 38 3e
       0.15430428 0.041121356 -0.092594445 0.17990349
0001c0 4f ae 2b 3e 63 01 f1 bc 85 bc 87 3e b6 e1 75 3d
       0.16765712 -0.029419607 0.26511016 0.060029708
0001d0 a5 a1 77 bc d3 d5 12 3e f7 63 61 bd e0 9c 4b 3c
       -0.015114223 0.1433938 -0.055026975 0.012427539
0001e0 33 df d1 bd 3b 20 a7 3d b5 58 0c bb b2 a9 06 bd
       -0.1024765 0.08160444 -0.0021415178 -0.032876678
0001f0 7a b9 60 3d e4 f1 ac bd c3 29 c7 3d 2e 53 db bd
       0.054864384 -0.084445745 0.09724762 -0.10709225
000200 e5 14 5d bd 41 d9 e7 bc f4 cc b9 bb 0f a0 d0 3c
       -0.053975005 -0.028301837 -0.0056701843 0.025466947
000210 1f d4 93 bd f1 84 09 be 0d 9b 48 bd 8b 4d e1 3d
       -0.07218193 -0.1342962 -0.048975993 0.11001118
000220 68 1c ec 3d 5a 37 66 be 94 5c dd 3d 19 27 0a bd
       0.115288556 -0.22482052 0.108086735 -0.033728693
000230 33 d9 7d 3d bd 1d 0a be a3 4c e1 3c 3c 1f cc 39
       0.061974715 -0.13487907 0.027502364 0.00038933184
000240 dc fc 04 be 0b 82 98 bc 02 9e aa 3c 1b d4 ad 3c
       -0.12987083 -0.018616697 0.020827297 0.021219304
000250 b4 3c 70 bd 19 83 8d 3d df 41 53 bc 5e 1b e7 3d
       -0.05865164 0.069097705 -0.012894123 0.11284517
000260 7c e2 5a bd a8 3b 5d 3d 44 50 d7 3d 86 cb a2 bd
       -0.05343865 0.05401197 0.10513356 -0.07948975
000270 7d 4b 92 3d ab d8 44 3d 9b 89 17 bd fe cf 1b be
       0.071433045 0.048058193 -0.036996465 -0.15216061
000280 11 36 c3 bc 58 14 01 3e 26 ab 2f 3c 21 02 94 3c
       -0.023829492 0.12605417 0.010721957 0.018067421
000290 ee 0a f6 bd 56 14 17 3e 1c af ee bc 2a fd bf 3c
       -0.120138034 0.14753851 -0.029136233 0.023436148
0002a0 f5 3b 25 3e cd 79 8d bd b5 0c bb 3d 76 9a 8d 3d
       0.16136153 -0.06907997 0.09133283 0.06914227
0002b0 f2 98 bf 3d 63 6a 23 bd 9b 4e 5f 3c bc 91 63 3c
       0.09355344 -0.03989638 0.013629581 0.013889726
0002c0 69 b2 71 3e c2 60 a3 3c fe 8a 76 bc 88 24 19 3d
       0.23603214 0.019943599 -0.015047787 0.037388355
0002d0 1b 18 d3 bd e4 ec c2 3d 54 aa 23 3e 0c fe 5a bd
       -0.10307332 0.095178396 0.15982944 -0.053464934
0002e0 e0 d1 fe 3c 20 5e a3 bd 08 81 72 bd a6 f9 87 3b
       0.031105936 -0.07976937 -0.059205085 0.0041496335
0002f0 ff e0 90 ba 92 6a d9 3c d8 20 de bd e1 aa 38 bd
       -0.0011053382 0.026540074 -0.10846108 -0.045084838
000300 18 42 48 3d 97 b7 a2 3d f0 85 c3 bd 23 35 89 bd
       0.048891157 0.07945173 -0.09547031 -0.06699588
000310 bd 21 0e be ce 6e c7 bd 8f 46 27 3e 4d 2e 67 bc
       -0.13880058 -0.09737931 0.1633551 -0.01411016
000320 d3 9c 0a 39 58 2f 3e 3d 94 cf b8 3d b1 90 c4 bb
       0.00013219127 0.04643187 0.090239674 -0.005998694
000330 39 e3 77 3c 8e 2e 87 bc b2 bd 68 3e e5 16 5f 3d
       0.015129858 -0.016501691 0.22728613 0.054465193
000340 aa ea 9a 3d f7 73 f8 3b 4c 7c 1f be 6e 4b a8 bc
       0.0756429 0.0075821835 -0.15574759 -0.02054378
000350 46 a2 d8 3c b2 c8 24 bd be c0 8a 3d ba 12 57 3d
       0.026444566 -0.04023046 0.06775044 0.052508093
000360 06 a3 93 3d 8b e8 f2 bd a3 2a c6 ba cd 13 68 bd
       0.07208829 -0.1186076 -0.0015118908 -0.05665951
000370 b5 c7 df bc c0 4a e9 bb 2c b6 7c 3d ed 4e 7a bd
       -0.027316907 -0.0071195066 0.06169717 -0.061110426
000380 13 ee 1a 3e db ed 67 3d 5c 9a 55 bd 8f 4d b8 bc
       0.1512988 0.05662332 -0.05214916 -0.02249792
000390 ea a0 2c 3e 01 0e 39 bd a6 ac e8 bb 0d 73 e1 bd
       0.16858259 -0.04517937 -0.0071006594 -0.11008272
0003a0 6e a6 e2 3c 4b ba 46 3d 42 c4 e6 3d ad 68 fd bd
       0.02766725 0.048517507 0.11267902 -0.12373481
0003b0 df 4f 71 3d 70 1f 7e 3d bc 19 c7 3d 48 de 10 be
       0.05891406 0.0620417 0.09721705 -0.14147294
0003c0 72 99 87 bd ec a9 2d 3d 4e 35 8c bd ab 58 13 bd
       -0.06621064 0.04239838 -0.068461046 -0.035973232
0003d0 12 59 12 3d 18 22 3f 3e b2 88 bc 3d 06 d1 91 bd
       0.035729475 0.1866535 0.0920576 -0.07119946
0003e0 1b 66 4a 3c 87 d4 0c bd 87 7d df 3d f2 e1 5a 3c
       0.012353445 -0.03438237 0.10912614 0.013359534
0003f0 d4 ec 12 be ae 2c 9a bd 5a 35 b9 3c c8 29 b5 bd
       -0.14348155 -0.07528053 0.022608448 -0.0884586

network_body._body_endoder.seq_layers.0.bias f4 [256]
000000 8f 24 88 3c 0e ed cf 39 4e de a4 3b 06 5f 50 3a
       0.016618995 0.00039658736 0.0050313836 0.000794873
000010 66 fb 21 bc c7 e8 14 3b c5 51 00 3c 58 36 41 bb
       -0.009886598 0.0022721754 0.007831995 -0.0029481854
000020 44 1f dd 3a 53 19 cd 3b c3 23 76 3a 09 0c 8c 3b
       0.001687028 0.0062591224 0.0009389484 0.0042738956
000030 dc 42 c7 3b 49 6c 8d 3b f1 45 36 bb fc 97 e4 3b
       0.0060809683 0.004315887 -0.0027812684 0.0069761258
000040 ff de a0 ba 52 74 ba 3b 8d 6b 11 bc 5d c8 b2 3b
       -0.0012273489 0.005690136 -0.00887574 0.005456014
000050 84 af 05 3c 53 2f d0 37 d1 10 11 bc c3 94 45 bc
       0.008159522 2.481757e-05 -0.008854107 -0.012059393
000060 71 b0 3d 3a 77 09 fc 3b 0f 62 bf 3a 1f 20 59 b9
       0.00072360697 0.007691558 0.0014601367 -0.00020706699
000070 9a a9 62 bc 0c aa bb bb 59 30 65 3b 2d a6 39 bb
       -0.0138343815 -0.0057270583 0.0034971444 -0.0028327808
000080 95 e6 3a 3c 94 aa 43 3c 47 01 51 3c 13 46 db bb
       0.011407514 0.011942524 0.012756652 -0.006691703
000090 68 5a 45 3c 12 5d 2b 3b 12 4f 8d 3b 34 b5 d6 bb
       0.01204548 0.0026148004 0.0043124044 -0.006552363
0000a0 75 cd 98 3b 72 dd 50 3c 99 aa 69 3c a9 8e 80 3b
       0.0046631643 0.012748109 0.014261865 0.0039232564
0000b0 44 86 f6 3b 19 dd ac 3a 75 95 84 3c 78 a3 d8 ba
       0.00752333 0.0013188451 0.016184548 -0.001652821
0000c0 e7 98 da bb a3 16 71 3b 26 cc 20 3a fb f1 8b 3c
       -0.0066710594 0.0036787174 0.0006133936 0.017083159
0000d0 b2 2d 44 3b 82 b2 09 bc 86 be 29 bc 61 03 f8 ba
       0.0029934463 -0.008404376 -0.010360366 -0.0018921905
0000e0 b2 ee 01 bb af 75 ca bb cb 5a 30 3c ec 78 95 bb
       -0.0019826111 -0.0061785798 0.010763834 -0.004561534
0000f0 e7 3b c6 3b 95 d2 5c bb 95 11 5e bb 71 f0 2c 3c
       0.0060496214 -0.0033694853 -0.0033884991 0.010555373
000100 e1 5d be bb 2f 3b de 3a 14 45 d5 bb 15 cd ec bb
       -0.005809531 0.0016954894 -0.006508479 -0.007226596
000110 59 dc a2 bb 04 75 f5 bb ea c1 1c bc 72 fb b6 bb
       -0.004970115 -0.007490756 -0.009567717 -0.005584174
000120 5c 90 32 bc 2c 2d 56 3c 5e 77 14 bb 55 3e 01 3b
       -0.010898676 0.013072293 -0.0022654156 0.001972099
000130 03 cb f5 3b eb 8e 14 bb 37 11 d9 bb b6 b1 c0 bb
       0.0075010075 -0.0022668194 -0.0066243666 -0.00588056
000140 eb cf 24 3b 03 06 43 3c d0 42 48 ba fa 42 c1 3a
       0.0025148343 0.011903289 -0.00076393504 0.0014744692
000150 fe 65 20 3b de c0 36 3c 07 13 42 3b f4 ff b7 3c
       0.0024474855 0.011154382 0.0029613392 0.022460915
000160 73 c4 06 bc bb a3 fe 3b 05 31 3e bb 2a be 47 39
       -0.008225548 0.007770983 -0.0029020917 0.0001904896
000170 01 26 d1 3b 64 3d b9 bb 2b f9 dd 3b 1b 2f 10 3c
       0.0063827042 -0.0056530703 0.006774088 0.008800293
000180 27 b5 5e 3c 55 5f f9 3a ba 2c 99 3b 06 de a9 3c
       0.013592995 0.0019025604 0.0046745213 0.020735752
000190 80 56 1a 3a b9 2a cc bb de 2a c5 ba f4 b8 ba ba
       0.00058875233 -0.006230679 -0.0015042683 -0.0014245794
0001a0 6f 1b 38 3b 7c b5 f5 bb ab ee 2d 3c 86 42 69 3c
       0.0028092524 -0.0074984413 0.010615985 0.014237052
0001b0 5e 98 44 bc 8e 81 66 bb 20 b7 bd bb 38 99 38 3c
       -0.011999218 -0.0035172435 -0.0057896525 0.011266999
0001c0 50 a3 f7 3a 4d 29 48 bc 50 88 f7 bb f3 66 02 bc
       0.0018893275 -0.012216878 -0.0075540915 -0.007959115
0001d0 d1 4f b7 3b 81 c6 25 bb 8c 52 cc bb ca c8 12 bc
       0.0055942317 -0.002529532 -0.0062354263 -0.008959005
0001e0 84 a2 eb ba 8b d8 11 3c 67 ea 1a 3b 01 ae 59 bb
       -0.001797751 0.0089017255 0.002363825 -0.0033215287
0001f0 01 c4 a7 3a 2c c4 5b 3c 9a dc 54 3b d7 52 e7 3b
       0.0012799503 0.01341347 0.0032480122 0.007059436
000200 68 f6 41 bc 56 79 d8 bb 0a 51 84 3c 6a 33 92 bb
       -0.011838533 -0.0066062612 0.016151924 -0.0044616954
000210 43 8e 5f 3b 0a 7d e7 3b 8b 4d 69 bb a2 d8 b3 bb
       0.0034111894 0.0070644664 -0.0035599198 -0.005488471
000220 be 82 86 3c c3 bb 1b 3c 99 97 df 3a 2f 53 72 3b
       0.016419765 0.009505215 0.001705873 0.003697585
000230 76 c1 ef b7 4c de 14 3c c5 d7 cf ba a9 4c 1e 3b
       -2.8581107e-05 0.009086203 -0.0015857151 0.002415458
000240 46 71 9c 3b 3b 05 30 3c 80 54 08 bc 9d d3 37 bb
       0.0047742454 0.010743435 -0.008320928 -0.0028049715
000250 0b ad 43 bc bd 91 19 3c 94 06 76 bb 9f 4c fe 3b
       -0.011943112 0.009373126 -0.0037540542 0.007760599
000260 a0 18 5c bc 2f 2d 05 ba 06 dd b1 3a 12 27 8e bb
       -0.013433605 -0.000508028 0.0013569898 -0.0043381536
000270 4c 9d 02 bb 00 55 35 3c 91 50 5d bb a3 cc 72 3a
       -0.0019930182 0.011067629 -0.0033769945 0.00092620606
000280 5c 78 6e bb f3 24 41 bc a8 78 cc bb 84 be 30 bb
       -0.0036387658 -0.011788595 -0.0062399693 -0.0026969025
000290 b0 78 38 bc ec 8f e0 ba da 2d fa 3b 55 c2 e9 bb
       -0.011259243 -0.0017132736 0.0076348605 -0.007133762
0002a0 aa fc 02 3c 1d 28 9f ba c9 b1 66 3c c3 05 34 bb
       0.00799481 -0.0012142692 0.014080473 -0.0027469255
0002b0 1e d0 29 ba 04 72 8f 3b 7c bf 8d 3b 55 f4 a0 bc
       -0.000647785 0.0043776054 0.004325805 -0.019647757
0002c0 4e 1f 16 3c 84 bf 45 3c 5a 9d a5 3b ae 5b 68 3b
       0.009162737 0.012069587 0.005054158 0.0035455036
0002d0 6a 56 e7 3b 5e c3 88 3b 84 6b 28 bb b6 4a 54 3a
       0.007059862 0.00417368 -0.002569885 0.0008098291
0002e0 8f a4 ac 39 a2 69 4c 3a 32 72 80 bb a4 66 87 bb
       0.00032929002 0.0007797723 -0.003919863 -0.0041321088
0002f0 74 68 9c 3c 16 0b 15 bb 03 59 f9 3a 1d ed ce 3b
       0.019092776 -0.0022742203 0.001902372 0.006314887
000300 92 dc 6d bb 19 c2 2f 3b 38 07 5a 3c 36 b6 81 bb
       -0.00362948 0.0026818572 0.013307385 -0.003958489
000310 85 24 2a 3b e2 33 3e bb 59 1f db 3b d2 80 93 bb
       0.0025961709 -0.0029022624 0.0066870865 -0.0045014406
000320 a5 31 b2 bc 86 3a ef bb 84 6c 50 3b 68 ca 01 3c
       -0.021752188 -0.0073006777 0.0031802962 0.007921793
000330 86 2c 5e b9 79 bc a1 3a e9 ac b1 3b 83 52 93 bb
       -0.00021188156 0.0012339494 0.005422224 -0.00449592
000340 d5 32 69 bc 86 2f 02 3c 2c a9 f9 38 51 2d 81 bb
       -0.014233311 0.007945901 0.00011904756 -0.0039421697
000350 0b 83 bd 3b 87 1f f4 3b 2b 31 da 3b b2 a0 86 b9
       0.005783444 0.0074500474 0.0066586933 -0.000256782
000360 32 0f d6 3b b6 97 07 bc 5b 47 df bb f6 c2 51 ba
       0.006532573 -0.008275917 -0.006813926 -0.0008001769
000370 88 7a 43 bb 6c 41 32 bb c7 65 27 3c fb 5c 07 bb
       -0.0029827673 -0.002719964 0.010217137 -0.0020654786
000380 3f 2c f6 3a d6 d8 ad 3c c8 a8 58 3b 1d 39 b6 bb
       0.0018781497 0.02122156 0.0033059586 -0.0055610077
000390 b7 3b a8 3b 46 36 53 bc f6 db 81 3c 3a ab 27 3c
       0.0051340717 -0.012891358 0.015851956 0.010233695
0003a0 6a 11 36 bc d5 79 f5 bb 4e a4 81 3a 3e 7e 1d 3b
       -0.01111255 -0.00749133 0.0009890886 0.0024031545
0003b0 81 65 90 3b 9b f4 ae 3b e5 f4 39 3b aa 2d 3d 3c
       0.0044066315 0.005339218 0.0028374728 0.011546532
0003c0 53 eb a1 bb 66 1d 7c 3b d2 be 43 3a 5f 47 7a bb
       -0.004941383 0.0038469671 0.0007467094 -0.0038189513
0003d0 24 5f a4 bb 2c d6 88 3b d8 0b 8e 3c 70 36 7d bc
       -0.0050162245 0.004175922 0.017339632 -0.015454873
0003e0 fd d2 64 bb eb 2d bd ba ea 17 4b 3c 27 5f 1e 3b
       -0.0034915798 -0.001443324 0.012395838 0.0024165602
0003f0 0c 36 36 3b ed c6 73 bb 54 ff 7c 3c 21 1e 55 3b
       0.002780321 -0.0037197426 0.015441734 0.003251918

network_body._body_endoder.seq_layers.2.weight f4 [256, 256]
000000 3f ce 36 3c 39 52 a8 bd 73 53 cc 3d b3 3f 11 be
       0.011157571 -0.08218808 0.09976854 -0.14184456
000010 2e d4 89 3d 83 31 40 3d b3 d0 a3 3d d4 60 72 bd
       0.06729923 0.046922218 0.079987906 -0.059174374
000020 7d 93 2e bd fc 3b c7 bd 83 98 cb 3c da 23 9e bd
       -0.042621125 -0.09728238 0.024852997 -0.07721682
000030 e9 bb de bd ca 0e 03 bd 26 1d b3 3d d6 9a 0a be
       -0.10875685 -0.031996526 0.08745794 -0.13535628
000040 c0 46 c0 3c 04 54 8d bd 33 d3 6b 3d dd 38 bf 3d
       0.023471236 -0.0690079 0.057574462 0.09337018
000050 41 3c a7 bd 94 7a c1 bd f2 f5 49 bd d1 e5 0d bc
       -0.081657894 -0.09447208 -0.049306817 -0.0086607495
000060 67 b5 17 bc 47 0e 29 3d b4 99 8d bd 59 51 06 bb
       -0.009259558 0.04127338 -0.06914082 -0.0020495264
000070 81 6d 13 3c c4 eb b4 bb d0 40 01 bc 6d 04 98 bc
       0.008998276 -0.0055212695 -0.007888988 -0.018556798
000080 f2 09 cd bd 60 d4 8b bd 2e f9 43 3d 90 72 fe 3c
       -0.100116625 -0.06827617 0.04784506 0.031060487
000090 5d 17 ec bd e9 c1 b1 3c e6 9c d1 bd b1 1c 65 bd
       -0.11527894 0.021698909 -0.10235004 -0.055935565
0000a0 c4 2b 66 bb 08 e8 ae 39 58 6c b6 bc 14 06 f3 3d
       -0.0035121301 0.00033360743 -0.02226846 0.11866394
0000b0 7a 8b a7 3d e2 5c ac bd af 14 68 3d 96 ba b6 3c
       0.081809 -0.084161535 0.05666035 0.022305768
0000c0 84 63 95 3d 51 d4 e9 3b 4a 4d 19 3d 3b fd 3d bd
       0.07294372 0.007135906 0.037427224 -0.046384078
0000d0 13 f9 08 3d 36 da 68 3d ac 2b 17 3d bb c1 1c bc
       0.03344066 0.056848727 0.036906883 -0.009567673
0000e0 66 eb 1b 3d 3f 7f 12 3d de af 99 3d 42 f6 66 3d
       0.03806629 0.035765883 0.07504247 0.056387194
0000f0 1e 41 fc bc 04 62 a4 bd f2 9e 43 bc 03 98 51 3c
       -0.030792769 -0.080265075 -0.011939751 0.01279259
000100 fb 86 a0 3d c0 eb a4 bd 2b ad 1a 3c dd 93 03 3d
       0.078382455 -0.08052778 0.0094407005 0.032123435
000110 9c 4a 1f bd b3 47 e9 bd b6 d7 26 3d 0f 3e f3 bc
       -0.038889512 -0.11390629 0.04073306 -0.029692678
000120 97 e2 c5 3c 7f 7d 4f bd d2 23 de 3d 38 0d 9a 3d
       0.024155898 -0.05065679 0.10846676 0.075220525
000130 8d 7f 8a bd b0 ea 15 3c 40 92 f6 3c 93 9b 6e 3c
       -0.0676261 0.009150192 0.030099034 0.014563459
000140 1b 46 9a bc e1 26 b6 bd b7 37 0c be 88 cc 84 bc
       -0.018832257 -0.08894134 -0.13693129 -0.01621081
000150 99 2b 79 bd 5b 49 22 be 4d 27 c0 bb 17 da af 3c
       -0.060832594 -0.15848295 -0.00586406 0.021466298
000160 b5 10 96 bd ad 42 6c bc 41 ba fe bc 28 42 7c 3d
       -0.07327405 -0.014420194 -0.031094672 0.06158653
000170 ed df e1 bd a4 0e c8 bc 25 8d 38 bd 5b 78 e3 3c
       -0.110290386 -0.024421044 -0.04505648 0.02776735
000180 a5 8b 09 3e 9c d6 7d 3c ce c5 35 3d 58 6d 1f be
       0.13432176 0.015493061 0.044378094 -0.15569055
000190 ba 60 d9 3d 46 ec 7d bd 31 0e 2c 3d 3a c9 a3 bd
       0.10614152 -0.061992906 0.04200572 -0.07997365
0001a0 bb 77 1b bd 4e d1 ff 3c 01 54 2f 3d 5f 71 b1 bc
       -0.03795598 0.031227734 0.04280472 -0.021660505
0001b0 92 ba cc 3d fb 76 91 bd 55 b4 4c ba 90 b8 cf 3c
       0.09996523 -0.07102772 -0.0007808854 0.025356561
0001c0 7c 9a 2c be 0d 5c 4a 3c e7 1a 80 3d 69 6d f6 bc
       -0.16855806 0.012351048 0.06255131 -0.030081468
0001d0 97 be 52 bd c1 ce b9 3b e3 11 a0 3d 62 0a 7f 3d
       -0.051451292 0.005670399 0.078159116 0.06226576
0001e0 3f 1e 04 3d ee 04 cf 3c 4e d5 12 3a 5a 73 f6 bd
       0.032255407 0.025270905 0.0005601243 -0.1203372
0001f0 45 89 7a 3a 98 d6 77 3c b3 7f de 3b 66 f2 6c bd
       0.0009557198 0.015126847 0.0067901253 -0.057848357
000200 f0 56 49 3d d1 a1 3c 3d 7c 35 2e bc 75 14 8b 3d
       0.049155176 0.046052758 -0.010632869 0.06791011
000210 2a cb 20 bc 1f 4b 8a bb 7c 12 88 3d d4 6f 64 bd
       -0.009814063 -0.004220381 0.066441506 -0.05577071
000220 a6 f4 d8 3d 9d 08 56 3d d6 33 4e bc a5 b1 02 be
       0.10593538 0.052254308 -0.012585601 -0.12763079
000230 74 dc 11 bd c0 0a 50 bd cf 45 05 3b 65 30 23 3d
       -0.03561063 -0.050791502 0.0020335799 0.039841074
000240 c7 fb 06 3e f4 7b 2e bd 72 d3 30 3d f3 af f1 3c
       0.13181983 -0.04259868 0.0431704 0.029502844
000250 03 68 6c 3d 26 95 b3 3d 11 f0 13 3d 7b 08 2e bd
       0.05771638 0.08768682 0.036117617 -0.042488556
000260 95 cf dc 3c 6c 49 ae 3d 2e 83 02 3e 44 5b 89 bd
       0.026954452 0.08510098 0.12745354 -0.06706861
000270 17 7f b4 bc 4d bb c2 bc 35 aa 51 bd 35 79 90 bd
       -0.022033257 -0.023770953 -0.051187713 -0.070543684
000280 f9 45 ad 3a 3e 25 9e 3c c4 ee 31 bd a8 6a 40 3d
       0.0013219706 0.019304868 -0.043440595 0.046976715
000290 90 6d be bd 76 d9 de 3d 0e 40 08 3d da 40 21 bd
       -0.09298241 0.10881321 0.033264212 -0.039368488
0002a0 54 c5 d8 3d 0a 74 6a 3d ab 23 49 bd f4 09 78 3d
       0.10584512 0.05723957 -0.04910628 0.060556367
0002b0 0c ec cd bc 48 09 68 bd 1f aa 08 bd 69 37 0a 3d
       -0.02513697 -0.056649476 -0.033365365 0.03374425
0002c0 e6 0c 39 3d 19 27 8a bc fe 4a 1a 3e 77 08 b4 3d
       0.045178317 -0.016864346 0.1506767 0.08790677
0002d0 0e 1d 83 bc 0f 0d 58 3c b5 79 56 bd b8 16 84 3d
       -0.016005065 0.013186707 -0.052362163 0.06449646
0002e0 68 5a 53 3c 2a c0 fd 3d 34 26 c1 3b 0d 7a 2b 3d
       0.0128999725 0.12390168 0.0058944467 0.041864444
0002f0 86 ec 16 bc 33 3a 6f bb 57 ee f2 3c 73 58 eb 3c
       -0.009211665 -0.0036503195 0.029654665 0.0287287
000300 7d 3b 41 3d 28 ab c8 bc 40 f9 00 bd 13 c1 09 3e
       0.047175873 -0.024495676 -0.031487703 0.13452558
000310 73 04 40 3d c8 22 0b bd 21 de 26 3d 03 1d 84 bd
       0.046879243 -0.033968717 0.040739182 -0.06450846
000320 18 cc 07 3e e2 26 35 bd e7 6c a4 3c c3 38 5a 3b
       0.1326145 -0.044226535 0.02007146 0.0033297993
000330 9d 96 fc bc b4 46 38 bc 88 7d 7f bc 53 61 b4 bd
       -0.030833537 -0.011247326 -0.015593894 -0.088076256
000340 c3 fe 00 3d 43 9c b0 3d 81 77 a7 bc 48 4b 89 3d
       0.03149296 0.086235546 -0.020442726 0.06703812
000350 de b0 5e 3c fc fc 1d be d5 7c 23 bc 65 4d 18 3e
       0.013591973 -0.15428537 -0.009978493 0.14873274
000360 15 c3 6b 3d 57 63 21 bd 2a 64 83 3d 1e 21 0f 3e
       0.05755909 -0.03940138 0.06415589 0.13977477
000370 db 38 20 ba 8e ed 5f 3d f2 0e 66 ba 0f c2 29 bd
       -0.0006111988 0.05466991 -0.0008776031 -0.041444834
000380 9b 6f 68 3c ad 12 9e bc 08 2f da 3d f9 95 94 3d
       0.014186765 -0.019296015 0.10653502 0.072551675
000390 db 32 0b be 55 7e b1 3c 03 de 83 bd c6 7a d6 3d
       -0.13593619 0.021666685 -0.0643883 0.10472636
0003a0 86 56 eb 3d a7 a3 a6 3c b5 53 f6 3b 06 b1 a4 bd
       0.114911124 0.020341707 0.007517303 -0.08041577
0003b0 8e fe 89 3d 99 d1 a7 bc e6 54 a5 3d a9 83 95 bd
       0.067380056 -0.020485686 0.08072834 -0.07300503
0003c0 ff e6 b3 bd 08 a1 64 bd 4c bf 1d bd b6 32 ae bd
       -0.087842934 -0.055817634 -0.038512513 -0.08505766
0003d0 c3 ea f6 3d b1 b2 db 3d 05 30 bf bc 5a d3 c4 3c
       0.12056496 0.10727442 -0.023338327 0.024026562
0003e0 d4 d9 ed 3c 4a a7 a2 3c 36 7b bb bd bf b9 3d 3d
       0.029034533 0.01985516 -0.0915436 0.04631972
0003f0 c3 7f 81 ba a2 95 dd 3c b1 84 ba bc 6d 7a 79 bd
       -0.0009879995 0.02704889 -0.02276835 -0.06090777

network_body._body_endoder.seq_layers.2.bias f4 [256]
000000 0e 20 b4 bb 0f 47 78 bb 77 ea f9 3b 63 24 8b 39
       -0.0054969853 -0.003788415 0.0076268273 0.00026539256
000010 b5 50 55 bc 2c 17 90 bb 8c 12 1b 3c f4 4d 05 bc
       -0.01301973 -0.0043972936 0.009464871 -0.008136261
000020 69 29 c5 3b 38 05 e4 3b b2 d4 91 3b 09 06 6b 3a
       0.0060168994 0.00695863 0.004450404 0.0008965438
000030 f4 e0 82 bb 1f af de 3b c4 9c 95 3b 54 a8 26 ba
       -0.0039941017 0.0067957784 0.004565807 -0.00063574803
000040 ac 42 86 3b b5 05 1d bb fa 70 c7 ba b2 f4 22 3c
       0.0040973034 -0.00239597 -0.0015216165 0.009946035
000050 5c 56 18 3c 45 85 52 3c cf 72 2b bc cc e3 27 3c
       0.009297933 0.012849157 -0.010464384 0.010247182
000060 4a 89 21 3b 30 3f 01 ba 4b 11 19 3b 17 2d bb ba
       0.002464848 -0.0004930375 0.0023356255 -0.0014280406
000070 92 34 53 bc 0a cd 3c b9 95 c3 d7 bb d3 f9 c0 3b
       -0.012890952 -0.0001800546 -0.0065845945 0.0058891564
000080 ac 51 44 3b 75 e3 c4 bb 35 cd 78 ba 08 f1 03 3c
       0.0029955907 -0.0060085603 -0.00094910274 0.008053072
000090 41 62 00 3a 6d 48 b5 3b c2 5b 99 3b 9d a2 65 bc
       0.00048974535 0.0055323155 0.004680128 -0.014015821
0000a0 86 b2 ff 3a de 1e ec ba ae 6c 87 3b 6b c0 98 bb
       0.001950816 -0.001801457 0.0041328287 -0.00466161
0000b0 99 43 20 bc 7a d0 7a 3a dd 52 53 39 f1 6a e6 3b
       -0.009781742 0.00095678086 0.00020153397 0.0070317914
0000c0 25 c1 06 bb b6 cf fc bb e6 14 47 39 12 f3 f8 3a
       -0.00205619 -0.0077151908 0.00018985904 0.0018993339
0000d0 e3 d1 38 3b 75 d2 8a 3b 18 0f 04 3c 44 4c 5b bb
       0.0028201274 0.004236514 0.008060239 -0.0033462206
0000e0 39 03 73 3b c4 e9 3d 3a 79 88 a3 3b b8 9a 06 bb
       0.0037080778 0.00072446116 0.004990634 -0.0020538997
0000f0 24 6e 02 bc 08 d1 23 3c d8 a8 29 bb 19 c0 1a bb
       -0.00796083 0.009998567 -0.0025887992 -0.0023613034
000100 aa af 0d bc dc a0 3d bb fe 74 a1 bb 1f 27 36 ba
       -0.008647839 -0.002893499 -0.0049272766 -0.00069485785
000110 13 55 0a 3c 76 22 32 bb d4 f3 ae bb a6 2b 8a 3b
       0.008443135 -0.0027181185 -0.005339125 0.004216629
000120 92 62 32 3c 74 35 50 3b 01 07 0e 3c bf 85 82 ba
       0.010887759 0.0031770142 0.008668662 -0.0009958072
000130 e1 0e 46 3c 4c 93 f8 ba b9 e5 d6 ba f7 90 9d 3a
       0.012088508 -0.0018964796 -0.0016395367 0.0012021352
000140 1f f6 38 3b e1 95 cc 3b 85 22 13 3c c6 62 c8 3b
       0.0028222871 0.006243453 0.008980398 0.0061152903
000150 42 63 0f 3c f1 6d 8c ba 50 13 02 3c 25 73 ef b8
       0.008751692 -0.0010713917 0.007939175 -0.000114178554
000160 76 10 36 3b 24 3e bf 39 d8 9a 3c 3b 78 41 80 3c
       0.0027780808 0.00036476657 0.0028778818 0.015656218
000170 90 31 94 bb 7f 2e a9 39 63 ee 36 bc 47 55 d1 3b
       -0.00452251 0.00032268834 -0.011165234 0.0063883397
000180 c7 e8 24 3b 0a 93 ee bb b2 62 c6 3b 89 38 cc bb
       0.002516316 -0.007280712 0.006054246 -0.0062323255
000190 42 3c fe 38 04 c1 0f 3c 9b 9d 24 3b 31 18 50 bc
       0.00012122888 0.008774046 0.0025118354 -0.01270108
0001a0 33 27 21 3c da e5 db 3b 13 51 d6 3b 9c 67 fc bb
       0.009836006 0.00671075 0.0065404265 -0.007702781
0001b0 e9 e3 9d 3b 91 dd 23 3b 61 ee 57 bb 58 a1 7e 3c
       0.004818429 0.002500389 -0.0032948481 0.015541397
0001c0 23 5b 6c b9 db 2b d9 bb ee 0f 04 bc 50 e2 1f bc
       -0.00022540665 -0.0066275424 -0.008060439 -0.009758547
0001d0 45 8d be 3a d5 70 a4 bb 07 70 0e 3b 5f e6 d7 3a
       0.0014537951 -0.0050183334 0.0021734254 0.0016471854
0001e0 76 2f 37 3c 40 ae 8d 3a 1c 7b ac bb 7a 0b 1c 3c
       0.011180749 0.0010809377 -0.005263699 0.009524221
0001f0 d5 4f d9 3b 01 1f c9 3b 27 41 0f b9 79 8c 68 bb
       0.006631831 0.006137729 -0.00013661814 -0.003548412
000200 28 89 56 ba 47 74 d1 bb 55 2f be 3b 96 cd 97 3b
       -0.000818389 -0.006392035 0.0058039823 0.004632662
000210 88 dc 18 3c b6 be 07 3c c0 39 6c 3b b0 0b 9e 3a
       0.0093299225 0.008285215 0.0036045164 0.0012057927
000220 de 95 b1 ba 16 c6 f0 39 cb cf 58 bb 41 12 eb 39
       -0.0013548692 0.00045923953 -0.0033082839 0.00044836293
000230 fe 66 99 3b 4a 80 c7 b9 8f cf dc bb bb 56 2e bc
       0.004681467 -0.0003805182 -0.00673861 -0.010640795
000240 77 b5 08 3c da de 50 3b e7 e8 b2 3a 43 d2 5b 3a
       0.008344046 0.003187111 0.0013649733 0.00083855184
000250 4f 72 40 3b 98 45 2e b9 0e 72 1a 3c 0a 93 22 3c
       0.0029365008 -0.00016619859 0.009426607 0.009922752
000260 dd eb ac 3b 14 50 0a bc 1d 13 25 3c 07 61 32 ba
       0.0052771405 -0.008441944 0.010075358 -0.00068046193
000270 1b b4 25 bc bb 65 7f bb 2a 4e f5 ba 33 4c 8f 3b
       -0.010113741 -0.0038970548 -0.0018715311 0.0043730973
000280 ae a4 48 3c 3f 62 04 bc 3d e4 44 3b 50 b2 95 bb
       0.012246294 -0.008080064 0.0030043267 -0.0045683756
000290 1d 6e 0e 3b c0 a2 92 3b 68 04 88 bb 13 38 00 39
       0.0021733113 0.0044749677 -0.004150916 0.0001222792
0002a0 3f 4b 0e bc 8f e8 31 b9 79 30 29 3c 52 91 f9 3b
       -0.008684932 -0.0001696667 0.010326498 0.0076162005
0002b0 d0 fe 5e 3b 8d b3 56 3b a8 06 0a 3c 1e 2e 06 bb
       0.0034026392 0.003276083 0.008424439 -0.0020474265
0002c0 2d 12 f4 3a 0f bd ec 3b 7d 6d b2 3b 22 98 11 3b
       0.001862114 0.007224686 0.005445181 0.0022215922
0002d0 f1 64 06 3c 58 d5 31 bc 66 26 d7 3b 1a 55 c5 bb
       0.008202777 -0.010854088 0.0065658567 -0.006022108
0002e0 75 2f 37 3c 2d 2c e5 3b a8 e1 cf bb 37 c7 b1 bb
       0.011180748 0.0069937916 -0.006344039 -0.0054253596
0002f0 95 c1 a3 bb 63 77 a3 3b 17 80 a4 3b e5 35 bd 3b
       -0.004997442 0.0049885972 0.0050201523 0.005774247
000300 87 d0 a4 3b 51 ca a5 3b 8b 91 15 bb 2a 9c 07 bb
       0.005029741 0.0050595184 -0.0022822346 -0.0020692446
000310 7f 29 e6 3b 1d ac 87 3c 87 af f2 ba 5a 15 bb 3b
       0.0070239897 0.016561562 -0.0018515446 0.0057093324
000320 1a 25 c9 3a 6c 0c 15 bc e8 2a 91 bb 4c 36 60 3a
       0.001534614 -0.0090972 -0.0044301637 0.0008553013
000330 58 b9 38 bc 79 b2 cd bb 98 fa d8 3b f8 8d b5 ba
       -0.011274658 -0.006277379 0.00662167 -0.0013851514
000340 40 c5 12 bc 40 b3 25 bb ef e9 ae 3b e3 6a 7e bb
       -0.008958161 -0.0025283843 0.0053379457 -0.0038821034
000350 b3 ea 6a 3c 71 23 68 3b 67 95 33 3b 63 d4 ab bb
       0.014338183 0.0035421515 0.0027402283 -0.0052438243
000360 32 6e 42 3b 80 ff 78 3c 03 4e 5c bb c9 5a 90 39
       0.0029667732 0.015197635 -0.0033615835 0.0002753346
000370 69 8d 6c bb 99 84 4d ba 46 ba 4c ba 4b f0 aa 3a
       -0.003609503 -0.0007839888 -0.00078097393 0.0013041584
000380 25 e2 b9 3b de a2 7a bb 28 7f 27 3c 12 9b 07 3a
       0.0056727105 -0.003824405 0.0102231875 0.00051729486
000390 23 0a 09 bc f9 89 f2 b8 04 ef 3f 3b cb a5 98 bb
       -0.008364233 -0.00011565159 0.0029286752 -0.004658436
0003a0 9e 76 fd ba 03 63 09 3c 7b ad 59 3b dc 89 aa ba
       -0.0019337719 0.008385423 0.0033214975 -0.0013011056
0003b0 5c 23 1e ba 57 67 ae 3b b7 ea be ba b6 39 04 3c
       -0.00060324906 0.0053223777 -0.00145658 0.0080704
0003c0 92 fa 93 3b 07 89 8a 3b f6 9a 78 bb c1 67 01 bc
       0.0045159543 0.0042277607 -0.003793416 -0.007898272
0003d0 c3 93 88 ba 69 2d 55 38 71 35 4f bb 56 72 88 3b
       -0.0010420013 5.082545e-05 -0.0031617547 0.0041640205
0003e0 2a ba d2 3b ea 2e ad bb b8 52 70 3b af 1c 98 3b
       0.006430884 -0.0052851336 0.0036670398 0.004642091
0003f0 40 18 0a 3c 20 8d e3 3b 23 68 a2 bb 8c 4e 16 3b
       0.008428633 0.0069443136 -0.0049562617 0.0022935001

action_model._continuous_distribution.log_sigma f4 [1, 5]
000000 6e 71 ca 3c 6a 48 51 3c 38 33 3f 3c 32 99 00 bc
       0.02471229 0.0127736125 0.011669926 -0.007849025
000010 c8 db 19 3c
       0.009390779

action_model._continuous_distribution.mu.weight f4 [5, 256]
000000 e0 76 cb bc 49 fd 81 bc 1c 7b 8a bc 1b 9f 7f bb
       -0.024836957 -0.015867846 -0.016904406 -0.0039004746
000010 67 d7 92 3c 29 f2 18 3a 43 70 24 bc d3 bb 7e 3c
       0.017924977 0.00058344245 -0.010036531 0.0155477105
000020 2d 20 2e 3b 7f dc 25 bc ee 5b da bc d2 e6 97 3a
       0.0026569471 -0.010123371 -0.026655164 0.0011589176
000030 a7 9e 3a bb 83 e4 00 3b ca 6a cf bc fc ab 04 bc
       -0.0028475912 0.0019667454 -0.025319476 -0.008097645
000040 ec bf 44 3c ce 7b 7a bc 80 48 48 bb e6 2d 9c bc
       0.012008648 -0.015288306 -0.0030560791 -0.019064855
000050 ad a8 04 ba e2 a0 af bc 53 fd 3c 3c e8 72 ed bc
       -0.0005060535 -0.02143902 0.011535007 -0.028985456
000060 2e 65 ee bb 28 54 0b 3c 94 1e 71 3c 29 db 8e bc
       -0.007275245 0.008503951 0.014716763 -0.017438488
000070 b6 9f 39 3b d9 53 b6 bb a7 fa 7b 3c 8e 87 00 3c
       0.0028323955 -0.0055641946 0.015379584 0.007844819
000080 07 f7 5a 3c 8d 20 12 3b c6 82 37 3a d5 fb 60 bc
       0.01336456 0.0022297234 0.0007000383 -0.013731916
000090 4e 77 74 ba 6e c6 68 bc 7d 8a 2a bc 27 60 00 bc
       -0.0009325639 -0.014207466 -0.010408995 -0.0078354245
0000a0 b7 00 69 bc 6f 0e 3a bc e0 9e c0 bc af 70 8a bb
       -0.014221362 -0.01135598 -0.023513258 -0.0042248587
0000b0 50 d8 39 3c 72 67 8b bc 54 9a 6e bb a1 d5 8b 3c
       0.011343077 -0.0170171 -0.0036407905 0.01706964
0000c0 90 18 64 bc 45 9f 6e bc 78 9d 90 b9 9d c4 27 3c
       -0.013921872 -0.01456434 -0.00027583144 0.010239747
0000d0 e3 99 b1 bc 76 d8 04 bc 74 f4 48 3c c1 9f 75 3b
       -0.021679824 -0.008108249 0.012265313 0.0037479254
0000e0 a7 1d 9c 3c 79 f5 71 3c 58 d5 09 3c 29 a5 87 bc
       0.019057108 0.014767998 0.0084126815 -0.016558247
0000f0 2c 36 d6 3a c8 f3 82 3c d5 68 ff 3b 27 f4 80 bb
       0.0016343049 0.015985385 0.0077944794 -0.003935355
000100 68 33 00 3c 5d d6 c8 3b c3 cb 91 3b 04 68 1a bc
       0.007824756 0.0061290697 0.004449339 -0.009424213
000110 98 f7 bf 3a aa b4 5e 3a 1a 95 d7 3c 17 26 bc bc
       0.0014645932 0.0008495549 0.026316214 -0.022967381
000120 66 33 6f bc c2 2a ac bc 36 98 74 3c 88 6f af bc
       -0.014599657 -0.021016482 0.014928868 -0.021415487
000130 9e 4e ab 3b 2b d9 94 3c 8f 7f 2f bc 5a ab 02 bd
       0.0052278778 0.01816996 -0.010711565 -0.031901695
000140 a3 42 a8 bc 65 2a c1 3c 22 18 ac bc c9 7f 0a bc
       -0.020539587 0.023579786 -0.021007601 -0.008453318
000150 0c ea de bc a4 a2 ea bb fa 23 b0 bc b9 39 21 bb
       -0.027211212 -0.0071605016 -0.02150153 -0.0024601056
000160 a3 e3 92 3c 14 55 c2 ba 4e ea bf 3b 68 cb 22 3b
       0.017930811 -0.0014826381 0.0058567887 0.0024840478
000170 44 6b b8 bb b7 78 a4 3b 7b 70 b2 3c e3 a1 20 3c
       -0.0056280214 0.005019273 0.02178215 0.009804222
000180 af c3 c4 bb c6 ae 4b bc 1b 30 6d 3a a0 58 8d 3a
       -0.0060047726 -0.012431806 0.0009048001 0.0010783859
000190 29 d4 de 3a 0b b2 05 3a fc c0 de 3b 04 47 32 3b
       0.0017000485 0.0005100078 0.006797908 0.0027202973
0001a0 d3 cb b8 bc 80 4c ae ba fb 6d ea b9 70 a5 64 bc
       -0.022558128 -0.0013297945 -0.000447139 -0.013955459
0001b0 42 9d 2f ba e0 bb 0a 3c a9 fa 37 3c ff 67 36 3a
       -0.00066991535 0.008467644 0.011229196 0.00069582456
0001c0 a3 ef cf 3b 34 2a d0 3c 03 82 15 3c eb a3 45 3b
       0.0063457056 0.025410749 0.0091252355 0.0030157517
0001d0 ba 6c 9e bb 5d 9f 1c 3c e0 1a e3 ba 77 fc b4 3c
       -0.0048347386 0.00955948 -0.0017326735 0.02209304
0001e0 76 0c 02 bc 02 57 dc bb 69 6e b2 3b 91 3c a7 bb
       -0.007937541 -0.0067242393 0.005445291 -0.0051036556
0001f0 70 dc 3b bc 94 cb 92 bb a9 75 05 3c ea c9 bb bc
       -0.011466131 -0.004479835 0.008145728 -0.022923429
000200 df 33 9f bc 23 ab f3 3c c7 84 9b 3c d6 ba 0c bc
       -0.019433914 0.02974469 0.018984212 -0.008589467
000210 36 d9 7e bb 13 11 79 bc c0 6d 00 bd c7 7b 39 bc
       -0.0038886792 -0.015201825 -0.031354666 -0.011321015
000220 2c 86 15 3c 92 32 67 3c f9 a6 83 bc 61 06 9c bb
       0.009126227 0.014111178 -0.01607083 -0.0047615026
000230 fc 89 0c 3c 26 59 91 3c 10 e4 76 3c b4 c9 a2 3b
       0.00857782 0.017742705 0.015069023 0.0049678925
000240 bf e0 e4 3b 0c 0c 38 bc d5 57 40 3c 62 af 95 3c
       0.0069847996 -0.011233341 0.011739691 0.018272106
000250 66 d4 a3 3c a4 c7 60 bb f1 0d ce bb 5a 32 e0 bb
       0.01999874 -0.0034298683 -0.006288283 -0.00684194
000260 6a f3 b0 ba 6a 7d 5a bb 22 e5 20 bc 28 34 ee bb
       -0.0013500277 -0.0033338913 -0.0098202545 -0.007269401
000270 44 11 15 3c f2 14 15 ba 6e db 11 3c e4 05 72 3b
       0.009098355 -0.000568702 0.008902414 0.003692978
000280 52 53 b0 bc 9e 04 17 bc bc 99 bc bb b3 b6 bf 3c
       -0.021524105 -0.009217409 -0.0057556313 0.023402547
000290 3e c3 f0 bb a2 21 2c 3b 10 b6 9b bb 8c 9f 4a bb
       -0.0073474934 0.0026265164 -0.004751928 -0.0030917851
0002a0 a9 ba 97 3c c4 e4 e0 3a d9 1a 05 3c 77 09 cc 3c
       0.018521624 0.0017158021 0.008124077 0.024906857
0002b0 93 54 a0 ba 0b 8d 0c ba 45 ed 05 ba f1 ad 69 bb
       -0.0012232236 -0.0005361593 -0.0005108903 -0.0035656656
0002c0 84 6c c7 3a 1d eb f9 bb b8 2b 1f bc a1 f0 05 3d
       0.0015214835 -0.0076269046 -0.009715013 0.032700185
0002d0 2c c4 82 bc 67 e9 47 3c 4b f2 4d bb ae 56 30 3b
       -0.015962683 0.012201644 -0.0031424935 0.0026907134
0002e0 be 96 7e bc 10 7a 5b bc c5 3e c9 3c bb 0b 20 3c
       -0.015538869 -0.013395801 0.024566064 0.009768422
0002f0 27 92 56 3b f4 00 16 3c c2 08 9e bc da ed 86 bc
       0.0032740922 0.009155501 -0.019291285 -0.016470838
000300 f3 28 ae 39 56 bd ef 3a 0a cc 09 3c 20 8b 4d bc
       0.00033218376 0.001829068 0.008410463 -0.012545377
000310 77 82 01 3c bf b8 9b bb 83 22 1f bb 7a 07 8d bb
       0.00790464 -0.004752248 -0.0024282045 -0.00430387
000320 20 f5 ec ba 61 50 01 3c 94 01 e4 ba cc 5c a3 3b
       -0.0018078424 0.007892699 -0.001739549 0.0049854275
000330 62 20 87 3a cb 59 06 3b 86 52 be bb 56 b4 4a 3c
       0.0010309333 0.0020500298 -0.0058081774 0.012372097
000340 8f 2b 47 3c 12 8c 63 3c 3e 95 4a 3c 17 7b 80 3c
       0.012156381 0.013888376 0.012364684 0.015683694
000350 15 52 95 3b 30 b8 7c 3c 32 be 00 3d ea 86 cd bb
       0.004556904 0.015424773 0.031431384 -0.0062721865
000360 fa bf 01 3b 47 06 a6 bb ec bc 50 3c 5a 99 31 bc
       0.0019798265 -0.0050666663 0.012740355 -0.0108397845
000370 33 dc 61 bc 8e 68 f1 3b c4 71 a5 3a 6d a2 68 3b
       -0.01378541 0.0073672 0.0012622406 0.0035497204
000380 8a 00 45 bc 3f 77 64 3c 88 4e 39 bc 52 03 11 bc
       -0.012024054 0.013944446 -0.011310227 -0.008850889
000390 b9 c0 6f 3a ae b8 a4 bc 69 6a c3 3c 70 fb 5c bc
       0.00091458444 -0.020107593 0.023854451 -0.013487682
0003a0 09 ed 43 3c 15 5e 80 3c 3b 09 51 3c 5c 3a 2f bc
       0.011958369 0.015669862 0.012758548 -0.010695066
0003b0 8f 2b 30 3c ac 82 9d 3b 4e c1 e4 bb 03 a1 ab bb
       0.010752573 0.004806837 -0.0069810515 -0.0052377
0003c0 97 11 89 bb db b5 85 b8 5b ce b3 3b bc 75 d5 3b
       -0.004183005 -6.3758074e-05 0.005487246 0.006514279
0003d0 3c 2d f7 bb e9 c4 63 3c 99 47 7c 3c 6a 71 31 3c
       -0.007543234 0.0139019275 0.01539793 0.010830263
0003e0 8f 85 5b bb 30 bd 38 bc 5f de 61 3c e2 be 97 ba
       -0.0033496355 -0.011275575 0.013785928 -0.0011577273
0003f0 a9 8f 6e bb 2a 38 0f bb 35 cd ac bb 38 16 8e bc
       -0.0036401546 -0.0021853545 -0.005273486 -0.01734458

action_model._continuous_distribution.mu.bias f4 [5]
000000 9b 6c c2 bb 74 51 a7 3b 33 75 70 bb a7 74 40 3c
       -0.005933357 0.0051061455 -0.003669095 0.011746562
000010 cd a6 48 bb
       -0.0030617
