configfiles/results/hb_01/Hummingbird/Hummingbird-4999896.onnx (onnx, 330176 bytes, 7 tensors)

network_body._body_endoder.seq_layers.0.weight f4 [256, 55]
000000 72 8b 1a bd c1 73 db 3d 7d bf 05 be 07 5d a9 3c
       -0.03773064 0.10715438 -0.13061328 0.020674242
000010 71 f0 e7 3b 9a 3b 8a 3d 81 af a5 3c 83 1a 38 3e
       0.0070782234 0.06749649 0.020225288 0.17978863
000020 74 94 c2 bd 6c 80 77 3d 0e 24 9a 3d 25 2c 01 3d
       -0.095009714 0.060425207 0.07526408 0.03153624
000030 92 47 53 bd 14 c4 c8 3d 6b 2b 89 3c b0 d9 28 3e
       -0.051581927 0.09803024 0.016744336 0.16489291
000040 84 0c ec 3c fb 85 d6 3c 7c c2 81 3d fd 40 6c 3d
       0.028814562 0.026186934 0.06335923 0.057679165
000050 42 cb d9 3d 9f 30 52 3e 76 1e ac 3d 5b 5d 86 3d
       0.106344715 0.2052636 0.084042475 0.06560775
000060 bb 64 1a bc eb b9 e2 3d 29 67 8b bc db 47 4e bd
       -0.00942343 0.11070617 -0.017016964 -0.050361495
000070 66 07 8e 3d 81 7a fd 3c 71 69 1f 3e 0d a1 ad 3e
       0.06935005 0.030942203 0.15567566 0.33911934
000080 ff 2b 01 bd d5 b8 30 be a5 84 e3 bb 0d 23 69 be
       -0.0315361 -0.17258008 -0.0069433027 -0.22767277
000090 b5 f3 38 3e 35 0d 6c 3e 0b ed cc bd eb 90 34 3e
       0.18061717 0.23051913 -0.1000615 0.17633407
0000a0 8f b0 ec bc e8 68 98 3d cf 5a 96 bd 5a e2 db bd
       -0.028892783 0.07441884 -0.07341539 -0.107365325
0000b0 49 ab 60 3e 68 42 ea bd 91 89 36 3d 5c c5 84 3e
       0.2194034 -0.11438447 0.044564787 0.25931823
0000c0 fb 3d c3 3d d2 0d 3a 3e fd 63 0a be f4 d2 96 be
       0.09533306 0.18169335 -0.13514705 -0.2945782
0000d0 a9 68 63 3e 3b dd 44 3e 0e 26 fc 3d ba b4 98 3c
       0.22207893 0.19225018 0.12311946 0.018640865
0000e0 4a b2 3c 3e 98 68 40 3e ee 79 84 bd af 2f 11 3e
       0.18427387 0.187899 -0.06468569 0.14178346
0000f0 cc e2 bb bd 7f 24 e0 3d 15 fa d2 3d e4 10 ba 3d
       -0.091741174 0.10944461 0.103016056 0.09085253
000100 b8 2d 5a 3d 30 30 9e bc fa 84 f5 3c 88 07 22 be
       0.053266257 -0.019310087 0.029970635 -0.15823185
000110 91 a1 a7 bd 7d c0 2e 3e 38 ba 4b bc 33 0e a9 3e
       -0.08185113 0.17065616 -0.012434535 0.33018646
000120 5c c2 75 3d bb 30 9b be ce 24 ae be ad c1 de 3d
       0.05999981 -0.30310616 -0.34012455 0.108767845
000130 2c 2f 10 3d 79 e7 9d 3c de 6b 89 3e a2 03 c9 bd
       0.035201237 0.019275414 0.2684011 -0.09815146
000140 da 82 96 3e 90 d9 59 3d cb 8c af bc fc ed 17 3e
       0.29396707 0.053186 -0.02142944 0.14836878
000150 21 11 8e be 05 85 e6 3d 72 27 15 3e 75 bb db bd
       -0.27747443 0.1125584 0.14565828 -0.10729114
000160 2b ce 5e be 30 29 4e be 15 b7 62 3e 71 da 4d be
       -0.21758334 -0.201329 0.22140153 -0.2010286
000170 37 f9 7f bc 79 ec bd bd b6 b5 c3 3d 53 3c a9 bd
       -0.015623382 -0.09273619 0.09556143 -0.08263459
000180 5b 6e a2 3c 11 a9 a8 bd 78 df 03 3e b1 b2 86 3e
       0.019828012 -0.08235372 0.12878215 0.26308206
000190 1d 31 03 be f0 e5 63 be 22 31 e1 3d 64 97 2f be
       -0.12811704 -0.22255683 0.109956995 -0.17147595
0001a0 cc bb 04 3d b9 fc 23 3e e3 8e b3 bd 79 98 ad be
       0.03240566 0.16014375 -0.08767488 -0.3390539
0001b0 4b 85 99 be c5 fb d9 3d b2 51 a1 3d be 2b 1b 3d
       -0.29984507 0.10643724 0.0787691 0.037883513
0001c0 1a d4 80 bd 8b 5d 12 3e d7 dd 19 be 10 3d 46 3d
       -0.06290455 0.14293496 -0.15026031 0.048398077
0001d0 12 f3 97 be 29 94 fe 3a 35 58 c4 3c 0f 3e 66 bc
       -0.29677635 0.0019422817 0.023967842 -0.014052882
0001e0 27 36 d3 3d c8 5a 9b bb a7 e9 ef 3d be 52 40 be
       0.10313063 -0.0047410466 0.117144875 -0.18781564
0001f0 7a 98 dc 3d 17 29 08 3e b0 3d 73 3e 39 7b 0f be
       0.1077127 0.13296925 0.23754 -0.1401185
000200 c5 18 18 be 1f 7d 1e 3e 35 40 71 3d bd f6 df 3d
       -0.14853199 0.15477417 0.058899123 0.109357335
000210 0c c1 7f 3e 81 ed 6b 3e e0 fe 8e bd 4b 70 31 be
       0.24975985 0.2303982 -0.06982207 -0.17327993
000220 f6 d7 87 bd d7 f9 38 3e 79 b1 18 be a3 6f 9e be
       -0.06632988 0.18064056 -0.1491145 -0.30944547
000230 b7 cd 3a 3e 6c aa 9f bd cb 23 e4 3d 7f 2f 9a 3c
       0.18242536 -0.07796177 0.111396395 0.018821476
000240 32 7c 90 3d a3 c4 cc bd 45 57 f2 3c 42 aa c7 bd
       0.070549384 -0.09998443 0.029582629 -0.09749271
000250 78 54 35 3d 43 02 72 bd bf 07 2d 3e d1 c6 29 3e
       0.04427001 -0.05908419 0.16897486 0.16579749
000260 58 b9 ab 3c 9e a2 b2 bd 05 ec da bc fd 00 4d 3d
       0.020962402 -0.08722423 -0.026723871 0.05004977
000270 35 4f 83 bd e8 de 6e 3e 05 77 d2 bd 70 cb 77 be
       -0.06411592 0.2332722 -0.102766074 -0.24198699
000280 60 3a 16 be be 18 82 3e f2 48 cd bb 8b 85 e5 3d
       -0.14670706 0.25409502 -0.0062647993 0.11207112
000290 b2 43 bd 3d cf a4 6d 3e 6b b2 4f be cc 14 91 be
       0.092414275 0.232074 -0.20282905 -0.2833618
0002a0 b9 cf 95 3d 37 c5 ad 3d 90 22 0d be 15 bb 7e bd
       0.073150106 0.08484881 -0.13782716 -0.062190134
0002b0 35 38 1e bd 0c 29 49 bd c3 64 93 3d d9 d3 71 bd
       -0.038627822 -0.04911141 0.07196953 -0.059039924
0002c0 32 f0 20 be 9f d9 8b 3c 11 11 c5 bd 02 0c e7 bd
       -0.15716627 0.017071543 -0.09622396 -0.11281587
0002d0 18 d7 62 3d a7 99 8b 3e 15 a8 68 3d 5f 5b e0 bd
       0.05538091 0.27265665 0.05680092 -0.10954928
0002e0 2a db 98 bd a1 27 33 bd d0 6f 64 be 6b 0e 4d bd
       -0.07463677 -0.043738965 -0.22308278 -0.05006258
0002f0 0b a4 45 3d 04 d4 48 3d b7 5d bb 3d d3 00 15 be
       0.048252147 0.04903032 0.09148734 -0.14551096
000300 13 7c 9f 3b 67 20 88 bc 59 54 c4 3c a0 c0 e0 3b
       0.0048670857 -0.016617013 0.023966001 0.0068589
000310 cb 60 46 bc 94 5c c2 bc 92 86 f4 bd 45 75 d3 bd
       -0.012108038 -0.023725785 -0.1193973 -0.10325102
000320 59 72 0c 3e 22 a0 a1 3e 35 92 05 bd e6 7f df 3c
       0.13715495 0.31567484 -0.032610137 0.027282666
000330 fd 7a a1 3c 62 32 23 bd 61 44 af 3d a3 9c 60 be
       0.019711966 -0.03984297 0.08557964 -0.21934752
000340 dd 15 e1 bd d4 9a b3 3d 6b 4b 11 3e 2a 22 ba 3d
       -0.10990498 0.087697655 0.14188926 0.090885475
000350 ba 6c d9 3d 3e 5f ae 3c a3 72 9a 3e fe 63 25 be
       0.10616441 0.02128565 0.30165586 -0.16151425
000360 98 75 88 3e 42 9b da bd c6 2a 1b 3c 89 cc 60 bd
       0.26652217 -0.10674144 0.009470647 -0.05488256
000370 ce c4 a3 3d 19 c0 5e bd f2 08 83 bd 7b b4 22 be
       0.07996522 -0.054382417 -0.063981906 -0.1588916
000380 d4 68 16 3e 62 00 49 3a cd d2 a7 3d 1e 0c 26 bb
       0.14688426 0.00076675985 0.08194504 -0.0025336812
000390 53 04 22 3d 56 62 3d bd 16 d8 73 3d 8b e2 47 bd
       0.039554905 -0.04623636 0.059532247 -0.048800033
0003a0 30 25 5f be 64 97 84 be 8e dd fd 3d 1d 98 d0 3d
       -0.2179153 -0.25896752 0.12395774 0.10185263
0003b0 a3 f5 a1 bd 52 bc 11 be af 38 e6 bd 86 db b9 bd
       -0.079081796 -0.14231995 -0.1124128 -0.09075074
0003c0 2b 04 17 3d e5 d6 80 3c 81 51 cd 3c 47 da 25 be
       0.03686921 0.01572747 0.025063278 -0.16196547
0003d0 de 6e 0c 3d 4b 84 21 be 65 0b c8 bc 19 7a f1 3d
       0.03428542 -0.15773122 -0.024419496 0.117908664
0003e0 a2 92 4b 3e 5e ad 1c 3e 4f 2f 1d 3e 70 b6 fa 3d
       0.19880155 0.1530051 0.15350078 0.122418284
0003f0 3f 49 51 be 5c 0b 86 3d 69 95 58 bd 26 08 8e bd
       -0.20438097 0.065451354 -0.052876864 -0.06935148

network_body._body_endoder.seq_layers.0.bias f4 [256]
000000 8b 1a 49 37 02 b1 48 3d 61 1c 9a 3c 8a 9c cf bb
       1.1986714e-05 0.048996933 0.01881236 -0.0063357996
000010 14 f2 5e 3d 65 6c 19 3d d1 bf 2b 3c 87 f8 2c 3c
       0.054430082 0.03745689 0.010482744 0.0105573
000020 6a 6a 16 bc c1 23 07 bd 14 15 a1 3c cb 04 4a bc
       -0.0091806445 -0.032993082 0.019663371 -0.012330244
000030 98 bf 95 ba 68 f4 f7 3b 58 96 e4 3c fa 6f 18 3b
       -0.0011424897 0.0075669773 0.02790372 0.0023260103
000040 30 7f 48 3d 44 0c ba 3c 28 a1 8f 3c 9d db 00 bb
       0.04894942 0.022710927 0.0175329 -0.001966215
000050 b4 1b 8d bc 54 77 f2 3b bf 63 c4 3c b6 74 22 3d
       -0.017225124 0.007399479 0.023973344 0.039662085
000060 94 bd 41 3d 70 af c8 3c 1a 53 19 3d 4a f6 3f bc
       0.047299936 0.024497718 0.037432767 -0.011716435
000070 a0 3a 05 bc 5a e1 1c bb f6 43 01 3d 4a c3 51 3c
       -0.008131653 -0.002393803 0.031558953 0.012802908
000080 ad 36 43 bb 59 c0 5d 3c 38 ca b7 3b d1 1e b8 3c
       -0.0029787228 0.013534629 0.005608823 0.022475632
000090 d1 03 cc 3c 0d 4a 03 3d 34 b2 ec bc 7b 38 50 3c
       0.024904164 0.032053042 -0.028893568 0.0127087785
0000a0 bc a2 a6 3c 99 f2 c5 b9 be e6 03 3d e2 03 06 3c
       0.02034127 -0.00037755517 0.032202475 0.008179637
0000b0 37 90 c7 3c 3a 73 47 3b ca 51 dd 3c 2e 9c ee 3a
       0.02436076 0.003043367 0.02701654 0.0018204504
0000c0 c2 fe b1 bc 58 8c 58 3d ed 54 c0 bc d3 7a a0 3c
       -0.021727923 0.052868217 -0.023477996 0.019589817
0000d0 95 d7 96 3c f0 d8 eb 3c e5 d2 fa 3b d7 25 fa 3c
       0.018413344 0.028789967 0.007654535 0.030535622
0000e0 89 ad 8d 3c ee 86 82 3c f1 bd a6 bb a4 32 ba ba
       0.017294662 0.01593348 -0.0050885607 -0.0014205766
0000f0 6d be 16 3d 0a 17 5c 3c 44 69 ab 3b 7f 9c b1 3a
       0.036802698 0.013433227 0.0052310545 0.0013550668
000100 25 02 c6 3b 4b 1d 41 bb 15 ad a1 33 ac 8d 15 3c
       0.006042736 -0.0029466923 7.52863e-08 0.0091280155
000110 02 33 cc 3c 2e 99 5f 3d be a9 af 3c 56 82 87 3c
       0.024926666 0.054589443 0.021443244 0.016541641
000120 92 d2 f2 3c a8 75 ab 3c 42 e5 78 3d 7b 87 4a bc
       0.029641423 0.020930126 0.060765512 -0.012361403
000130 c1 5f fc 3c f1 ca c9 bb ec 3b ff 3c 96 52 12 3c
       0.030807378 -0.0061582257 0.031156503 0.008930823
000140 d4 e5 b8 3c 65 32 de 3c 7c 9d 95 3c c8 03 d3 3c
       0.022570528 0.02712364 0.018263571 0.025758639
000150 b3 72 03 3d fc a9 0b 3d 7a 2b 7c 3d dc d0 3f 3d
       0.032091808 0.034097657 0.0615649 0.046830043
000160 3d ac 0b 3c 19 6e 0b 3b d3 47 8c 3c be ef 20 bb
       0.0085249515 0.002127534 0.017124092 -0.002455696
000170 d6 6a e0 3c 54 4e f4 bb e1 2f 2f 3d 60 12 a8 bc
       0.027394693 -0.0074556265 0.04277027 -0.020516574
000180 9c 18 dd ba 5f 56 89 3b 01 bf a0 3c ab 5d 23 3b
       -0.0016868296 0.0041912044 0.019622328 0.0024927657
000190 26 12 12 3c a0 17 81 bb c0 ad 83 3c 3e d7 de 3b
       0.00891546 -0.003939584 0.016074061 0.006800561
0001a0 fc df ad 3b 0b 27 60 3c dc 6f 1c 3c c6 27 f2 bb
       0.005306242 0.013681184 0.009548154 -0.0073899953
0001b0 4b 0d b1 bb fa a1 0e bc b3 f2 c6 39 64 39 f8 3c
       -0.005403196 -0.00870561 0.00037946328 0.030300803
0001c0 cb 29 1d 3c d4 d8 2f 3c ad 0f 23 3c 9e 94 c1 3b
       0.009592484 0.010732848 0.009952468 0.005907609
0001d0 ca 7e 09 3d f8 86 cf bb 21 ea ca 3c 34 72 0a 3a
       0.03356818 -0.006333228 0.024769844 0.00052813
0001e0 e1 46 d2 3c 03 61 43 bc 82 61 8a bc ba 1a 7d 3c
       0.025668563 -0.011924985 -0.016892198 0.015448267
0001f0 88 40 30 3d e9 50 17 3c 07 ae b9 3c 53 4c 9a 3c
       0.04303029 0.009235599 0.02266599 0.018835222
000200 50 a0 e7 3b d8 14 aa 3b 6a 1a 4e 3d ff 0c 89 3c
       0.0070686713 0.005190473 0.05031816 0.01672983
000210 d0 93 dd 3c 0f 7e 9b 3c 76 5c 0a 3d 93 90 aa 3c
       0.027048022 0.018981008 0.033779584 0.020820891
000220 7a 43 7f ba 45 02 7d 3c 6c 88 dd 3c 86 c4 e1 3c
       -0.0009737533 0.015442436 0.02704259 0.02755953
000230 88 ca 6a bc 6d f7 63 3b 10 b6 e8 3b e1 41 06 3d
       -0.014330514 0.0034784928 0.0071017817 0.03277767
000240 1b e6 3e ba f4 7c 1a 3d 5b 64 fb 3c 9b dd 06 3d
       -0.0007282213 0.03771682 0.030687502 0.032926183
000250 9b 56 45 bc e5 81 14 3d ca 4d e3 3b fe 7d 3a 3d
       -0.012044574 0.03625669 0.0069367634 0.04553031
000260 0f 7a c9 3c 9b c8 f2 ba f5 e3 51 bb 38 14 03 3d
       0.024594335 -0.001852292 -0.0032026742 0.032001704
000270 e5 84 dc 3c e9 9e e6 3b d2 75 95 3d 74 42 6a bb
       0.026918838 0.0070379865 0.07297863 -0.0035745176
000280 f5 d3 d2 bb e5 3a ab 3c 16 23 e6 3b 1a e3 a1 3c
       -0.0064339587 0.020902107 0.0070232255 0.01976161
000290 09 c5 80 3c 08 c9 32 3a c8 0c da 3c 60 2f 12 3c
       0.015718954 0.0006820117 0.026617423 0.008922428
0002a0 ee de 9e 3c 95 77 8b 3c 9b 22 c0 3b 9e 5b 29 3d
       0.01939341 0.017024795 0.0058635003 0.04134714
0002b0 9e c0 2e 3c a8 3d 09 3b 64 fd 3b 3d 86 c7 c7 3b
       0.010666041 0.002094129 0.04589595 0.006096783
0002c0 2e e0 1f 3d a5 18 b7 ba 26 5d cd 3c bf c6 07 3d
       0.039032154 -0.0013969137 0.02506883 0.033148523
0002d0 b3 11 8f bc 8a 2c 71 bc dc b0 42 3c d8 21 0c 3d
       -0.017464494 -0.014720092 0.011882987 0.034211963
0002e0 dd 3e 9e 3c 94 ee 72 3c ea 68 34 bb 21 d6 a6 3c
       0.019317085 0.014827389 -0.0027528354 0.020365776
0002f0 ca 82 88 3c 69 d8 10 3d e7 d7 5d 3c 29 09 6d 3c
       0.016663928 0.035362635 0.013540245 0.014467516
000300 be 69 90 b9 55 73 ca 3c f1 67 56 3c 35 7c 37 bb
       -0.00027544604 0.024713198 0.013086305 -0.0027997617
000310 af 4c c2 3c 14 e1 c0 3a e5 bf b6 3a c9 26 9f 3c
       0.023718206 0.0014715516 0.0013942687 0.019427674
000320 39 a6 25 3d d8 95 f4 3c 43 20 81 bc 9b a8 8b 3c
       0.040441725 0.029856607 -0.015762454 0.01704817
000330 4f b3 ba 3b c8 d1 e4 bb 20 8d 8a 3c 6c 21 83 3c
       0.005697645 -0.0069830157 0.016912997 0.016007148
000340 31 fd 76 3c e6 10 38 3b be 51 ea 3c 32 ec 38 bc
       0.015075014 0.0028086244 0.02860343 -0.011286782
000350 db 61 f4 3c a5 8d 21 3d 2b f7 5a 3d c4 9c e5 3c
       0.029831817 0.039441723 0.053458374 0.028028853
000360 c1 97 07 3d 6f 51 e4 3c 79 04 8f 3d 6b ba 87 3c
       0.03310371 0.027870862 0.06983275 0.016568383
000370 f7 c6 18 bd 5d 87 ce bb a4 0c 20 3c 70 10 cf bb
       -0.037299123 -0.0063027577 0.009768639 -0.006319098
000380 ba 95 67 3c 81 1a 0b 3d 07 51 62 38 ab 85 15 bc
       0.014134819 0.033960823 5.395806e-05 -0.009126107
000390 e0 e2 e2 bb 1e d4 3c bb fe 54 a2 3c de 2a 0d 3d
       -0.0069240183 -0.0028812955 0.019815918 0.03446471
0003a0 df 55 de 3c 0f 30 4c 3c ef 40 99 3b 43 55 a5 3c
       0.027140556 0.01246263 0.00467693 0.020182258
0003b0 91 60 a2 bc 55 74 38 bc b0 30 6f bb 91 04 09 3d
       -0.019821437 -0.0112582045 -0.0036497526 0.03345162
0003c0 3c 70 0e 3d a8 f3 56 3c 8c 87 3c 3c 06 05 75 3d
       0.034775004 0.013119616 0.011506926 0.059819244
0003d0 6b db 3a bd c8 22 29 3c b3 97 91 3c 5a cd b0 3c
       -0.04561941 0.010323234 0.017772531 0.021582294
0003e0 48 db 6b 3c 6c 20 b6 3b 80 e7 86 3c 06 b5 a8 3c
       0.014395542 0.005558064 0.01646781 0.020594131
0003f0 9e db 6c 3d 59 fe 59 3d 9e c0 af 3c de 39 21 3d
       0.05782663 0.05322108 0.021454152 0.039361827

network_body._body_endoder.seq_layers.2.weight f4 [256, 256]
000000 91 38 46 3d 0e 99 c7 bd d9 e0 95 3d 6c 78 08 bd
       0.04839379 -0.0974599 0.07318277 -0.03331797
000010 db 2a 0a be 5f 99 b6 bd d7 2d 1f bd ce c7 82 bd
       -0.1349291 -0.08915972 -0.038862076 -0.06385766
000020 48 7e b8 bd 7f c7 59 3d 83 75 c9 bb 1e d0 e7 bc
       -0.09008461 0.05316877 -0.0061480417 -0.02829748
000030 e1 ad 9e 3d 11 d0 bb 3c b0 17 eb bb 51 d0 2f 3e
       0.077480085 0.022926362 -0.0071744546 0.1716931
000040 b3 66 6c 3d b6 33 a3 bd d0 bd a2 3d 55 89 2d bd
       0.05771513 -0.079688475 0.0794636 -0.0423673
000050 a9 71 5c bd 95 5e e7 3d c8 a4 8a 3e 0c eb 85 bd
       -0.053819332 0.11297337 0.27078843 -0.06538972
000060 35 7d f6 bc 20 c6 ab 3c 49 e1 72 bd a1 b3 37 3d
       -0.030089 0.020968497 -0.05929688 0.04484904
000070 64 9d 8a 3d 83 97 30 3d a6 8a bd bd 8b e1 4e 3d
       0.06768301 0.043113243 -0.09254961 0.050508063
000080 8c 20 fd 3d 2e 98 98 3b 01 18 07 3e fc 75 13 bd
       0.123597234 0.004656813 0.1319275 -0.03600119
000090 e8 c0 90 bd 1d 70 54 bc 38 41 87 be d6 cd e4 bc
       -0.07068044 -0.012966183 -0.26416945 -0.027930181
0000a0 63 d6 ba bb 56 9f 1d 3d 93 25 47 3d a3 e8 a3 bb
       -0.0057018264 0.038482033 0.048619818 -0.0050020977
0000b0 b4 8d 23 bc 30 bc 80 3d 1c 54 c1 bd 38 a1 66 bd
       -0.009982515 0.06285894 -0.09439871 -0.056306094
0000c0 85 3e ec bc c4 54 64 ba be 0d f6 3d 47 48 f7 3d
       -0.028838405 -0.0008710141 0.1201434 0.12074333
0000d0 23 69 14 3e 14 84 16 bd a9 d1 a4 3d dc d4 f2 bd
       0.14493231 -0.036747053 0.08047802 -0.11857006
0000e0 f3 6c ba 3d 7b 02 4a 3d 4b 9d 8b bd df 94 f5 ba
       0.09102812 0.04931877 -0.06817111 -0.0018736384
0000f0 27 e4 44 3d 5d 6a ae bd 70 ec a2 bc 39 d3 f4 3c
       0.048069146 -0.08516381 -0.019888133 0.029885875
000100 59 96 d8 bd ef cf cc bd 95 c9 5d 3e 43 b3 14 3e
       -0.105755515 -0.10000598 0.21658929 0.14521508
000110 28 03 9a bd f5 ee 5b 3d 5b ee 4d bd 5d c8 9d bc
       -0.07520133 0.053694684 -0.05027614 -0.01926058
000120 58 60 d5 bd 15 db de 3c b7 27 96 3d ff 49 74 3a
       -0.10418767 0.027204076 0.07331794 0.00093188876
000130 81 1e 29 be b0 0c cb 3c e0 69 44 bd 99 61 fa 3d
       -0.16515543 0.024786323 -0.047952533 0.122256465
000140 63 85 4e 3d 97 13 1e 3c be de 00 bd 58 f4 78 3d
       0.050420176 0.009648225 -0.031462424 0.0607799
000150 13 d2 bc 3d b5 80 9a bc 83 cc 33 bc 6b dc 78 bd
       0.09219756 -0.0188602 -0.010974052 -0.060757082
000160 3d 7f 2d bd 0b 57 b1 3d bb ee 8c 3d a9 df a1 3d
       -0.042357672 0.0865918 0.06881472 0.07903988
000170 58 25 13 bc b0 81 9c 3c 74 3e 88 3c cb 56 e8 3c
       -0.008981071 0.019104809 0.016631342 0.028361699
000180 89 e3 0e bd 40 b4 66 bd 90 3c 60 3d 3f 95 6a bd
       -0.034884963 -0.056324244 0.054745257 -0.05727124
000190 62 da 46 bc 0c 61 c7 3d a4 c3 07 be 3a 7b 73 be
       -0.012137027 0.09735307 -0.13258225 -0.23777476
0001a0 37 98 d4 bc 8c 29 42 3e 61 3a 97 3c 30 7c c6 3d
       -0.025951488 0.18961161 0.018460454 0.09691656
0001b0 c7 52 d9 bc e5 9d d5 3b 53 f1 83 3d 45 f1 15 3e
       -0.02652873 0.0065190666 0.06442513 0.14642818
0001c0 17 ef c5 3d cf 5b 25 bc f5 56 1c be 5a 83 6e bd
       0.096647434 -0.01009269 -0.15267546 -0.058230735
0001d0 dc d5 57 bc 48 49 91 3d 59 3e 83 bd 92 bd 84 bc
       -0.013173547 0.070940554 -0.06408376 -0.016203675
0001e0 80 4d 0d 3d 62 e3 00 3d 26 48 ee 3c b1 78 4f bc
       0.034497738 0.03146685 0.029087137 -0.012663052
0001f0 2c b6 84 bd a1 b9 99 3b 60 20 00 3d 02 d2 f2 3b
       -0.06480059 0.004691318 0.031280875 0.007410289
000200 93 ef 58 3b 4a fd 25 3b a4 c7 37 bd 4f 88 c7 3c
       0.0033101782 0.0025327974 -0.044868127 0.02435699
000210 48 64 38 3d 4b f7 98 3d bd af 84 bd 13 f4 0e bb
       0.04501751 0.074690424 -0.06478832 -0.002181296
000220 cc a8 b7 bc 37 a5 97 3c e3 9e 00 bd ef 2c ba 3b
       -0.022419356 0.018511398 -0.031401526 0.005681626
000230 4c 0f 4c 3d 3b c5 17 3d 32 93 ae 3c 27 af 37 bd
       0.049819276 0.037053328 0.021310423 -0.044844773
000240 19 28 04 3e 08 ee bf bc 56 a0 17 3d 3e 8f 77 bd
       0.12905921 -0.023428932 0.037018143 -0.06043934
000250 fd 19 de b8 1a 1a 81 bd 35 f1 04 3e 7c 9e 45 bd
       -0.000105906256 -0.063038066 0.12982638 -0.048246846
000260 74 02 5e 3d c9 2a 35 3d bc e7 85 3d 7e 15 cc bd
       0.05420156 0.044230256 0.065383404 -0.09965037
000270 74 3d 10 3d b5 95 51 3d a7 14 ca 3a ed e6 99 3d
       0.035214856 0.051168162 0.0015417532 0.07514749
000280 d5 23 c5 bc f8 a1 25 3d f4 d9 5a bd 30 95 ec 3c
       -0.024064938 0.04043767 -0.053430513 0.028879732
000290 25 6b b6 bd e0 94 61 3c 6b 06 44 3e cf af 68 3d
       -0.08907155 0.013768405 0.19143073 0.05680829
0002a0 de 05 5a 3d c9 7f 63 3d 8f aa 94 3d bf 2c 3b 3c
       0.05322825 0.055541787 0.07259094 0.0114242425
0002b0 dd 17 05 bc 1f e7 c0 bc 4b b4 1d 3d 37 60 91 bb
       -0.008123365 -0.023547707 0.03850202 -0.0044365185
0002c0 b6 ee 9f bd ce 38 b7 3d 82 b7 04 3e 76 ba a4 3d
       -0.078092024 0.089463815 0.12960628 0.08043377
0002d0 f5 95 0b 3e d7 c5 50 bd e3 d2 b8 bd db fd 60 3c
       0.13631423 -0.050969925 -0.090245984 0.013732399
0002e0 b8 37 a9 3d 91 ec 21 bd fa 79 41 bd 3f 7d 04 be
       0.08262581 -0.039532248 -0.047235467 -0.12938403
0002f0 40 fe b5 bd eb a8 1f 3d e9 57 c5 bc 1c 3a 9d 3d
       -0.08886385 0.038979452 -0.02408977 0.07677099
000300 9e 7d 7d bb 86 0c da bd 7a fa b3 bd 6c 27 1a bb
       -0.003867961 -0.1064692 -0.08788009 -0.0023522032
000310 fe 34 29 bd fe 0b c5 bc f7 14 56 3a 81 f1 78 bd
       -0.041310303 -0.02405357 0.0008166576 -0.06077719
000320 72 42 c8 bd 92 68 22 3d 05 9e 0a bd 1e 35 ae 3d
       -0.097782984 0.039650507 -0.033842105 0.08506225
000330 9b a8 92 3d 79 a3 0a bd 4d 39 5d bc 22 7a fb bd
       0.07161065 -0.033847306 -0.013502431 -0.12279154
000340 83 44 1e 3e 0d d0 4e 3d bd c6 2c bd 1c d7 85 3d
       0.15455823 0.05049138 -0.04218172 0.065351695
000350 09 95 b3 bd d9 ad 12 be f3 00 ad bd 31 50 af 3c
       -0.087686606 -0.1432413 -0.08447447 0.021400543
000360 86 62 6e 3d b6 ad 52 bd 6d 65 1e be 73 41 0c bd
       0.058199428 -0.051435195 -0.15468378 -0.034242105
000370 75 3e d4 3d 0a ba 3f 3e 58 85 fc bd 2f 08 97 3d
       0.10363475 0.18723312 -0.12330121 0.07374608
000380 72 d0 ba 3d b5 e8 de bd 72 aa a4 3d 84 1d b6 3d
       0.09121789 -0.10884229 0.08040322 0.088923484
000390 d3 3e 85 bd a9 83 d0 bc b0 1f e8 bd 9c 35 24 3c
       -0.065061234 -0.025453405 -0.11334169 0.010022547
0003a0 ce 76 06 bd 56 38 d4 3c 66 fd 2e be 58 76 12 3e
       -0.032828145 0.02590577 -0.17088851 0.14302957
0003b0 c8 98 25 3d a8 bd 8c 3c dc 54 8c bd 28 59 c0 bd
       0.040428907 0.017180279 -0.06852123 -0.09392005
0003c0 14 d8 ed bb 3d 37 96 bd ac 30 1d 3e f7 97 8d bd
       -0.0072584245 -0.073347546 0.15350598 -0.069137506
0003d0 63 81 e6 3d b6 45 6c 3d d2 aa dc bd 55 80 18 be
       0.11255147 0.05768367 -0.10774769 -0.14892705
0003e0 32 b7 1e 3e 2d 80 1d 3d 3f 35 0e 3c ff ef 2a be
       0.15499571 0.038452316 0.008679687 -0.16693114
0003f0 da 1a 3a bd cd c3 93 bb 7a a6 9e 3d 64 50 71 bd
       -0.045435764 -0.0045094253 0.07746597 -0.058914557

network_body._body_endoder.seq_layers.2.bias f4 [256]
000000 09 a1 b7 3b a4 31 e0 3b 6d ba 0d 3c 76 c9 f1 39
       0.0056039137 0.006841855 0.008650404 0.00046117202
000010 98 5e 7c 3c 3d fb 14 3d a2 94 7e ba f2 39 ed bb
       0.015403412 0.036372412 -0.0009711479 -0.0072395736
000020 99 15 ea 3c 34 b1 21 bc 86 8a ec 3c 9d 00 7e 3b
       0.028574752 -0.009868909 0.028874647 0.003875769
000030 e4 7a 0b 3d 2e b9 cb 3c 70 db 02 bc 74 eb 21 3c
       0.034052745 0.024868574 -0.007986888 0.009882797
000040 c9 6f a8 39 d2 df 09 3c 3d 38 a0 3c db e7 7a bb
       0.00032126743 0.008415179 0.019558067 -0.003828517
000050 19 bd 49 3b c5 79 ba 3b 53 bf 46 3c ea 8b ac 3c
       0.0030782877 0.0056907856 0.012130576 0.02106281
000060 8f e8 cf 3c e2 11 36 3c b6 a5 09 3c c2 9e 33 3d
       0.025379447 0.011112662 0.008401325 0.043852575
000070 3b 6b 7b 3a ad fe b9 3c bf f8 e8 bb 39 d5 3d bc
       0.0009590869 0.022704447 -0.007109731 -0.011586481
000080 d4 ae 04 bc e7 8b c1 ba 0e 3b 18 3d 61 16 be 3c
       -0.008098323 -0.0014766426 0.037165694 0.02320403
000090 60 34 89 3c 9d 62 1d bc 58 68 6b 3c 67 18 88 3c
       0.016748607 -0.009606031 0.014368139 0.016613198
0000a0 36 d5 ef bb 14 fa 16 3c af 76 1a 3d e9 d5 c1 3c
       -0.007319118 0.009214897 0.03771084 0.02366157
0000b0 43 fe 01 3d 00 64 eb bb 95 97 cd 3b e1 36 7b 39
       0.031736623 -0.007183552 0.0062741735 0.0002395767
0000c0 d8 18 4e 3c 3c 90 9f 3c a4 51 b5 3c 22 9f c6 3b
       0.012579165 0.019477956 0.022133656 0.0060614506
0000d0 c3 ca 98 bb 7b a1 6c 3c 00 2e d5 3c 2f 82 6d bc
       -0.004662843 0.014442797 0.026022911 -0.01449637
0000e0 ef a0 01 3d 3d 69 fc 3b 97 b3 20 3d e5 b3 e7 3c
       0.03164762 0.007702975 0.03923377 0.028284023
0000f0 1d 24 07 3d 16 c9 2f 3c 51 f7 aa 3c 34 9b 4e 3c
       0.032993425 0.010729095 0.020869883 0.0126102455
000100 11 c6 ed 3c e9 a6 8e 3c ca a1 8a 3a c0 c2 dd 3c
       0.02902511 0.017413573 0.0010576781 0.027070403
000110 88 0f 50 3c 5c 27 11 bc 02 6b ae bb f4 81 64 3c
       0.012699015 -0.008859482 -0.005322815 0.013946999
000120 6d 1e 75 3c 19 69 2d 3d 46 14 1e 3c 3d 4e 48 3d
       0.014960867 0.042336557 0.009648388 0.04890274
000130 47 d9 89 3c 40 e7 03 3c 4f 42 b8 3b de 5b d7 3b
       0.016827239 0.00805074 0.005623139 0.0065722307
000140 af 6c d3 3c 42 3d 0f 3d 37 6b 28 bb 65 36 00 3d
       0.02580866 0.03497053 -0.002569867 0.031301875
000150 fb 0e b2 bb 43 1c 4d 3c 63 ee ac 3c cd 44 4e 3b
       -0.0054339147 0.012518945 0.021109765 0.0031474114
000160 cc c1 0e 3d d6 e7 a6 3c 8b 4b 5d 3c e8 46 3f bc
       0.034852788 0.02037422 0.01350678 -0.01167462
000170 09 b3 cc 39 5c 06 2a bb 60 d2 80 3b 25 34 ff 3c
       0.00039043304 -0.0025943732 0.0039313287 0.031152794
000180 f7 06 ec ba d8 48 3c ba f9 62 c2 3c 98 0b 7a 3c
       -0.0018007447 -0.00071824854 0.023728834 0.015261553
000190 a5 1d 3c 3c c3 9f 1c 3d fd cd 6d 3c 86 0e 03 3c
       0.011481677 0.0382383 0.014514443 0.007999068
0001a0 ac 97 43 bb 14 5a 3c bc 27 dc 16 3b ee f4 b9 bb
       -0.0029845042 -0.011496086 0.0023019405 -0.00567495
0001b0 68 ce d0 bb 8e 26 fa 3b 36 dc 1e ba 92 8a a5 3c
       -0.006372262 0.0076339906 -0.00060600357 0.020207677
0001c0 59 f3 14 3d 5d e8 7f bc 64 09 ff 39 27 ae 31 3d
       0.036364887 -0.015619365 0.00048644387 0.043378975
0001d0 e4 a5 f9 3c e3 ba 7f 3b 37 ee 94 3c 8c 94 fe bb
       0.03047461 0.0039021305 0.018179996 -0.007769173
0001e0 5d 7a 17 3b 17 8c 63 bb e4 59 af 3c 71 00 65 3c
       0.0023113706 -0.0034720951 0.021405168 0.013977156
0001f0 8e 42 8c 3c e0 b3 b2 3c f3 1f a8 3c 74 8b 97 3c
       0.01712158 0.021814287 0.020523047 0.018499114
000200 ea 2d 66 bc c3 56 c7 3a 03 57 1b 3d 73 29 1a bc
       -0.014049033 0.0015208352 0.037924778 -0.009409296
000210 a2 14 85 bc ec 06 ac 3c 24 a2 d6 3c 3b 15 cf 3c
       -0.01624519 0.020999394 0.026200362 0.025278678
000220 17 91 05 3d ad fd f0 bb 15 7e a4 3b 99 4c e3 3b
       0.03260907 -0.0073544593 0.005019913 0.0069366214
000230 c4 52 47 bc 3c 78 c2 3c 30 6f 4f bc 33 06 84 3c
       -0.012165729 0.023738973 -0.0126607865 0.016116237
000240 d3 ca 21 3c 51 2e 4f 3c 3b a5 d0 3b c7 55 33 bc
       0.009875017 0.01264532 0.0063673533 -0.010945744
000250 e0 8e 45 bc 3d a6 15 3c 15 f3 2a 39 30 bb 2b 3c
       -0.01205799 0.009133873 0.00016303018 0.010481641
000260 30 97 3a b9 db d6 da 3c eb 7b 2f 3d 7f d5 2f bc
       -0.00017794664 0.02671378 0.042842787 -0.010732054
000270 bc 32 90 3c 88 69 81 3c 4a d6 0a 3d 49 90 8e 3c
       0.017602317 0.015797392 0.03389577 0.017402785
000280 35 03 b4 3c b7 49 c1 3c 41 98 b7 3c 15 f3 36 b9
       0.021974185 0.02359472 0.022411468 -0.00017447428
000290 c7 58 83 bc 6e c6 6b 3c 70 5f 03 bc d0 05 03 3d
       -0.016033543 0.014390571 -0.00801836 0.031987965
0002a0 ba b2 ee 3b 2f 47 84 3b 79 c2 20 3c 0b 99 91 3c
       0.0072844895 0.004036806 0.009811991 0.017773172
0002b0 35 75 d2 3c 4f be 42 bb b6 aa 7e 3c 12 7e e8 3b
       0.025690654 -0.0029715484 0.01554363 0.007095107
0002c0 16 c0 71 3c 81 ed 33 bc ac dd 80 bb 36 a6 20 3d
       0.0147552695 -0.010981918 -0.0039326753 0.03922101
0002d0 c1 4d f9 bb 19 07 56 3c 4a fd 05 3d 6c 87 0c 3d
       -0.007608146 0.013063216 0.03271226 0.034308836
0002e0 b8 8a 7b 3b 09 c3 8a 3c 1b eb 1c 3c 8a f4 3c 3c
       0.0038382243 0.016938703 0.009577538 0.011532912
0002f0 c5 47 05 3d ab b6 16 3d cd e3 56 3c b2 e3 ab 3c
       0.032539148 0.0367953 0.013115835 0.020982597
000300 6f e8 f0 bb 81 63 4e bc ed f6 c2 3c ca 29 ce 3c
       -0.007351927 -0.012596966 0.023799384 0.025166411
000310 c6 c2 8b 3a 15 95 76 3c 51 9e b1 3c d8 32 eb 3c
       0.0010662905 0.015050192 0.021681936 0.028710768
000320 a5 dc 24 bb b0 ef 62 3b ae 66 1a 3c 17 6c d9 3b
       -0.0025155928 0.0034627728 0.009423895 0.0066351998
000330 41 70 63 3b 23 bc 8f bb ef 58 cd 3c f2 bc d5 3b
       0.003470436 -0.0043864413 0.02506682 0.006522768
000340 cb 3c 52 ba c1 0f 20 bb 33 5c bd 3b d9 5e c3 bb
       -0.0008019923 -0.0024423453 0.0057788133 -0.0059622345
000350 f5 0f 66 3c ba 9a 85 3c e9 77 dd 3c 2b f3 50 3a
       0.01404189 0.016309131 0.027034717 0.0007970805
000360 b6 13 12 3c 64 b7 56 3c 4b 7e 72 bb 5b b9 74 3b
       0.008915832 0.013105247 -0.0037001546 0.0037341926
000370 6b 4d b8 3c dd e4 23 3d ba a2 87 3c 0b 75 39 3c
       0.022497853 0.040013183 0.016557086 0.011319409
000380 b4 7f 94 3b 4f 6a 08 bb e6 ad 34 bc 26 49 b6 3c
       0.004531825 -0.0020815318 -0.011027789 0.022251677
000390 73 29 d8 3c 53 9d 4e 3d 53 f5 3b 3b f6 9f 11 3d
       0.026386952 0.050443005 0.002868016 0.03555294
0003a0 26 23 8a 3c d2 50 57 bc 5b 7d bf 3c ef c3 bf bb
       0.016862463 -0.013141828 0.023375204 -0.0058522145
0003b0 12 e8 c2 36 73 10 c6 3b d2 af b5 3c 2b 9e 8f bb
       5.808667e-06 0.0060444414 0.022178564 -0.0043828688
0003c0 bb 5f dd 3c 08 ac ed 3c 89 2a b3 bb 2b 52 49 3c
       0.027023187 0.029012695 -0.005467717 0.012287657
0003d0 9c 74 63 3b 3f 15 15 3d 60 96 87 3c d7 18 17 3d
       0.0034706956 0.036397215 0.016551197 0.036888923
0003e0 25 79 f3 3b e7 07 0a bc 75 e0 6e 3c f8 8d d3 bb
       0.007430213 -0.008424736 0.014579882 -0.006456133
0003f0 85 93 44 bb d3 0f 58 b9 e8 56 94 3c 92 8c 51 3c
       -0.0029995155 -0.0002060526 0.018107846 0.012789862

action_model._continuous_distribution.log_sigma f4 [1, 5]
000000 33 c2 3a be ab b4 03 be 8b 19 20 be d0 c0 3c bd
       -0.18238144 -0.12861888 -0.15634744 -0.046082318
000010 64 5a 6c bd
       -0.05770339

action_model._continuous_distribution.mu.weight f4 [5, 256]
000000 2e c4 0e bd 35 68 7d 3d 92 13 06 bd e4 d6 56 3d
       -0.03485506 0.061866958 -0.032733507 0.05245103
000010 bd d0 05 bd 84 5c 3d 3c 03 4e 61 3d ec bd e1 ba
       -0.03266977 0.011557702 0.05500604 -0.0017222739
000020 49 eb be 3c d5 53 20 3d 1b 9f 36 3d c0 2c 73 3d
       0.023305552 0.03914245 0.04458533 0.05936885
000030 aa 32 cc bb f8 98 d3 3c 01 25 f2 bc 03 d7 ae bd
       -0.0062316256 0.025829777 -0.02955866 -0.08537104
000040 ec 73 a3 3d a3 24 49 3b fc 2e ad bd af 22 05 bb
       0.07981095 0.0030692003 -0.08456227 -0.0020314862
000050 28 f0 ed 3c bb 49 dd 3c 36 58 b6 bd 6d a2 d4 3c
       0.02904518 0.027012696 -0.08903544 0.025956357
000060 82 9f 57 bd 46 b8 85 3d e1 57 3c 3d 48 3d a8 ba
       -0.052642353 0.06529288 0.045982245 -0.0012835646
000070 56 4f ea bc 8a 18 c5 3b c7 e8 0b 3c 5f 75 9a bc
       -0.028602283 0.006014888 0.008539385 -0.018854795
000080 05 68 58 bd 03 57 b0 3c fb 6e 63 bd 90 6b 55 3d
       -0.052833576 0.021525865 -0.05552576 0.052104533
000090 58 9c 5a bd 06 6f 0e bd 5a 68 16 3d 0e ca 16 3d
       -0.053371757 -0.03477385 0.03672061 0.036813788
0000a0 98 a7 11 bc 63 06 88 3c 45 77 19 bc ae c7 2a bd
       -0.008890055 0.016604608 -0.009366815 -0.041694336
0000b0 a9 c1 44 bd 44 9a 66 bd dc 91 38 bd 27 30 b8 bd
       -0.04803625 -0.056299463 -0.045060977 -0.08993559
0000c0 50 91 e8 bc 2b 78 53 bd dd 20 8c 3c a3 67 8a bb
       -0.028389603 -0.051628273 0.017105514 -0.0042237802
0000d0 6e ff c6 3c 2c f2 54 3c 1d 4d 07 3d 2c 02 5e 3c
       0.02429172 0.012997191 0.033032525 0.0135503225
0000e0 fc b6 02 3d 59 b6 b2 3c 0a 02 36 bb 97 be 06 3d
       0.03191279 0.021815466 -0.0027772211 0.032896604
0000f0 76 60 22 3c d4 db 5a 3d 0f b4 4f bc 50 04 02 3c
       0.009910693 0.0534323 -0.012677207 0.0079355985
000100 e3 e6 03 bd 86 52 03 bd 87 64 46 3d 71 10 72 3c
       -0.032202613 -0.032061122 0.048435714 0.014774428
000110 4c 59 52 bd 8a 75 aa 3b 67 a4 b9 3d e9 d9 89 bc
       -0.05135469 0.005202 0.090645604 -0.01682754
000120 b7 b0 1f bd a2 5d 2e bd 63 7a 50 bb 9c 4e 0d bc
       -0.038986888 -0.042569764 -0.003181123 -0.008624699
000130 65 33 f9 bc ab a1 a4 bc dc ff 7f bc 5f da d8 3c
       -0.030420015 -0.02009662 -0.0156249665 0.026471315
000140 5b 58 f6 3a 76 b6 f6 bc dc 66 d0 3c 09 e8 92 3c
       0.0018794643 -0.030116301 0.025439672 0.017932909
000150 3e 4b d7 3b 18 79 fa 3c b7 7f 45 3c d8 20 45 3a
       0.006570249 0.03057532 0.012054375 0.0007519848
000160 e8 8b 31 3c 4c e8 87 3b ee c0 82 bd 77 58 e8 3c
       0.010836579 0.004147565 -0.06384455 0.028362496
000170 dd 4a 91 bd 74 a4 fc ba a2 84 49 bd 4b cf 95 3c
       -0.07094357 -0.0019275085 -0.049198754 0.018287322
000180 0e 7b 55 bc f7 3b 44 3b 6a ac 2a 3d 9a d0 7a bb
       -0.013029827 0.0029942968 0.041668333 -0.003827131
000190 23 b6 84 bc d4 0a c7 3c 59 97 dd 3b c1 15 eb b9
       -0.01620013 0.024297155 0.006762427 -0.000448389
0001a0 75 6a 6b 3d c1 99 f8 3b c1 b1 e8 3c 8b 4c 32 3d
       0.057474572 0.0075866883 0.028405072 0.04353003
0001b0 c1 d9 cf 3c f5 85 21 3d f8 9a 9e bb 4e 54 2e bd
       0.025372388 0.039434392 -0.004840251 -0.042560868
0001c0 d7 2c 1d bc 7c 35 22 3d 42 0e a5 bc 25 05 54 3c
       -0.00959321 0.039601788 -0.0201484 0.01294068
0001d0 56 60 44 bb 1d 10 85 bd c1 3f 00 3d c7 26 43 bc
       -0.0029964647 -0.06497214 0.0313108 -0.011911101
0001e0 b2 d4 88 3b fd d4 91 bd 15 93 89 bc 76 ba 58 bd
       0.004175746 -0.071207024 -0.016793767 -0.052912198
0001f0 32 4a 46 3d cc b3 07 3d dd df 84 3d 64 c7 a5 3c
       0.048410602 0.033130452 0.06488011 0.020236678
000200 c2 a2 93 3c 91 6e 85 3d c7 8b 1b bc 8c 6b c1 3c
       0.018021945 0.065152295 -0.009493775 0.023610853
000210 70 e0 e7 bc 11 7b 5f 3d 4f 73 36 3d 1d 9a e6 3c
       -0.028305262 0.054560725 0.04454356 0.028149659
000220 bc 27 59 bd 3d 85 1e 3c 7f e1 dd bb 92 a1 59 3d
       -0.05301641 0.009675321 -0.006771266 0.0531326
000230 b3 90 ed bc 8f 95 40 bc ca de b0 3c 93 e4 c3 bb
       -0.028999662 -0.011754408 0.02159061 -0.005978176
000240 1e d5 cc bb 8b 81 43 3b ed 92 84 b9 81 2f 59 3d
       -0.0062509915 0.0029831852 -0.0002528647 0.05302382
000250 28 08 41 ba 60 2d 3e 3d 73 ab ac 3d a3 b5 1f bd
       -0.0007363581 0.04642999 0.08431139 -0.03899158
000260 dd e9 60 3b 54 c8 86 3c 97 96 c5 bc d5 96 bb 3c
       0.003431908 0.016452946 -0.024119658 0.02289907
000270 aa cc 52 bd ed d5 51 3d 81 db 93 3c 3c 8c 10 bd
       -0.051464714 0.051229406 0.018049004 -0.035289988
000280 bd ba 88 3c a1 24 66 3c 78 b7 1b bd ee 69 86 3d
       0.016690606 0.014046819 -0.038016766 0.06563173
000290 45 c9 e0 3b fb dd ac 3d d9 b8 a4 3b b4 e4 cb 3a
       0.0068599307 0.08440777 0.0050269184 0.001555583
0002a0 f3 6d af bd c4 9d f9 bb 22 39 17 3b 80 47 3d bc
       -0.08565893 -0.007617684 0.0023074825 -0.011552691
0002b0 53 d4 0e 3b 95 8b 42 3d 81 7b 28 bd 7d 09 06 bd
       0.0021794036 0.047496397 -0.041133408 -0.032723892
0002c0 cb 58 4d bc f3 29 c6 b9 c1 0e 7b bc 25 1b 52 bc
       -0.012533377 -0.00037796758 -0.015323342 -0.012823855
0002d0 61 44 2e bc 46 a3 93 3d 34 80 ac 3c 4e 65 bf 3b
       -0.01063642 0.07208876 0.021057226 0.005840934
0002e0 be a4 3c bc 03 b2 a7 3c 54 60 0e 3d a1 97 e9 3c
       -0.011513887 0.020470625 0.034759834 0.028514685
0002f0 c3 a3 20 3c e2 e9 2b bb 01 3a 65 bd 69 9a 4c bd
       0.009804669 -0.0026231934 -0.05596352 -0.049951945
000300 cf aa ac 3c 87 80 8b bc 8b 50 45 3c 69 d9 82 bd
       0.021077542 -0.01702906 0.012043129 -0.06389124
000310 b2 e3 ce bb 7f d2 df bb 2d cd be bc ea 22 d0 bd
       -0.0063137645 -0.006830513 -0.023291195 -0.10162909
000320 9a 9e 81 3c 07 26 3f 3d 6c bc 82 bc e0 0f 79 3b
       0.015822697 0.046667125 -0.015958987 0.0038003847
000330 72 16 30 bc 66 61 32 3d ef 55 f0 3c 78 0a be 3c
       -0.010747539 0.043549918 0.029337851 0.023198351
000340 0c 37 36 3d b0 5b 59 bd 20 64 de 3c 2c 5b ad 3c
       0.04448609 -0.053065956 0.027147353 0.021161638
000350 5e bc 82 3d 2f 7c e3 bc 0b 1e 32 bd 2f 5f 08 3d
       0.063835844 -0.027769176 -0.043485682 0.0332939
000360 4e 17 2b bd de 67 bb 3b e8 ab c8 3b a7 5a b0 3c
       -0.041770272 0.005719169 0.0061240084 0.021527601
000370 de 47 98 ba a2 f6 ca 3a ac b6 c1 3b 7a 6a 15 bc
       -0.0011618098 0.0015484879 0.0059116688 -0.009119624
000380 4e 98 98 3c 2f cb 75 bd 3d dd 58 bd e5 db 44 bc
       0.018627312 -0.060008224 -0.052945364 -0.012015318
000390 46 52 76 bc a4 ec 67 bc f0 0a a6 3d c8 a5 87 3c
       -0.015034264 -0.014155541 0.08107555 0.016558543
0003a0 74 66 34 3d 43 c8 89 ba 98 af f8 ba 53 13 11 3d
       0.04404302 -0.0010511953 -0.001897323 0.03541882
0003b0 45 21 94 bc 48 94 95 3c de 0d 2d bd f4 7f b2 bc
       -0.01808227 0.018259183 -0.042249553 -0.021789528
0003c0 cc 80 c0 bc 3a 34 ea bc 3d 17 8c 3d 0f 68 4b 3d
       -0.023498915 -0.028589357 0.0684037 0.049659785
0003d0 d9 4f be bb fd c5 4d bd b2 df 0a bd f3 e9 c7 bd
       -0.0058078584 -0.050237644 -0.03390474 -0.09761419
0003e0 dd f2 1d 3d 15 09 9f 3b db 50 47 3b 37 40 e0 3c
       0.03856169 0.0048533776 0.0030413184 0.02737437
0003f0 ff 80 1a 3d 50 92 68 bd 82 57 ff 3c e7 4d b7 3c
       0.037720677 -0.05678016 0.031169657 0.022376014

action_model._continuous_distribution.mu.bias f4 [5]
000000 c3 76 64 3a 1d 3b 8e 3c 09 51 13 bc d9 3f 9a 3b
       0.00087152066 0.017362172 -0.008991488 0.0047073183
000010 17 5a 95 bb
       -0.0045578587
