configfiles/results/hb_01/Hummingbird/Hummingbird-3999896.onnx (onnx, 330176 bytes, 7 tensors)

network_body._body_endoder.seq_layers.0.weight f4 [256, 55]
-0.039316535 0.10651187 -0.13061328 0.020674242 0.0067160856 0.06735241 0.019850733 0.17978863
-0.095009714 0.058730576 0.07522151 0.029293241 -0.051581927 0.09803024 0.013331321 0.16437791
0.027151924 0.026186934 0.06335923 0.053090345 0.10585271 0.19914816 0.084042475 0.06560775
-0.013215439 0.11010354 -0.016535083 -0.050361495 0.06935005 0.026160602 0.15419628 0.33496794
-0.0315361 -0.17258008 -0.010379232 -0.22913381 0.18375544 0.23051913 -0.1000615 0.1723999
-0.029703947 0.07305201 -0.07341539 -0.107365325 0.21725109 -0.113624156 0.041928563 0.2612637
0.09583188 0.17781754 -0.13447793 -0.29344428 0.21855722 0.19124213 0.11907759 0.018867936
0.1831889 0.187899 -0.06468569 0.14435446 -0.09295325 0.110911764 0.103016056 0.09085253
0.052761145 -0.0196123 0.030092247 -0.15823185 -0.08185113 0.17105532 -0.013407678 0.3318363
0.05999981 -0.30310616 -0.33996207 0.10877801 0.031632792 0.019275414 0.2684011 -0.09770726
0.29374462 0.054983553 -0.02142944 0.14836878 -0.27604514 0.112972476 0.14312398 -0.10729114
-0.21758334 -0.20082894 0.22174451 -0.20400724 -0.015623382 -0.09273619 0.096503764 -0.08164633
0.01910171 -0.08235372 0.12878215 0.2640154 -0.12806398 -0.22297126 0.11026692 -0.17182809
0.0331279 0.15781674 -0.085567355 -0.33561426 -0.29953626 0.10804651 0.07852296 0.037548095
-0.06290455 0.14293496 -0.1496624 0.0473546 -0.2966874 0.0019422817 0.023967842 -0.016575005
0.101735786 -0.0028980514 0.117144875 -0.18781564 0.106373526 0.13286197 0.23779462 -0.1401185
-0.14853199 0.15619303 0.057580564 0.113497965 0.24975985 0.2303982 -0.071673214 -0.17431374
-0.06730306 0.18064056 -0.1491145 -0.30713496 0.18210278 -0.07800731 0.111396395 0.018821476
0.068620026 -0.10027903 0.025054103 -0.09749271 0.04427001 -0.058021456 0.16961426 0.1648367
0.020962402 -0.08722423 -0.026339464 0.049849205 -0.063686505 0.23298274 -0.10285062 -0.23915772
-0.14446723 0.25286978 -0.0060587632 0.11173203 0.09367966 0.2317564 -0.20264623 -0.2833618
0.073150106 0.081517495 -0.13778596 -0.06585864 -0.038627822 -0.04911141 0.07077261 -0.059614014
-0.1618772 0.017071543 -0.09622396 -0.11286401 0.055555128 0.26954356 0.05680092 -0.10954928
-0.07476344 -0.044403423 -0.2283361 -0.05006258 0.048252147 0.049496308 0.09153711 -0.15152435
0.0048670857 -0.016617013 0.021266226 0.0070004375 -0.017451452 -0.023725785 -0.1193973 -0.10347719
0.1379146 0.31352612 -0.032610137 0.027282666 0.017913952 -0.0411242 0.086205594 -0.21934752
-0.10990498 0.08953091 0.14128047 0.090532914 0.10625967 0.020607205 0.30010253 -0.16103043
0.26755655 -0.10672633 0.008772221 -0.054780148 0.07929202 -0.054390464 -0.063981906 -0.1588916
0.14968598 0.00021297036 0.08426018 -0.0025336812 0.039554905 -0.045949504 0.060045093 -0.047730595
-0.2179153 -0.25896752 0.12415278 0.1011892 -0.077038504 -0.14231995 -0.1124128 -0.09111911
0.037245557 0.012421168 0.025063278 -0.16196547 0.034380205 -0.15778962 -0.021242501 0.117908664
0.19880155 0.15379135 0.15327561 0.12190369 -0.20438097 0.065451354 -0.05221231 -0.06948749
00000000: 600a 21bd e522 da3d 7dbf 05be 075d a93c
00000010: 9c12 dc3b 0ff0 893d 019e a23c 831a 383e
00000020: 7494 c2bd 798f 703d bc0d 9a3d 61f8 ef3c
00000030: 9247 53bd 14c4 c83d 9d6b 5a3c af52 283e
00000040: b66d de3c fb85 d63c 7cc2 813d 4375 593d
00000050: 4ec9 d83d 7fed 4b3e 761e ac3d 5b5d 863d
00000060: 9285 58bc f77d e13d 9574 87bc db47 4ebd
00000070: 6607 8e3d c24e d63c a1e5 1d3e eb80 ab3e
00000080: ff2b 01bd d5b8 30be a70d 2abc 0ea2 6abe
00000090: 632a 3c3e 350d 6c3e 0bed ccbd 9989 303e
000000a0: b155 f3bc 4b9c 953d cf5a 96bd 5ae2 dbbd
000000b0: 1277 5e3e c8b3 e8bd 49bd 2b3d 5bc4 853e
000000c0: 8143 c43d cd15 363e 95b4 09be 543e 96be
000000d0: 77cd 5f3e fad4 433e f4de f33d ee90 9a3c
000000e0: df95 3b3e 9868 403e ee79 84bd a8d1 133e
000000f0: 465e bebd b525 e33d 15fa d23d e410 ba3d
00000100: 121c 583d f9a9 a0bc 0484 f63c 8807 22be
00000110: 91a1 a7bd 2029 2f3e e1ab 5bbc 73e6 a93e
00000120: 5cc2 753d bb30 9bbe 820f aebe 01c7 de3d
00000130: 6391 013d 79e7 9d3c de6b 893e be1a c8bd
00000140: b265 963e 6f36 613d cb8c afbc fced 173e
00000150: ca55 8dbe 1d5e e73d 188f 123e 75bb dbbd
00000160: 2bce 5ebe 1aa6 4dbe fe10 633e 46e7 50be
00000170: 37f9 7fbc 79ec bdbd c4a3 c53d 3136 a7bd
00000180: 307b 9c3c 11a9 a8bd 78df 033e 072d 873e
00000190: 3423 03be 9452 64be 9fd3 e13d b4f3 2fbe
000001a0: 1fb1 073d b69a 213e f03d afbd a2d5 abbe
000001b0: d15c 99be 7d47 dd3d a5d0 a03d 08cc 193d
000001c0: 1ad4 80bd 8b5d 123e 1a41 19be e6f6 413d
000001d0: 69e7 97be 2994 fe3a 3558 c43c 4ec8 87bc
000001e0: da5a d03d 3ced 3dbb a7e9 ef3d be52 40be
000001f0: 5dda d93d f80c 083e 6f80 733e 397b 0fbe
00000200: c518 18be 11f1 1f3e 99d9 6b3d 9f71 e83d
00000210: 0cc1 7f3e 81ed 6b3e 68c9 92bd 4d7f 32be
00000220: 30d6 89bd d7f9 383e 79b1 18be cb40 9dbe
00000230: 2779 3a3e 4cc2 9fbd cb23 e43d 7f2f 9a3c
00000240: a888 8c3d 185f cdbd 433e cd3c 42aa c7bd
00000250: 7854 353d e8a7 6dbd 5caf 2d3e f4ca 283e
00000260: 58b9 ab3c 9ea2 b2bd dcc5 d7bc ae2e 4c3d
00000270: 126e 82bd 0793 6e3e 59a3 d2bd c3e5 74be
00000280: 38ef 13be 2678 813e 9788 c6bb c3d3 e43d
00000290: 1fdb bf3d 8d51 6d3e 7e82 4fbe cc14 91be
000002a0: b9cf 953d a5f2 a63d c317 0dbe e5e0 86bd
000002b0: 3538 1ebd 0c29 49bd 3bf1 903d d32d 74bd
000002c0: 23c3 25be 9fd9 8b3c 1111 c5bd 3f25 e7bd
000002d0: c68d 633d 9d01 8a3e 15a8 683d 5f5b e0bd
000002e0: 931d 99bd 5de0 35bd f0d0 69be 6b0e 4dbd
000002f0: 0ba4 453d a4bc 4a3d cf77 bb3d 3329 1bbe
00000300: 137c 9f3b 6720 88bc 8236 ae3c ed63 e53b
00000310: 59f6 8ebc 945c c2bc 9286 f4bd d9eb d3bd
00000320: 7c39 0d3e 7f86 a03e 3592 05bd e67f df3c
00000330: 48c0 923c d971 28bd 8f8c b03d a39c 60be
00000340: dd15 e1bd fb5b b73d d4ab 103e 5269 b93d
00000350: ab9e d93d 71d0 a83c 0aa7 993e 29e5 24be
00000360: 2cfd 883e 5693 dabd 5db9 0f3c 2661 60bd
00000370: db63 a23d 89c8 5ebd f208 83bd 7bb4 22be
00000380: 4847 193e cc50 5f39 9a90 ac3d 1e0c 26bb
00000390: 5304 223d 8c35 3cbd d8f1 753d 2881 43bd
000003a0: 3025 5fbe 6497 84be d043 fe3d 493c cf3d
000003b0: 5dc6 9dbd 52bc 11be af38 e6bd a89c babd
000003c0: cc8e 183d 2882 4b3c 8151 cd3c 47da 25be
000003d0: 42d2 0c3d 9a93 21be c104 aebc 197a f13d
000003e0: a292 4b3e 7b7b 1d3e 48f4 1c3e a4a8 f93d
000003f0: 3f49 51be 5c0b 863d 93dc 55bd 754f 8ebd

network_body._body_endoder.seq_layers.0.bias f4 [256]
-0.0016289855 0.048769902 0.018344222 -0.006473472 0.053678077 0.036840208 0.010290737 0.009512392
-0.008935723 -0.03294644 0.018707983 -0.012512226 -0.001080024 0.006753611 0.026778057 0.0023385473
0.049003087 0.021688508 0.017704789 -0.0032275177 -0.017669404 0.007630856 0.023678727 0.040443838
0.0480241 0.024861688 0.036045637 -0.012609989 -0.008084675 -0.0033737079 0.030776907 0.009157742
-0.0029238453 0.01322419 0.004598391 0.020893455 0.023908274 0.032470968 -0.026162835 0.012255592
0.020078737 -0.00025091242 0.032128118 0.0075796624 0.023242561 0.0039926562 0.02738277 0.0020316937
-0.020311365 0.05310728 -0.023386894 0.018788299 0.01827458 0.02739077 0.0066221575 0.029759636
0.017568149 0.016480513 -0.0052807033 -0.0019630825 0.03679858 0.012495368 0.0045796623 0.0007811686
0.0064548915 -0.0031120477 2.0857176e-05 0.008739741 0.024122566 0.05505255 0.021254638 0.01593928
0.028352227 0.020811643 0.060538128 -0.013212884 0.029698353 -0.006175082 0.030141503 0.008072731
0.022874815 0.026993385 0.017756943 0.025460133 0.032740876 0.033578016 0.061246075 0.047483355
0.009336168 0.002027123 0.017573006 -0.0028158906 0.02708734 -0.0071661617 0.0423737 -0.02002938
-0.0024782468 0.0042895745 0.021644315 0.0020106297 0.007840391 -0.0044446685 0.01595724 0.006231141
0.004899402 0.013234545 0.009725844 -0.005511674 -0.0060088723 -0.009355096 0.00010857226 0.030103989
0.0095654335 0.011113257 0.009339564 0.0049229395 0.03358148 -0.006754226 0.02410478 0.0007030002
0.02583425 -0.011541845 -0.017019872 0.014022928 0.04313264 0.008294604 0.021006605 0.017668959
0.0063277236 0.00431373 0.049708553 0.015966335 0.027009888 0.020241795 0.033105385 0.021551171
-0.0019412955 0.016324556 0.026246497 0.02583064 -0.014536384 0.005250206 0.0056530596 0.0335039
-0.0012520683 0.036865324 0.02933441 0.0325033 -0.01220172 0.03591715 0.0061324867 0.043558538
0.024479253 -0.002812079 -0.004375878 0.03201294 0.025838908 0.006588612 0.07281696 -0.004320775
-0.0067938077 0.018663581 0.0057922727 0.019255003 0.014848339 0.00057592726 0.02634421 0.008021658
0.019409118 0.017163595 0.004874793 0.039711773 0.010481293 0.0018668273 0.046613265 0.008432239
0.03788142 -0.0021388032 0.025154443 0.033465456 -0.017232796 -0.014904446 0.011490062 0.03353306
0.019601936 0.01381038 -0.0037605993 0.019468281 0.015407732 0.034904916 0.017914899 0.01248932
-0.0005694745 0.024042595 0.012633135 -0.0045108744 0.022757402 0.0015188706 0.0013279942 0.020829992
0.03978708 0.029620377 -0.017303234 0.017279467 0.004839546 -0.0071865693 0.0167041 0.01664922
0.0143510075 0.0025931657 0.027599992 -0.011517547 0.029275138 0.038174786 0.05278428 0.027455218
0.032471564 0.027238166 0.06884214 0.016174795 -0.03779189 -0.0066171996 0.009171606 -0.00793439
0.014333637 0.032742914 -0.00047442352 -0.0072719697 -0.007686841 -0.0030019884 0.019043257 0.03385154
0.026485413 0.012575081 0.0046850764 0.019866327 -0.019802647 -0.011498921 -0.0035276425 0.032615013
0.034936223 0.012209004 0.011360483 0.05865902 -0.04318112 0.010309475 0.016876625 0.021008277
0.013862237 0.004384217 0.016297475 0.019173875 0.05679509 0.05279414 0.020419026 0.039058827
00000000: af83 d5ba f3c2 473d 9f46 963c 6b1f d4bb
00000010: 8bdd 5b3d c2e5 163d 7b9a 283c ddd9 1b3c
00000020: 2467 12bc d9f2 06bd 7c41 993c 1400 4dbc
00000030: 988f 8dba 654d dd3b a85d db3c 5042 193b
00000040: 76b7 483d 19ac b13c a209 913c c384 53bb
00000050: 6dbf 90bc 420c fa3b e4f9 c13c 70a8 253d
00000060: ebb4 443d bdaa cb3c 97a4 133d 219a 4ebc
00000070: 9675 04bc 6d19 5dbb da1f fc3c 5b0a 163c
00000080: fc9d 3fbb 46aa 583c 19ae 963b c028 ab3c
00000090: 49db c33c 4700 053d 7153 d6bc aecb 483c
000000a0: 2a7c a43c e58c 83b9 c698 033d d15e f83b
000000b0: 2f67 be3c d4d4 823b d551 e03c 2a26 053b
000000c0: 0564 a6bc 0587 593d df95 bfbc ebe9 993c
000000d0: 92b4 953c 9c62 e03c affe d83b 7bca f33c
000000e0: 14eb 8f3c 2402 873c c009 adbb 0fa7 00bb
000000f0: 1cba 163d 5fb9 4c3c fe10 963b 56c7 4c3a
00000100: 8e83 d33b 7ff3 4bbb 72f6 ae37 2131 0f3c
00000110: b09c c53c c87e 613d 351e ae3c 1893 823c
00000120: ee42 e83c 2e7d aa3c d4f6 773d da7a 58bc
00000130: f649 f33c 5858 cabb 50eb f63c 7d43 043c
00000140: f763 bb3c 3b21 dd3c 0277 913c c591 d03c
00000150: 4c1b 063d 1a89 093d 2add 7a3d e87d 423d
00000160: baf6 183c 7bd9 043b 44f5 8f3c ce8a 38bb
00000170: 45e6 dd3c 1fd2 eabb 0b90 2d3d a814 a4bc
00000180: 156a 22bb 8f8f 8c3b 6b4f b13c c5c4 033b
00000190: fc74 003c 95a4 91bb c2b8 823c 992e cc3b
000001a0: 2a8b a03b b4d5 583c 2559 1f3c 469b b4bb
000001b0: 13e6 c4bb 1e46 19bc 4ab1 e338 a49c f63c
000001c0: 56b8 1c3c 6114 363c f804 193c 9c50 a13b
000001d0: bc8c 093d 8e52 ddbb 6377 c53c 8b49 383a
000001e0: 59a2 d33c 021a 3dbc 426d 8bbc 6cc0 653c
000001f0: daab 303d 17e6 073c 0b16 ac3c 7ebe 903c
00000200: cb58 cf3b 315a 8d3b 329b 4b3d d5cb 823c
00000210: d743 dd3c 1fd2 a53c 8399 073d 158c b03c
00000220: 1173 feba 13bb 853c e502 d73c c79a d33c
00000230: 032a 6ebc ec09 ac3b 4d3d b93b 633b 093d
00000240: 711c a4ba 1800 173d b74e f03c 2e22 053d
00000250: b9e9 47bc dd1d 133d 07f3 c83b 706a 323d
00000260: b788 c83c db4a 38bb 8663 8fbb 0020 033d
00000270: 1eac d33c 49e5 d73b 0f21 953d 4a95 8dbb
00000280: 979e debb 5ee4 983c 1bcd bd3b abbc 9d3c
00000290: 7346 733c d3f9 163a d0cf d73c 466d 033c
000002a0: dfff 9e3c ab9a 8c3c babc 9f3b d0a8 223d
000002b0: bbb9 2b3c 54b0 f43a 8ded 3e3d 6027 0a3c
000002c0: 8c29 1b3d 2a2b 0cbb b110 ce3c 1313 093d
000002d0: cb2b 8dbc c731 74bc d040 3c3c f659 093d
000002e0: 3d94 a03c ef44 623c 6374 76bb f27b 9f3c
000002f0: b670 7c3c 75f8 0e3d 44c2 923c 01a0 4c3c
00000300: c948 15ba faf4 c43c 35fb 4e3c f5cf 93bb
00000310: bb6d ba3c d714 c73a 1710 ae3a a9a3 aa3c
00000320: c7f7 223d 6fa6 f23c 83bf 8dbc ab8d 8d3c
00000330: 0e95 9e3b 507d ebbb 09d7 883c f263 883c
00000340: 7d20 6b3c 1af2 293b 6119 e23c 18b4 3cbc
00000350: 6ad2 ef3c 2a5d 1c3d 5434 583d c4e9 e03c
00000360: e700 053d 9322 df3c 1cfd 8c3d 0181 843c
00000370: abcb 1abd 18d5 d8bb 8144 163c 3eff 01bc
00000380: a2d7 6a3c 6f1d 063d 0cbc f8b9 b449 eebb
00000390: e5e1 fbbb 02bd 44bb 9b00 9c3c eaa7 0a3d
000003a0: f0f7 d83c b607 4e3c 4585 993b b5be a23c
000003b0: 2939 a2bc f865 3cbc 0530 67bb 5297 053d
000003c0: 4919 0f3d 4608 483c 5221 3a3c 7144 703d
000003d0: b0de 30bd 12e9 283c d940 8a3c 8d19 ac3c
000003e0: 701e 633c 7aa9 8f3b 4882 853c 8812 9d3c
000003f0: f8a1 683d ab3e 583d cd45 a73c 26fc 1f3d

network_body._body_endoder.seq_layers.2.weight f4 [256, 256]
0.048114017 -0.09684023 0.07142551 -0.03366873 -0.13334483 -0.08629814 -0.03796196 -0.06427609
-0.09117796 0.052367266 -0.0070386995 -0.028334567 0.07674862 0.02338933 -0.0076426077 0.16805667
0.05617702 -0.077677146 0.07955878 -0.042388495 -0.054552548 0.110873036 0.26899922 -0.06523753
-0.028568737 0.01980031 -0.0577865 0.04420891 0.066801675 0.045310505 -0.09212337 0.050292734
0.12297762 0.0061899344 0.13112548 -0.0354402 -0.070220776 -0.012131563 -0.2636158 -0.027307479
-0.0062312656 0.037741624 0.048190404 -0.006008182 -0.010110179 0.063636445 -0.09376101 -0.056814928
-0.02832387 -0.002393235 0.11843224 0.12028459 0.14377439 -0.03466423 0.079534784 -0.11918231
0.090454 0.05004728 -0.06860672 -0.0028223807 0.047277994 -0.08486986 -0.020887835 0.02991835
-0.10475635 -0.10064986 0.215318 0.14395665 -0.07080104 0.054240134 -0.048828635 -0.017622462
-0.105101325 0.026043069 0.07250034 0.00022949262 -0.1629457 0.024650436 -0.045560442 0.11962798
0.047455173 0.011130004 -0.028172677 0.059437845 0.09313304 -0.018990183 -0.01109737 -0.061926194
-0.04130414 0.08682959 0.06774093 0.0776045 -0.009662646 0.018028613 0.017353788 0.028736345
-0.035087753 -0.054145582 0.055700418 -0.057875182 -0.014324401 0.096964724 -0.13257131 -0.23769018
-0.02636976 0.18818419 0.018494481 0.097638644 -0.027069282 0.0057147904 0.064944126 0.14536622
0.09553367 -0.010586403 -0.15236516 -0.057109073 -0.012844837 0.07168938 -0.06478269 -0.017346289
0.033138935 0.032414224 0.029503392 -0.011470567 -0.06384334 0.0042728125 0.030793287 0.0057693217
0.0032846276 0.0015068934 -0.042709954 0.023556042 0.042798273 0.07431884 -0.06271349 -0.0021399339
-0.024751108 0.01801472 -0.032378323 0.008651434 0.049100433 0.038202126 0.021509407 -0.045541514
0.12739132 -0.021951921 0.03873451 -0.06029282 -0.00088428496 -0.06428073 0.12865229 -0.04406584
0.05242525 0.043462124 0.0637174 -0.09937925 0.032825377 0.04822564 0.0032794124 0.072793335
-0.02480936 0.042584166 -0.0539191 0.02848345 -0.08967477 0.0140122175 0.18827514 0.05734169
0.053285092 0.054889124 0.072801754 0.014881129 -0.00850016 -0.025212904 0.040536787 -0.00448006
-0.073926404 0.08841574 0.12927444 0.07851036 0.13414887 -0.05432321 -0.0878176 0.013982273
0.083411954 -0.03833311 -0.047385346 -0.1296608 -0.08971348 0.039515495 -0.02354153 0.077102624
-0.005613773 -0.10394788 -0.0885139 -0.0017443293 -0.040277347 -0.024919938 6.201669e-05 -0.05971845
-0.09725048 0.03918514 -0.035001542 0.08463267 0.07007341 -0.034546465 -0.010811478 -0.12162417
0.15116212 0.04831004 -0.042479508 0.06354341 -0.08849827 -0.14117536 -0.08317606 0.019684147
0.058847476 -0.051261935 -0.15358652 -0.03260139 0.102541 0.18437348 -0.12350196 0.07332907
0.09193171 -0.1069426 0.080398746 0.08968308 -0.065564804 -0.025133176 -0.112930305 0.009420242
-0.032823328 0.025445703 -0.17144194 0.14239578 0.03971585 0.017428072 -0.06764594 -0.09478028
-0.00565624 -0.07187717 0.1518826 -0.067689486 0.11297533 0.056690846 -0.107349284 -0.14867815
0.15426189 0.038715493 0.0078091715 -0.16389753 -0.04639318 -0.0032739823 0.07429718 -0.060109135
00000000: 3413 453d 2c54 c6bd 8a47 923d 39e8 09bd
00000010: 8c8b 08be 14bd b0bd 007e 1bbd 2fa3 83bd
00000020: 83bb babd 0f7f 563d e4a4 e6bb e51d e8bc
00000030: 612e 9d3d fb9a bf3c d76e fabb 0c17 2c3e
00000040: e019 663d 3215 9fbd b7ef a23d 8f9f 2dbd
00000050: 7e72 5fbd 6711 e33d 44ba 893e 419b 85bd
00000060: fc08 eabc 4234 a23c 89b1 6cbd 6714 353d
00000070: 51cf 883d 8297 393d 2dab bcbd c1ff 4d3d
00000080: b1db fb3d efd4 ca3b c245 063e be29 11bd
00000090: e9cf 8fbd 77c3 46bc a6f8 86be efb3 dfbc
000000a0: a52f ccbb f696 1a3d 4d63 453d 49e0 c4bb
000000b0: 2aa5 25bc d353 823d c605 c0bd c5b6 68bd
000000c0: 7607 e8bc d2d7 1cbb 9a8c f23d c457 f63d
000000d0: 9839 133e 14fc 0dbd 22e3 a23d db15 f4bd
000000e0: f23f b93d 60fe 4c3d ae81 8cbd b1f7 38bb
000000f0: 92a6 413d 40d0 adbd f71c abbc 5417 f53c
00000100: 7f8a d6bd 8421 cebd 527c 5c3e 5f69 133e
00000110: 2300 91bd e72a 5e3d 8900 48bd fb5c 90bc
00000120: 5d3f d7bd 4658 d53c 0f7b 943d f5a3 7039
00000130: 3ddb 26be b6ef c93c 969d 3abd 84ff f43d
00000140: 5b60 423d 9f5a 363c 63ca e6bc 1975 733d
00000150: 89bc be3d 4d91 9bbc bed1 35bc 52a6 7dbd
00000160: 882e 29bd b6d3 b13d c2bb 8a3d 1cef 9e3d
00000170: 1350 1ebc beb0 933c 8829 8e3c 7c68 eb3c
00000180: 2db8 0fbd c2c7 5dbd 1f26 643d 870e 6dbd
00000190: e4b0 6abc 7195 c63d c6c0 07be 0e65 73be
000001a0: 6505 d8bc 5bb3 403e bd81 973c c5f6 c73d
000001b0: 66c0 ddbc 2343 bb3b 6d01 853d e2da 143e
000001c0: 28a7 c33d 9872 2dbc 9d05 1cbe 34eb 69bd
000001d0: 2773 52bc e2d1 923d c9ac 84bd ce19 8ebc
000001e0: b1bc 073d c7c4 043d 19b1 f13c 0cef 3bbc
000001f0: 4cc0 82bd f302 8c3b 3442 fc3c 940c bd3b
00000200: e842 573b f482 c53a a2f0 2ebd 9af8 c03c
00000210: 3e4d 2f3d 7a34 983d ee6f 80bd 223e 0cbb
00000220: d6c2 cabc 9b93 933c 229f 04bd bfbe 0d3c
00000230: 891d 493d d579 1c3d 7f34 b03c bd89 3abd
00000240: df72 023e 84d4 b3bc 14a8 1e3d 9bf5 76bd
00000250: 5ccf 67ba 9ea5 83bd 6dbd 033e 627e 34bd
00000260: dcbb 563d 5705 323d 457e 823d 5987 cbbd
00000270: e773 063d 4088 453d 69eb 563b ac14 953d
00000280: 003d cbbc bc6c 2e3d 46da 5cbd 2056 e93c
00000290: 68a7 b7bd 8093 653c 33cb 403e 1fdf 6a3d
000002a0: 7841 5a3d 6bd3 603d 1619 953d fbcf 733c
000002b0: 4144 0bbc 4b8b cebc e709 263d 78cd 92bb
000002c0: ba66 97bd 5013 b53d 8560 043e 0aca a03d
000002d0: 525e 093e 0482 5ebd b7d9 b3bd e715 653c
000002e0: e3d3 aa3d 2e03 1dbd 2317 42bd cdc5 04be
000002f0: b3bb b7bd 00db 213d 2bda c0bc fbe7 9d3d
00000300: bef3 b7bb a0e2 d4bd c746 b5bd fba1 e4ba
00000310: dcf9 24bd e624 ccbc f50e 8238 559b 74bd
00000320: 422b c7bd 9980 203d c75d 0fbd e553 ad3d
00000330: a682 8f3d 9880 0dbd a022 31bc 1816 f9bd
00000340: 3eca 1a3e c0e0 453d fefe 2dbd 0c23 823d
00000350: 953e b5bd 4690 10be 3658 aabd a640 a13c
00000360: 0d0a 713d 09f8 51bd c945 1dbe 0989 05bd
00000370: 0401 d23d 67cc 3c3e 98ee fcbd 8d2d 963d
00000380: b146 bc3d b904 dbbd 19a8 a43d c3ab b73d
00000390: d746 86bd 17e4 cdbc 0148 e7bd 5c57 1a3c
000003a0: c171 06bd 8273 d03c 7a8e 2fbe 33d0 113e
000003b0: 16ad 223d 51c5 8e3c f489 8abd 2a1c c2bd
000003c0: fb57 b9bb 5634 93bd 1d87 1b3e c9a0 8abd
000003d0: 9c5f e73d a934 683d f1d9 dbbd 163f 18be
000003e0: d4f6 1d3e 2394 1e3d 14e4 ff3b c1d4 27be
000003f0: c606 3ebd 4f90 56bb 1f29 983d ff34 76bd

network_body._body_endoder.seq_layers.2.bias f4 [256]
0.0051988265 0.0070660515 0.008324828 0.0005874546 0.016471831 0.03511971 -0.001817687 -0.006751194
0.02821254 -0.009750279 0.027293388 0.0038503604 0.033326942 0.023799261 -0.007985735 0.009752926
-8.330644e-05 0.008608762 0.018893095 -0.004224053 0.0020877274 0.005134094 0.012269163 0.019223612
0.024504928 0.009869487 0.0069036563 0.043014932 0.00081605394 0.02124988 -0.007521357 -0.011191904
-0.008139101 -0.0026015062 0.036678348 0.022572398 0.016230226 -0.00973447 0.0122201 0.01529377
-0.0070294393 0.008186305 0.037100848 0.022837969 0.030765913 -0.007388601 0.0060251337 0.00015001152
0.013060626 0.01921374 0.021958668 0.005152452 -0.0050285794 0.013732035 0.025223782 -0.014705515
0.030273816 0.0063921195 0.03888962 0.027010702 0.03232598 0.009803155 0.020529779 0.013009925
0.028648207 0.016315602 -0.00047175767 0.0258294 0.012887242 -0.008113529 -0.005975251 0.013565489
0.014760679 0.041068036 0.009754636 0.04777076 0.016453534 0.00853643 0.004935695 0.0055801794
0.024429027 0.034340475 -0.0025077967 0.03035091 -0.0052732555 0.0107058585 0.020522343 0.0031210403
0.033623673 0.01909567 0.013248133 -0.011888951 -0.0002310097 -0.0029156457 0.0031239663 0.029682176
-0.0019312337 -0.002146651 0.023770304 0.013471175 0.011575656 0.036721505 0.014470706 0.007778845
-0.0026089163 -0.011062619 0.0023607498 -0.0061745723 -0.0067130644 0.0055673528 -0.0009253767 0.020251157
0.035408203 -0.01537343 0.000401075 0.042151652 0.029918306 0.004039566 0.016176743 -0.00825532
0.0019726881 -0.0032941857 0.021469485 0.013823851 0.015406692 0.020384235 0.019806866 0.01771928
-0.013772322 0.0013231784 0.03749528 -0.008870949 -0.01650253 0.01952501 0.024577906 0.023935812
0.031761672 -0.0062547424 0.005297179 0.0062197647 -0.011581677 0.022611916 -0.01356734 0.015014444
0.010269043 0.0124228 0.0055343066 -0.011559276 -0.012258346 0.008157947 -0.00037349842 0.010878799
0.00031183194 0.024904571 0.042496044 -0.010151912 0.017135017 0.014508074 0.032472868 0.01609845
0.021410987 0.023491312 0.021581922 -0.0006462417 -0.015771432 0.013622264 -0.008361955 0.031819403
0.006928052 0.004230004 0.009891582 0.017188191 0.023879237 -0.002976429 0.014678607 0.006676965
0.014360233 -0.010700003 -0.004405866 0.03785788 -0.0073656975 0.0123630725 0.03166864 0.034062788
0.0036835682 0.017011294 0.0077143013 0.01009076 0.03051449 0.036202393 0.013122453 0.02081685
-0.007719701 -0.011791099 0.023808816 0.025431542 0.0012032454 0.013425968 0.02191566 0.028557405
-0.0023266478 0.002796875 0.00884867 0.006918689 0.004186464 -0.0039772987 0.024610143 0.0060759904
-0.0015806718 -0.0031570245 0.0055539166 -0.005462384 0.013594799 0.01575985 0.026164506 0.0006554928
0.008899157 0.012132954 -0.003988899 0.0035387436 0.022471908 0.038807776 0.016420225 0.011798872
0.0047001913 -0.0023835513 -0.011154032 0.021520583 0.025785651 0.049666654 0.002346762 0.03451542
0.015474495 -0.013494867 0.022437192 -0.006303072 -0.00027981726 0.0067361146 0.02136503 -0.0033539904
0.026238747 0.028608913 -0.005621829 0.010266894 0.0035988232 0.035319284 0.016447138 0.036417175
0.007019089 -0.008747412 0.015206933 -0.0066791046 -0.0041341484 4.229205e-06 0.017686421 0.011925274
00000000: eb5a aa3b 568a e73b dc64 083c 69ff 193a
00000010: efef 863c afd9 0f3d 743f eeba 1f39 ddbb
00000020: fc1d e73c a2bf 1fbc 6296 df3c 5456 7c3b
00000030: d581 083d abf6 c23c 9ad6 02bc bdca 1f3c
00000040: ceb4 aeb8 c40b 0d3c b1c5 9a3c ed69 8abb
00000050: 41d2 083b e73b a83b 9904 493c d67a 9d3c
00000060: 8fbe c83c a1b3 213c 1138 e23b 6d30 303d
00000070: 74ec 553a 3a14 ae3c b775 f6bb 3f5e 37bc
00000080: dd59 05bc 087e 2abb 093c 163d c0e9 b83c
00000090: 40f5 843c 547d 1fbc d036 483c b892 7a3c
000000a0: 3657 e6bb da1f 063c 0ff7 173d b116 bb3c
000000b0: cc08 fc3c 141c f2bb 7c6e c53b 694c 1d39
000000c0: 3cfc 553c 2266 9d3c aae2 b33c e6d5 a83b
000000d0: c8c6 a4bb 54fc 603c 1ba2 ce3c 66ef 70bc
000000e0: cb00 f83c fc74 d13b b94a 1f3d 8c45 dd3c
000000f0: 3f68 043d 6a9d 203c 112e a83c 9527 553c
00000100: a5af ea3c 4ca8 853c 3e56 f7b9 2e98 d33c
00000110: 0325 533c 9bee 04bc 0acc c3bb c941 5e3c
00000120: c6d6 713c f536 283d e9d1 1f3c 46ab 433d
00000130: 90c9 863c 62dc 0b3c 9cbb a13b f0d9 b63b
00000140: 621f c83c 99a8 0c3d d959 24bb 79a2 f83c
00000150: 46cb acbb a067 2f3c 791e a83c 5e8a 4c3b
00000160: fab8 093d 866e 9c3c b20e 593c e0c9 42bc
00000170: 323b 72b9 6b14 3fbb 75bb 4c3b 0928 f33c
00000180: 7321 fdba d4ae 0cbb f1b9 c23c 34b6 5c3c
00000190: d2a7 3d3c 4a69 163d 8a16 6d3c aee5 fe3b
000001a0: 5afa 2abb fd3f 35bc cfb6 1a3b 1154 cabb
000001b0: 44f9 dbbb 576e b63b fb94 72ba c1e5 a53c
000001c0: 3108 113d d7e0 7bbc 6047 d239 36a7 2c3d
000001d0: 3c17 f53c 565e 843b 1785 843c 5241 07bc
000001e0: 3748 013b 44e3 57bb c6e0 af3c 6f7d 623c
000001f0: 5a6c 7c3c d7fc a63c 0242 a23c 0628 913c
00000200: 4ea5 61bc 806e ad3a a794 193d 7557 11bc
00000210: 5030 87bc eaf2 9f3c 9b57 c93c 0915 c43c
00000220: 8718 023d 95f4 ccbb f593 ad3b 2bcf cb3b
00000230: 13c1 3dbc a03c b93c 8c49 5ebc 24ff 753c
00000240: 7d3f 283c 0089 4b3c 2159 b53b 1e63 3dbc
00000250: 3bd7 48bc e9a8 053c 1cd2 c3b9 fd3c 323c
00000260: 607d a339 ac04 cc3c 5510 2e3d 3554 26bc
00000270: bc5e 8c3c 46b3 6d3c 4502 053d e6e0 833c
00000280: 1866 af3c da70 c03c 92cc b03c 8c68 29ba
00000290: 1733 81bc eb2f 5f3c 9500 09bc 1055 023d
000002a0: b604 e33b d89b 8a3b 4d10 223c 40ce 8c3c
000002b0: 649e c33c 3110 43bb 8a7e 703c 71ca da3b
000002c0: 2f47 6b3c 114f 2fbc 155f 90bb dd10 1b3d
000002d0: f35b f1bb 7c8e 4a3c fab6 013d 6c85 0b3d
000002e0: 0568 713b 455b 8b3c 40c8 fc3b b753 253c
000002f0: 86f9 f93c f648 143d 8fff 563c 1988 aa3c
00000300: 8cf5 fcbb 742f 41bc b50a c33c cf55 d03c
00000310: 37b6 9d3a 97f8 5b3c 7888 b33c 38f1 e93c
00000320: ac7a 18bb c74b 373b 03fa 103c 2bb6 e23b
00000330: 9b2e 893b 0054 82bb 369b c93c 1a19 c73b
00000340: 8b2e cfba 15e6 4ebb a1fd b53b ccfd b2bb
00000350: b8bc 5e3c cd1a 813c f256 d63c 61d5 2b3a
00000360: c5cd 113c 4cc9 463c 4fb5 82bb 44ea 673b
00000370: 0217 b83c e7f4 1e3d b583 863c 0e50 413c
00000380: 1004 9a3b 5b35 1cbb 67bf 36bc ef4b b03c
00000390: 6e3c d33c 436f 4b3d 22cc 193b 0b60 0d3d
000003a0: bc88 7d3c 9319 5dbc 34ce b73c 008a cebb
000003b0: 70b4 92b9 a0ba dc3b b705 af3c 9fce 5bbb
000003c0: a4f2 d63c 3d5d ea3c 5237 b8bb 7936 283c
000003d0: 3cda 6b3b f4aa 103d 26bc 863c 2d2a 153d
000003e0: 6300 e63b 4e51 0fbc 8026 793c 64dc dabb
000003f0: c077 87bb 98e8 8d36 1de3 903c 3962 433c

action_model._continuous_distribution.log_sigma f4 [1, 5]
-0.17405194 -0.12221257 -0.14852875 -0.044714216 -0.053459354
00000000: ac3a 32be 954a fabd ec17 18be 4126 37bd
00000010: 32f8 5abd

action_model._continuous_distribution.mu.weight f4 [5, 256]
-0.033907346 0.05981398 -0.031910818 0.05129657 -0.03397088 0.009978649 0.052227985 -0.0013687952
0.021359667 0.03838794 0.043285366 0.0586001 -0.00704129 0.024610192 -0.02892322 -0.08337078
0.07790325 0.0008873159 -0.082789674 -0.0016108303 0.027695885 0.024525883 -0.088377215 0.025583558
-0.052765805 0.06360511 0.0422785 -0.0021818785 -0.027704123 0.0051652864 0.008896497 -0.0183268
-0.051676247 0.019503696 -0.05623309 0.051167253 -0.053188328 -0.033945173 0.03490551 0.03577313
-0.008761599 0.015363837 -0.011765867 -0.042561587 -0.048200227 -0.055101912 -0.044977292 -0.08776242
-0.027292097 -0.049951877 0.015116217 -0.0047649797 0.02426945 0.013175767 0.032074124 0.013493922
0.030412307 0.019837739 -0.0028166126 0.031100154 0.008302551 0.052897718 -0.01296051 0.0072608697
-0.03201896 -0.032855406 0.04685638 0.012466551 -0.050273027 0.006186949 0.087665476 -0.015679479
-0.037397668 -0.043809656 -0.0026099223 -0.010286254 -0.03009945 -0.019310849 -0.014650796 0.025387466
0.0003212129 -0.031099884 0.025271976 0.017033594 0.0070447763 0.029753717 0.010928363 -0.0002241718
0.0098138135 0.003053236 -0.06321165 0.028284712 -0.06923081 -0.0013871338 -0.047875308 0.017064555
-0.012090725 0.0038364038 0.041442104 -0.0052596442 -0.015042921 0.022916172 0.006620497 0.00036653018
0.055913795 0.0076703085 0.02843302 0.04127385 0.025512919 0.037654128 -0.0045142323 -0.04070555
-0.011359169 0.0386403 -0.02029141 0.011346865 -0.0035865055 -0.06234688 0.02971459 -0.010328835
0.004020254 -0.0699059 -0.016716823 -0.053629406 0.046957158 0.032239255 0.06426864 0.019167366
0.017963458 0.063978255 -0.009582633 0.023121614 -0.027234618 0.054007635 0.04261486 0.025622638
-0.05361195 0.0074588247 -0.006371895 0.052669797 -0.028248148 -0.01285337 0.021563934 -0.006880012
-0.0091097895 0.0035383299 -0.00027239282 0.052542876 -0.00019305052 0.04403572 0.081377655 -0.037400894
0.004109337 0.014499024 -0.02446629 0.02220003 -0.051874038 0.049399503 0.017001892 -0.034396447
0.015010332 0.012349488 -0.038600374 0.06443629 0.007014481 0.082160436 0.005441297 0.0023402213
-0.0837144 -0.0071563786 0.002233436 -0.011512243 0.00069678045 0.047136366 -0.039008047 -0.03087403
-0.01291643 -0.0007526839 -0.013500558 -0.014445215 -0.009922084 0.07138775 0.01929719 0.0057692984
-0.01112498 0.020811401 0.0328756 0.025981756 0.008761164 -0.0023410663 -0.055418767 -0.049705755
0.02102328 -0.01566163 0.011294114 -0.06248727 -0.006108316 -0.007176872 -0.023475429 -0.100134045
0.015939537 0.045510557 -0.016246585 0.0027072537 -0.011411703 0.0432303 0.028349591 0.022481058
0.043801494 -0.05124798 0.027778452 0.020107182 0.06165292 -0.028487718 -0.045279853 0.032963943
-0.0398992 0.005821838 0.006777212 0.021835221 -0.000993355 0.00067821424 0.005892513 -0.010315225
0.018407635 -0.0585945 -0.05120359 -0.013248341 -0.015636252 -0.015068028 0.07917228 0.015208891
0.041443896 -0.00092965004 -0.004162532 0.034641102 -0.018267484 0.018892564 -0.043223944 -0.021619834
-0.025474273 -0.0275088 0.06749785 0.048560727 -0.007270845 -0.050939612 -0.033390958 -0.09778966
0.03806959 0.005435535 0.003476257 0.027092688 0.03702357 -0.05510776 0.027485121 0.020983411
00000000: 6ee2 0abd 81ff 743d ebb4 02bd 5a1c 523d
00000010: 0d25 0bbd 7d7d 233c 03ed 553d 2569 b3ba
00000020: 78fa ae3c ac3c 1d3d ff4b 313d a906 703d
00000030: 9fba e6bb 509b c93c 63f0 ecbc 4dbe aabd
00000040: bd8b 9f3d c39a 683a a28d a9bd 7f22 d3ba
00000050: 7be2 e23c 81ea c83c 1dff b4bd 9c94 d13c
00000060: f520 58bd 6543 823d 382c 2d3d d9fd 0ebb
00000070: c2f3 e2bc 9041 a93b 9dc2 113c 1622 96bc
00000080: 79aa 53bd 37c6 9f3c ab54 66bd c194 513d
00000090: 01dc 59bd 180a 0bbd 14f9 0e3d d886 123d
000000a0: cf8c 0fbc 9ab8 7b3c 9fc5 40bc 0f55 2ebd
000000b0: 9a6d 45bd 8bb2 61bd 1c3a 38bd c9bc b3bd
000000c0: ad93 dfbc 579a 4cbd 02aa 773c 8c23 9cbb
000000d0: bad0 c63c 2cdf 573c 2860 033d 9c15 5d3c
000000e0: 3b23 f93c c182 a23c eb96 38bb c0c5 fe3c
000000f0: 6c07 083c 47ab 583d 5258 54bc 97ec ed3b
00000100: 5026 03bd 6493 06bd 7aec 3f3d 8140 4c3c
00000110: 17eb 4dbd e4bb ca3b f589 b33d 4072 80bc
00000120: 4c2e 19bd c171 33bd 3b0b 2bbb ad87 28bc
00000130: 1f93 f6bc c931 9ebc e409 70bc 60f9 cf3c
00000140: 7768 a839 2fc5 febc 2d07 cf3c 098a 8b3c
00000150: ded7 e63b 11be f33c e00c 333c a90f 6bb9
00000160: 1eca 203c cd18 483b 1c75 81bd 57b5 e73c
00000170: e2c8 8dbd 7dd0 b5ba e618 44bd f7ca 8b3c
00000180: 2d18 46bc 2d6c 7b3b 32bf 293d 1859 acbb
00000190: 9576 76bc b2ba bb3c c1f0 d83b d92a c039
000001a0: dd05 653d 3657 fb3b 5dec e83c c50e 293d
000001b0: 7800 d13c 373b 1a3d 20ec 93bb ddba 26bd
000001c0: cf1b 3abc 4b45 1e3d 2c3a a6bc 34e8 393c
000001d0: 940b 6bbb 715f 7fbd 036c f33c 463a 29bc
000001e0: 56bc 833b d32a 8fbd b8f1 88bc 82aa 5bbd
000001f0: 2656 403d 4f0d 043d 479f 833d e104 9d3c
00000200: 1a28 933c 0807 833d 7a00 1dbc 8a69 bd3c
00000210: 221b dfbc 1c37 5d3d eb8c 2e3d 91e6 d13c
00000220: 3498 5bbd 2869 f43b 54cb d0bb 49bc 573d
00000230: a968 e7bc f196 52bc d9a6 b03c b971 e1bb
00000240: 3a41 15bc 53e3 673b f2cf 8eb9 3337 573d
00000250: 9b6d 4ab9 cd5e 343d 54a9 a63d ae31 19bd
00000260: 9ea7 863b 508d 6d3c 876d c8bc d6dc b53c
00000270: df79 54bd 2257 4a3d 8d47 8b3c 4ae3 0cbd
00000280: e5ed 753c 8255 4a3c 6d1b 1ebd 2cf7 833d
00000290: bbd9 e53b bb43 a83d e84c b23b 665e 193b
000002a0: 7572 abbd 0e80 eabb d75e 123b d99d 3cbc
000002b0: 25a8 363a 1012 413d e7c6 1fbd 89eb fcbc
000002c0: 6f9f 53bc c34f 45ba 7231 5dbc a0ab 6cbc
000002d0: 3d90 22bc be33 923d 2415 9e3c 620c bd3b
000002e0: 8c45 36bc ac7c aa3c 91a8 063d b1d7 d43c
000002f0: fc8a 0f3c 936c 19bb cafe 62bd 4398 4bbd
00000300: 0439 ac3c d24c 80bc f30a 393c a7f2 7fbd
00000310: 4528 c8bb f72b ebbb 8b4f c0bc 1413 cdbd
00000320: a293 823c 4769 3a3d 8f17 85bc 2e6c 313b
00000330: 27f8 3abc 4112 313d 673d e83c 322a b83c
00000340: 3269 333d 67e9 51bd a38f e33c d1b7 a43c
00000350: c687 7c3d 135f e9bc 5e77 39bd 3305 073d
00000360: 586d 23bd 1ec5 be3b 6013 de3b c7df b23c
00000370: 7633 82ba 30ca 313a fb15 c13b 3101 29bc
00000380: 9ccb 963c c900 70bd dbba 51bd 920f 59bc
00000390: 9917 80bc e4df 76bc 1425 a23d b62e 793c
000003a0: 13c1 293d c2b3 73ba d965 88bb d4e3 0d3d
000003b0: b1a5 95bc 94c4 9a3c 970b 31bd 141c b1bc
000003c0: 6caf d0bc 235a e1bc 503c 8a3d 9de7 463d
000003d0: 4540 eebb 0ea6 50bd f5c4 08bd f245 c8bd
000003e0: dcee 1b3d 931c b23b ead1 633b 7cf1 dd3c
000003f0: 07a6 173d adb8 61bd 7a28 e13c 67e5 ab3c

action_model._continuous_distribution.mu.bias f4 [5]
-4.435098e-05 0.016736578 -0.008369346 0.0036737418 -0.0049842815
00000000: 8105 3ab8 261b 893c 951f 09bc 29c3 703b
00000010: 2f53 a3bb
