configfiles/results/hb_01/Hummingbird/Hummingbird-3499968.onnx (onnx, 330176 bytes, 7 tensors)

network_body._body_endoder.seq_layers.0.weight f4 [256, 55]
-0.039613944 0.10699937 -0.13061328 0.020674242 0.0030219322 0.0684345 0.015308961 0.17978863
-0.095009714 0.054056823 0.07455015 0.024332521 -0.051581927 0.09803024 0.011180445 0.16387355
0.024720926 0.026186934 0.06335923 0.048709422 0.105970815 0.19241226 0.084042475 0.06560775
-0.018144725 0.10974666 -0.018306471 -0.050361495 0.06935005 0.021758992 0.15488462 0.32896557
-0.0315361 -0.17258008 -0.01557213 -0.22827025 0.17713496 0.23051913 -0.1000615 0.16729894
-0.02595817 0.07088008 -0.07341539 -0.107365325 0.21723968 -0.11303942 0.042815022 0.25956205
0.09585125 0.17901699 -0.1336923 -0.29174957 0.21599747 0.19180553 0.11036124 0.018989706
0.17428799 0.187899 -0.06468569 0.14489844 -0.096608855 0.11219722 0.103016056 0.09085253
0.052812837 -0.022318812 0.031101994 -0.15823185 -0.08185113 0.17037003 -0.0142366635 0.3329919
0.05999981 -0.30310616 -0.33825946 0.10594464 0.028976303 0.019275414 0.2684011 -0.095492445
0.2914025 0.056878958 -0.02142944 0.14836878 -0.27245095 0.111025885 0.13842577 -0.10729114
-0.21758334 -0.20057084 0.21910667 -0.20433559 -0.015623382 -0.09273619 0.095358506 -0.08155105
0.016158786 -0.08235372 0.12878215 0.25934425 -0.12614942 -0.2236437 0.111832924 -0.17033583
0.03169313 0.1573451 -0.08781225 -0.33347604 -0.30196473 0.11249464 0.07850125 0.03574149
-0.06290455 0.14293496 -0.145613 0.04452788 -0.29364613 0.0019422817 0.023967842 -0.016017804
0.10081546 -0.0015932343 0.117144875 -0.18781564 0.10410804 0.1324217 0.23819746 -0.1401185
-0.14853199 0.157596 0.056860067 0.117758006 0.24975985 0.2303982 -0.07176087 -0.17417711
-0.064465776 0.18064056 -0.1491145 -0.3036409 0.18118387 -0.07636289 0.111396395 0.018821476
0.06969549 -0.10143821 0.029389812 -0.09749271 0.04427001 -0.057201818 0.1668919 0.1655021
0.020962402 -0.08722423 -0.026583657 0.046958834 -0.06546498 0.2348195 -0.10490086 -0.2396014
-0.14324772 0.25076175 -0.006762699 0.11152026 0.09703567 0.23248897 -0.20620191 -0.2833618
0.073150106 0.081478395 -0.1370283 -0.06597636 -0.038627822 -0.04911141 0.07439377 -0.05880947
-0.1596736 0.017071543 -0.09622396 -0.107296996 0.05495586 0.27178794 0.05680092 -0.10954928
-0.07223924 -0.04368445 -0.22830833 -0.05006258 0.048252147 0.056891687 0.09265672 -0.15493344
0.0048670857 -0.016617013 0.023027046 0.007326943 -0.014068762 -0.023725785 -0.1193973 -0.099045895
0.13956504 0.31068945 -0.032610137 0.027282666 0.01939549 -0.04470801 0.0881605 -0.21934752
-0.10990498 0.09097687 0.14450173 0.09016463 0.10709264 0.02427671 0.29956254 -0.16095915
0.27164137 -0.10676332 0.0065704794 -0.05105907 0.07938224 -0.05558407 -0.063981906 -0.1588916
0.14980127 -0.0006492647 0.08286214 -0.0025336812 0.039554905 -0.047992814 0.058889136 -0.048869103
-0.2179153 -0.25896752 0.12218831 0.10205154 -0.07783358 -0.14231995 -0.1124128 -0.09147547
0.036240336 0.008619367 0.025063278 -0.16196547 0.033043075 -0.15910232 -0.017895548 0.117908664
0.19880155 0.1546892 0.15354055 0.11544381 -0.20438097 0.065451354 -0.054612555 -0.07087522
00000000: 3b42 22bd 7c22 db3d 7dbf 05be 075d a93c
00000010: 9c0b 463b 6327 8c3d 70d2 7a3c 831a 383e
00000020: 7494 c2bd b06a 5d3d c0ad 983d ff54 c73c
00000030: 9247 53bd 14c4 c83d 2f2e 373c 78ce 273e
00000040: 8a83 ca3c fb85 d63c 7cc2 813d 8883 473d
00000050: 3a07 d93d b807 453e 761e ac3d 5b5d 863d
00000060: 3fa4 94bc dbc2 e03d 74f7 95bc db47 4ebd
00000070: 6607 8e3d ea3f b23c 139a 1e3e 2d6e a83e
00000080: ff2b 01bd d5b8 30be 3f22 7fbc adbf 69be
00000090: de62 353e 350d 6c3e 0bed ccbd 6a50 2b3e
000000a0: 3aa6 d4bc 9329 913d cf5a 96bd 5ae2 dbbd
000000b0: 1474 5e3e 3681 e7bd ce5e 2f3d 51e5 843e
000000c0: a94d c43d 3b50 373e a2e6 08be 3360 95be
000000d0: 712e 5d3e ab68 443e 1305 e23d 4d90 9b3c
000000e0: 8d78 323e 9868 403e ee79 84bd 4260 143e
000000f0: ddda c5bd a8c7 e53d 15fa d23d e410 ba3d
00000100: 4652 583d f1d5 b6bc 9cc9 fe3c 8807 22be
00000110: 91a1 a7bd 7b75 2e3e e540 69bc ea7d aa3e
00000120: 5cc2 753d bb30 9bbe 5830 adbe 81f9 d83d
00000130: b65f ed3c 79e7 9d3c de6b 893e 8b91 c3bd
00000140: b532 953e e9f9 683d cb8c afbc fced 173e
00000150: b17e 8bbe 8a61 e33d 7cbf 0d3e 75bb dbbd
00000160: 2bce 5ebe 7162 4dbe 805d 603e 593d 51be
00000170: 37f9 7fbc 79ec bdbd 524b c33d 3d04 a7bd
00000180: 6e5f 843c 11a9 a8bd 78df 033e c5c8 843e
00000190: 502d 01be db02 65be a908 e53d 846c 2ebe
000001a0: a8d0 013d 131f 213e e9d6 b3bd 5fbd aabe
000001b0: 1f9b 9abe 9763 e63d 43c5 a03d ab65 123d
000001c0: 1ad4 80bd 8b5d 123e 931b 15be de62 363d
000001d0: c958 96be 2994 fe3a 3558 c43c c537 83bc
000001e0: 5678 ce3d 12d4 d0ba a7e9 ef3d be52 40be
000001f0: 9936 d53d 8e99 073e 09ea 733e 397b 0fbe
00000200: c518 18be d960 213e 1ae6 683d 1c2b f13d
00000210: 0cc1 7f3e 81ed 6b3e 5df7 92bd 7c5b 32be
00000220: a206 84bd d7f9 383e 79b1 18be d276 9bbe
00000230: 4488 393e 2664 9cbd cb23 e43d 7f2f 9a3c
00000240: 82bc 8e3d d6be cfbd e7c2 f03c 42aa c7bd
00000250: 7854 353d 744c 6abd b6e5 2a3e 6279 293e
00000260: 58b9 ab3c 9ea2 b2bd f8c5 d9bc e857 403d
00000270: 8112 86bd 8674 703e 43d6 d6bd 125a 75be
00000280: 88af 12be d863 803e a299 ddbb bc64 e43d
00000290: a3ba c63d 9711 6e3e 9826 53be cc14 91be
000002a0: b9cf 953d 25de a63d 2651 0cbe 9d1e 87bd
000002b0: 3538 1ebd 0c29 49bd c35b 983d 33e2 70bd
000002c0: 7a81 23be 9fd9 8b3c 1111 c5bd 87be dbbd
000002d0: 6519 613d ca27 8b3e 15a8 683d 5f5b e0bd
000002e0: 2bf2 93bd 77ee 32bd a9c9 69be 6b0e 4dbd
000002f0: 0ba4 453d 4207 693d cec2 bd3d dfa6 1ebe
00000300: 137c 9f3b 6720 88bc 37a3 bc3c da16 f03b
00000310: aa80 66bc 945c c2bc 9286 f4bd 93d8 cabd
00000320: 23ea 0e3e b012 9f3e 3592 05bd e67f df3c
00000330: 4ae3 9e3c bf1f 37bd 7e8d b43d a39c 60be
00000340: dd15 e1bd 1552 ba3d 43f8 133e 3ca8 b83d
00000350: 6353 db3d f3df c63c 4360 993e 7ad2 24be
00000360: 9414 8b3e baa6 dabd 2d4d d73b 5123 51bd
00000370: 2893 a23d 1fac 63bd f208 83bd 7bb4 22be
00000380: 8165 193e 6b33 2aba a0b3 a93d 1e0c 26bb
00000390: 5304 223d 1d94 44bd bc35 713d f82a 48bd
000003a0: 3025 5fbe 6497 84be dd3d fa3d 6600 d13d
000003b0: 3667 9fbd 52bc 11be af38 e6bd 7e57 bbbd
000003c0: bf70 143d 3f38 0d3c 8151 cd3c 47da 25be
000003d0: 2d58 073d b8eb 22be af99 92bc 197a f13d
000003e0: a292 4b3e d866 1e3e bc39 1d3e ce6d ec3d
000003f0: 3f49 51be 5c0b 863d 6ab1 5fbd 0727 91bd

network_body._body_endoder.seq_layers.0.bias f4 [256]
-0.0017945111 0.0462561 0.017749831 -0.006424178 0.05348536 0.037706606 0.009344325 0.008689784
-0.00890794 -0.032875944 0.018680664 -0.012737201 -0.00043064373 0.0067021763 0.026600597 0.0022279585
0.047630742 0.021289067 0.018650362 -0.0034884203 -0.017589238 0.0070708026 0.023688482 0.0390139
0.04639076 0.024984417 0.034438636 -0.013040853 -0.007999752 -0.0040407646 0.030878197 0.0087949
-0.0036098775 0.013128334 0.004939075 0.020456834 0.023252316 0.032404616 -0.025775015 0.012134294
0.01956287 -0.00041858974 0.030751988 0.007537306 0.022810759 0.0035123108 0.026259506 0.0013283732
-0.018470528 0.051911373 -0.023408217 0.01881403 0.01794549 0.025995418 0.0064611076 0.028971365
0.017218158 0.015917128 -0.005042057 -0.0024840045 0.036906652 0.012566898 0.0041371332 0.0005203297
0.0058455607 -0.0027579968 0.00020152882 0.008511622 0.023654394 0.053638753 0.021260248 0.016077144
0.027472386 0.020138247 0.05978296 -0.013243325 0.029285891 -0.0062401798 0.029555472 0.008056996
0.021491539 0.026445583 0.0167076 0.025492525 0.03284239 0.032395214 0.060850803 0.047809806
0.009473775 0.002291307 0.017415112 -0.0030277134 0.026699262 -0.0073732 0.041883122 -0.020602688
-0.0024410328 0.0041962476 0.022593101 0.0022328324 0.0071020843 -0.004432552 0.015887456 0.005623572
0.0049732598 0.013262477 0.009471995 -0.00476912 -0.005959732 -0.009605741 0.00048452787 0.02974799
0.00983817 0.011785663 0.008826331 0.005542589 0.032926332 -0.0064311847 0.023641588 0.0010746745
0.025039278 -0.010420844 -0.017681127 0.012600544 0.04198013 0.007997957 0.021029662 0.01749322
0.0067633623 0.004795913 0.04889181 0.015263832 0.026809433 0.02058554 0.03270384 0.02268773
-0.0017476024 0.015925752 0.025947802 0.024841506 -0.014585978 0.0083800005 0.003833447 0.03283008
-0.0017712589 0.0365962 0.02908603 0.03140701 -0.012312968 0.035877947 0.004713192 0.042178977
0.02432011 -0.003160754 -0.004110259 0.030769538 0.025278194 0.005354875 0.070942305 -0.0052548973
-0.0063820444 0.017876262 0.00576173 0.019364987 0.014808166 0.001289472 0.026452536 0.0075959093
0.019435853 0.016866678 0.0050108056 0.038783062 0.010311004 0.0009299983 0.045918513 0.009480161
0.037160695 -0.0019282044 0.02484553 0.032571428 -0.017720042 -0.015152101 0.012171992 0.033685792
0.019939221 0.013449035 -0.0035314641 0.019058345 0.015403911 0.03450961 0.017642125 0.011635017
-0.001087993 0.024234213 0.012488422 -0.005776609 0.021041315 0.0011907456 0.0009964523 0.019240139
0.03932541 0.02873432 -0.017438512 0.01618807 0.0046270425 -0.0070214844 0.016296022 0.014866196
0.015075942 0.0020808845 0.02689026 -0.011665874 0.029332248 0.03685592 0.051608242 0.025791725
0.03280138 0.026726745 0.06839854 0.016494464 -0.038353015 -0.00697926 0.009582236 -0.0076735173
0.015058441 0.0323823 -0.0009862878 -0.0062477384 -0.007600762 -0.0025497158 0.018960968 0.03396299
0.025829518 0.012107327 0.004561785 0.019927343 -0.01980316 -0.011279929 -0.0037724914 0.032604653
0.03380261 0.011475048 0.011145661 0.057104155 -0.03833732 0.009800124 0.016691774 0.02142868
0.013695776 0.0036770601 0.015929613 0.019473894 0.055990808 0.052529566 0.020407792 0.038440842
00000000: cd35 ebba 0977 3d3d 1868 913c e981 d2bb
00000010: 7713 5b3d 3e72 1a3d f118 193c 995f 0e3c
00000020: 9cf2 11bc eda8 06bd 3108 993c b1af 50bc
00000030: 06c8 e1b9 ee9d db3b 7fe9 d93c f102 123b
00000040: 7418 433d 6966 ae3c a5c8 983c fb9d 64bb
00000050: 4e17 90bc 31b2 e73b 590e c23c 0acd 1f3d
00000060: 3d04 3e3d 1fac cc3c 870f 0d3d 4da9 55bc
00000070: 6411 03bc 6468 84bb 46f4 fc3c 7c18 103c
00000080: b293 6cbb 3918 573c f7d7 a13b 1795 a73c
00000090: a47b be3c b4ba 043d 2026 d3bc ebce 463c
000000a0: 5042 a03c 2a76 dbb9 98eb fb3c 81fb f63b
000000b0: a1dd ba3c cc2e 663b 2d1e d73c cf1c ae3a
000000c0: 814f 97bc 05a1 543d 97c2 bfbc e11f 9a3c
000000d0: 6c02 933c 58f4 d43c b3b7 d33b 5b55 ed3c
000000e0: 180d 8d3c a364 823c d737 a5bb aeca 22bb
000000f0: 6e2b 173d 64e5 4d3c ca90 873b bc66 083a
00000100: 1e8c bf3b 82bf 34bb 7b51 5339 5574 0b3c
00000110: dcc6 c13c 4fb4 5b3d f929 ae3c 37b4 833c
00000120: c50d e13c f7f8 a43c fade 743d 88fa 58bc
00000130: f7e8 ef3c 6c7a ccbb 511e f23c 7e01 043c
00000140: 060f b03c 68a4 d83c 60de 883c b3d5 d03c
00000150: be85 063d d8b0 043d b13e 793d 37d4 433d
00000160: e437 1b3c c129 163b 23aa 8e3c 9a6c 46bb
00000170: 69b8 da3c e29a f1bb a38d 2b3d f8c6 a8bc
00000180: bcf9 1fbb ad80 893b 2b15 b93c b654 123b
00000190: 9ab8 e83b f13e 91bb 6926 823c f145 b83b
000001a0: baf6 a23b dc4a 593c 6d30 1b3c 4746 9cbb
000001b0: db49 c3bb 6661 1dbc 3b08 fe39 0fb2 f33c
000001c0: 4730 213c a718 413c 519c 103c 9b9e b53b
000001d0: c3dd 063d b0bc d2bb 01ac c13c 18dc 8c3a
000001e0: 2c1f cd3c 30bc 2abc 03d8 90bc 8372 4e3c
000001f0: 5bf3 2b3d dd09 033c 6646 ac3c f14d 8f3c
00000200: 329f dd3b 0927 9d3b c742 483d 2715 7a3c
00000210: 759f db3c 02a3 a83c 76f4 053d 9edb b93c
00000220: ce0f e5ba b976 823c 7c90 d43c 6a80 cb3c
00000230: 07fa 6ebc 454c 093c 913a 7b3b d578 063d
00000240: 9629 e8ba e6e5 153d d345 ee3c a3a4 003d
00000250: 55bc 49bc c1f4 123d 1f71 9a3b ddc3 2c3d
00000260: f83a c73c a724 4fbb 5aaf 86bb 6610 fc3c
00000270: 3714 cf3c f277 af3b 334a 913d 4631 acbb
00000280: 7820 d1bb 3d71 923c e5cc bc3b 52a3 9e3c
00000290: f39d 723c 8003 a93a fdb2 d83c 1be7 f83b
000002a0: f037 9f3c fd2b 8a3c af31 a43b fdda 1e3d
000002b0: 7cef 283c 21cb 733a 0d15 3c3d ad52 1b3c
000002c0: d035 183d cebb fcba da88 cb3c 9e69 053d
000002d0: 9f29 91bc 8540 78bc 096d 473c 1dfa 093d
000002e0: 9457 a33c 5759 5c3c 2370 67bb 3f20 9c3c
000002f0: af60 7c3c f359 0d3d 3886 903c cca0 3e3c
00000300: fd9a 8eba d486 c63c 3d9c 4c3c b549 bdbb
00000310: d65e ac3c cb12 9c3a 649b 823a 7f9d 9d3c
00000320: ae13 213d 3d64 eb3c 36db 8ebc d89c 843c
00000330: 729e 973b 7b14 e6bb 3c7f 853c 5891 733c
00000340: 1501 773c 735f 083b f648 dc3c 3922 3fbc
00000350: 2f4a f03c 3cf6 163d 2a63 533d 2b49 d33c
00000360: bd5a 063d 0cf2 da3c 8914 8c3d 661f 873c
00000370: 0d18 1dbd 47b2 e4bb d0fe 1c3c 2172 fbbb
00000380: aeb7 763c 4da3 043d 5446 81ba d4b9 ccbb
00000390: d00f f9bb 2219 27bb 0854 9b3c c71c 0b3d
000003a0: 6d98 d33c cf5d 463c 077b 953b ab3e a33c
000003b0: 3d3a a2bc 74cf 38bc e73b 77bb 758c 053d
000003c0: 9b74 0a3d d701 3c3c 4a9c 363c 0ce6 693d
000003d0: 9807 1dbd b390 203c 30bd 883c 338b af3c
000003e0: 4064 603c d5fa 703b d27e 823c b787 9f3c
000003f0: 9e56 653d 3e29 573d 3e2e a73c 2574 1d3d

network_body._body_endoder.seq_layers.2.weight f4 [256, 256]
0.04817034 -0.090985686 0.07002438 -0.03377691 -0.13287155 -0.08764359 -0.04071999 -0.06499501
-0.09142126 0.05095571 -0.00897362 -0.02848489 0.077320576 0.022435626 -0.008176964 0.16821437
0.054887887 -0.08222045 0.08038006 -0.042932793 -0.054301757 0.111723244 0.2690533 -0.0643335
-0.029041722 0.020220961 -0.056855436 0.04365307 0.06657725 0.043721087 -0.093333215 0.049635153
0.12182792 0.008666746 0.13135582 -0.034952324 -0.071024984 -0.011861845 -0.26364836 -0.027643362
-0.0059159067 0.037562232 0.047289807 -0.005925776 -0.011533112 0.061679587 -0.094150804 -0.057589494
-0.028015336 -0.002242312 0.11911425 0.120688595 0.14220166 -0.035609704 0.08040902 -0.11899397
0.089546256 0.051007282 -0.07002455 -0.0023722851 0.04864806 -0.08611847 -0.021230113 0.02978857
-0.10352701 -0.10087999 0.21507105 0.14292702 -0.07126151 0.056334473 -0.04929272 -0.015355641
-0.10392415 0.025937172 0.07142237 -0.0014161841 -0.1604246 0.020840416 -0.046450168 0.12064959
0.0451356 0.0070842584 -0.027580619 0.060888983 0.09362064 -0.019429024 -0.012286266 -0.060602598
-0.039856505 0.08526852 0.06909147 0.07648176 -0.008510482 0.0170592 0.017655762 0.028236864
-0.033407513 -0.05610493 0.056314655 -0.053978965 -0.014617485 0.09638172 -0.1275582 -0.23684955
-0.02552833 0.18748291 0.018141033 0.09905513 -0.02783854 0.007984598 0.06599497 0.14490227
0.09468826 -0.010210614 -0.15189132 -0.058439802 -0.011567326 0.07233121 -0.06609048 -0.01787274
0.03189827 0.034002837 0.030406483 -0.01003566 -0.061535005 0.0054257815 0.029539451 0.006055656
0.0027948343 0.0025053446 -0.041809525 0.024818605 0.042402096 0.0704052 -0.06452106 -0.0009977024
-0.02233167 0.019351022 -0.03188068 0.0059886794 0.047638614 0.03925443 0.022528453 -0.043909717
0.12560795 -0.023760136 0.0372711 -0.05536116 -0.0017483764 -0.06297313 0.12535203 -0.044994414
0.05252133 0.042968288 0.06392836 -0.10067152 0.031737853 0.04578809 0.0048988685 0.070896305
-0.024796743 0.042514905 -0.054305084 0.028009286 -0.09071216 0.015678002 0.18861023 0.057665776
0.054223817 0.055805426 0.072250165 0.019374365 -0.009470597 -0.028046645 0.039494067 -0.0039710314
-0.07308742 0.087678954 0.1285538 0.07687926 0.12862922 -0.05181105 -0.08724709 0.0127077885
0.08414223 -0.03416072 -0.048217256 -0.12910545 -0.090869896 0.038454723 -0.023501186 0.07753235
-0.005897923 -0.105976894 -0.08897717 -0.0014366801 -0.039675012 -0.02521118 -0.00010677061 -0.058976933
-0.09667416 0.03830823 -0.03628185 0.088748924 0.07071785 -0.03465964 -0.0121859675 -0.11930788
0.15198936 0.04875057 -0.042424124 0.0632667 -0.089481115 -0.1415093 -0.08341827 0.016270967
0.058431864 -0.053634796 -0.15015924 -0.036998514 0.10149612 0.18344653 -0.12386159 0.072849065
0.093245834 -0.107220605 0.07664428 0.08986234 -0.06589998 -0.022679022 -0.11260111 0.009836149
-0.03341326 0.024619423 -0.16971534 0.142512 0.039512616 0.017299918 -0.064347535 -0.0952889
-0.0048837 -0.07046191 0.15303047 -0.06615428 0.11334224 0.05565491 -0.106336266 -0.14933735
0.15235221 0.03979394 0.009268059 -0.16267799 -0.04447356 -0.0066150627 0.07330806 -0.061917312
00000000: 434e 453d b456 babd f168 8f3d a859 0abd
00000010: 7b0f 08be 7c7e b3bd 01ca 26bd 1b1c 85bd
00000020: 123b bbbd efb6 503d 1706 13bc 2559 e9bc
00000030: 405a 9e3d ebca b73c acf8 05bc 6340 2c3e
00000040: 1fd2 603d 3263 a8bd 4d9e a43d 4cda 2fbd
00000050: 856b 5ebd 28cf e43d 5bc1 893e 48c1 83bd
00000060: e8e8 edbc 6ea6 a53c 3fe1 68bd 90cd 323d
00000070: a759 883d e214 333d 7c25 bfbd 3b4e 4b3d
00000080: eb80 f93d f8fe 0d3c 2482 063e 2b2a 0fbd
00000090: 8c75 91bd 2f58 42bc ebfc 86be 5574 e2bc
000000a0: 39da c1bb dbda 193d f5b2 413d 032d c2bb
000000b0: 61f5 3cbc bca3 7c3d 23d2 c0bd f6e2 6bbd
000000c0: 6b80 e5bc c1f3 12bb 2cf2 f33d 952b f73d
000000d0: 509d 113e 7bdb 11bd 7cad a43d 1cb3 f3bd
000000e0: 0764 b73d 03ed 503d 0869 8fbd 5778 1bbb
000000f0: 3043 473d e15e b0bd c6ea adbc 2907 f43c
00000100: f805 d4bd 2b9a cebd 963b 5c3e 765b 123e
00000110: 8ef1 91bd fabe 663d 2ae7 49bd 3a96 7bbc
00000120: 2fd6 d4bd 317a d43c e445 923d 419f b9ba
00000130: 5946 24be 85b9 aa3c 8842 3ebd 2217 f73d
00000140: 1be0 383d 1123 e83b c0f0 e1bc ba66 793d
00000150: 2ebc bf3d 9e29 9fbc 564c 49bc 6e3a 78bd
00000160: 9340 23bd 43a1 ae3d d47f 8d3d 78a2 9c3d
00000170: 8c6f 0bbc bcbf 8b3c d1a2 903c ff50 e73c
00000180: 51d6 08bd 48ce 65bd 32aa 663d 0c19 5dbd
00000190: 2d7e 6fbc c763 c53d 9e9e 02be b088 72be
000001a0: ca20 d1bc 85fb 3f3e 819c 943c 6add ca3d
000001b0: a60d e4bc d5d1 023c 5f28 873d 4361 143e
000001c0: ebeb c13d 6b4a 27bc 6689 1bbe 935e 6fbd
000001d0: e284 3dbc 6322 943d 725a 87bd da69 92bc
000001e0: c3a7 023d 8f46 0b3d 0417 f93c 9c6c 24bc
000001f0: 210c 7cbd c1ca b13b b8fc f13c 866e c63b
00000200: 8a29 373b b530 243b 7740 2bbd 6350 cb3c
00000210: d2ad 2d3d 9a30 903d 9e23 84bd 56c5 82ba
00000220: e8f0 b6bc 0986 9e3c 5195 02bd af3c c43b
00000230: b520 433d 41c9 203d 978d b83c adda 33bd
00000240: 5f9f 003e 9ea4 c2bc 95a9 183d 62c2 62bd
00000250: c729 e5ba 0ef8 80bd 485c 003e 104c 38bd
00000260: 9b20 573d 84ff 2f3d dfec 823d df2c cebd
00000270: 8dff 013d 4b8c 3b3d b086 a03b 1532 913d
00000280: 8a22 cbbc 1c24 2e3d 026f 5ebd bb73 e53c
00000290: 4cc7 b9bd 276f 803c 0a23 413e f332 6c3d
000002a0: cb19 5e3d 3b94 643d e5f7 933d fdb6 9e3c
000002b0: 902a 1bbc 14c2 e5bc 88c4 213d 6d1f 82bb
000002c0: dbae 95bd 0691 b33d 9ba3 033e e072 9d3d
000002d0: 61b7 033e d337 54bd 9aae b2bd 5434 503c
000002e0: c352 ac3d 1cec 0bbd 757f 45bd 3834 04be
000002f0: ff19 babd b382 1d3d 8f85 c0bc 48c9 9e3d
00000300: 5d43 c1bb 6a0a d9bd aa39 b6bd fc4e bcba
00000310: 4482 22bd ad87 cebc 09ea dfb8 cc91 71bd
00000320: 1afd c5bd 17e9 1c3d 479c 14bd ffc1 b53d
00000330: 85d4 903d 44f7 0dbd a7a7 47bc b157 f4bd
00000340: 19a3 1b3e adae 473d ebc4 2dbd f991 813d
00000350: e041 b7bd d0e7 10be 33d7 aabd b14a 853c
00000360: 4056 6f3d 29b0 5bbd 58c3 19be c18b 17bd
00000370: 33dd cf3d 68d9 3b3e 25ab fdbd e431 953d
00000380: acf7 be3d 7a96 dbbd adf7 9c3d bf09 b83d
00000390: 92f6 86bd 5bc9 b9bc 699b e6bd cd27 213c
000003a0: 58dc 08bd acae c93c dcc9 2dbe aaee 113e
000003b0: fbd7 213d 8fb8 8d3c a4c8 83bd d426 c3bd
000003c0: 7207 a0bb 554e 90bd 05b4 1c3e e57b 87bd
000003d0: fa1f e83d 67f6 633d d4c6 d9bd e4eb 18be
000003e0: 3802 1c3e f8fe 223d 0fd9 173c 0f95 26be
000003f0: e829 36bd 2bc3 d8bb 8922 963d 029d 7dbd

network_body._body_endoder.seq_layers.2.bias f4 [256]
0.0050572488 0.007458515 0.007132536 9.880273e-05 0.016322672 0.03497353 -0.0007213657 -0.0074638827
0.028425656 -0.009662066 0.026057899 0.0041222344 0.03329612 0.022599695 -0.0076705967 0.010268071
0.00030038017 0.008083653 0.018565599 -0.004239376 0.0024920336 0.006153666 0.013118351 0.01883036
0.02345437 0.010743614 0.0071782856 0.042117126 0.00076874375 0.021416461 -0.007329854 -0.010860931
-0.008070403 -0.004151418 0.03623367 0.022072611 0.016600277 -0.009499471 0.011026865 0.014157451
-0.0067320713 0.0079675885 0.03714143 0.022878788 0.030300787 -0.0070515615 0.0054445695 0.00043589206
0.01268357 0.018665154 0.021558225 0.0057556047 -0.0043474543 0.012855476 0.02425113 -0.014523244
0.02928855 0.005723193 0.038253494 0.026526188 0.031287063 0.009406213 0.021319436 0.01192331
0.0278998 0.015805455 -0.0005021941 0.025947178 0.012308536 -0.008881824 -0.0058778236 0.012696304
0.014546789 0.04088184 0.00965809 0.04715512 0.017027952 0.008487126 0.0050182883 0.005860012
0.023922877 0.03378424 -0.0025413588 0.029318558 -0.005122701 0.009962707 0.019289978 0.0043700794
0.032730017 0.018440329 0.014012687 -0.01165037 0.00018814774 -0.003153292 0.0033688173 0.028529614
-0.0019775792 -0.0026888584 0.024027951 0.013000997 0.011075219 0.036013518 0.0136387 0.0074661807
-0.0022352533 -0.010847275 0.0021455786 -0.006092291 -0.006651848 0.0051417123 -0.00045545722 0.019587908
0.035235908 -0.015254015 -0.0007273166 0.04130621 0.028964818 0.004330847 0.014918388 -0.008347399
0.0027004264 -0.0029310544 0.020898119 0.0138742 0.015022792 0.019314967 0.019409219 0.016690146
-0.012971848 0.0019347575 0.03697308 -0.00924145 -0.01621164 0.018788593 0.024168164 0.02420686
0.031330686 -0.0055374894 0.004337129 0.006009189 -0.011196532 0.02210123 -0.013822929 0.0158456
0.0100672785 0.011545456 0.0060676034 -0.011527686 -0.012089783 0.0085621225 8.411772e-05 0.01065267
-0.00069462135 0.024666179 0.042238884 -0.009745858 0.016704075 0.014234139 0.031544704 0.014894257
0.021365508 0.022870578 0.021800078 -0.0010711028 -0.015547157 0.014020299 -0.008333495 0.030682692
0.006980575 0.0036241827 0.009937789 0.01620736 0.023200667 -0.0030391733 0.015168853 0.0069654617
0.014392438 -0.009964471 -0.0039920243 0.036907807 -0.007822147 0.012195267 0.030880777 0.03291493
0.0042506186 0.01756908 0.0077111986 0.010999123 0.030509586 0.035919815 0.013762669 0.020749796
-0.0076679443 -0.011927383 0.022949042 0.025130207 0.0014379527 0.012442546 0.020874036 0.028963322
-0.002390152 0.0031974302 0.008139327 0.0070358757 0.0034077568 -0.004131203 0.023653973 0.0066086086
-0.0017710259 -0.0031976344 0.005517914 -0.0050852434 0.013684528 0.015583429 0.026695592 0.0005887682
0.008771873 0.010999641 -0.0040053427 0.003387648 0.022047091 0.038027395 0.0153142065 0.013305976
0.0048528425 -0.0020970812 -0.011015977 0.020543376 0.024802763 0.048799157 0.0026420208 0.03360331
0.014685409 -0.013423015 0.022714272 -0.0068626064 -0.00041014072 0.0059378236 0.020473782 -0.004005715
0.026311588 0.027579987 -0.0055846768 0.010310806 0.005028562 0.03498959 0.015760869 0.03656743
0.0066776634 -0.008801566 0.015217037 -0.006468023 -0.0040163165 -0.00022364024 0.018255323 0.0112685915
00000000: 47b7 a53b 8f66 f43b 0cb8 e93b 5034 cf38
00000010: 20b7 853c 6740 0f3d 081a 3dba 9693 f4bb
00000020: ecdc e83c a44d 1ebc 6077 d53c cf13 873b
00000030: 8361 083d ff22 b93c a159 fbbb 693b 283c
00000040: 587c 9d39 4c71 043c e216 983c 77ea 8abb
00000050: 6351 233b b1a4 c93b 5aee 563c 2142 9a3c
00000060: 6123 c03c fc05 303c d337 eb3b 0283 2c3d
00000070: 8585 493a 9371 af3c 462f f0bb 0cf2 31bc
00000080: b939 04bc 9e08 88bb c269 143d 9fd1 b43c
00000090: 4efd 873c aba3 1bbc 06aa 343c a7f4 673c
000000a0: b598 dcbb 7d8a 023c 9d21 183d 4c6c bb3c
000000b0: 5b39 f83c c910 e7bb 5c68 b23b 7188 e439
000000c0: c0ce 4f3c aae7 983c e09a b03c 8399 bc3b
000000d0: 1775 8ebb c69f 523c 4eaa c63c e7f2 6dbc
000000e0: 8bee ef3c 9f89 bb3b b2af 1c3d 734d d93c
000000f0: dd26 003d 841c 1a3c 19a6 ae3c fd59 433c
00000100: 1f8e e43c 717a 813c ada5 03ba 2d8f d43c
00000110: bea9 493c 1285 11bc c29a c0bb 2904 503c
00000120: a855 6e3c b773 273d f73c 1e3c ba25 413d
00000130: 347e 8b3c 960d 0b3c 7470 a43b 5805 c03b
00000140: e9f9 c33c 5861 0a3d ed8c 26bb 792d f03c
00000150: 55dc a7bb 9f3a 233c 0406 9e3c e232 8f3b
00000160: e90f 063d 2c10 973c 7895 653c 32e1 3ebc
00000170: 8649 4539 76a7 4ebb 60c7 5c3b f0b6 e93c
00000180: 469a 01bb 8f37 30bb 44d6 c43c 2202 553c
00000190: d674 353c e982 133d db74 5f3c dda6 f43b
000001a0: 547d 12bb c5b8 31bc d69c 0c3b d7a1 c7bb
000001b0: bff7 d9bb cf7b a83b 6fca eeb9 d276 a03c
000001c0: 8753 103d faeb 79bc 64a9 3eba b330 293d
000001d0: a047 ed3c c7e9 8d3b 416c 743c 87c3 08bc
000001e0: a3f9 303b ef16 40bb 8832 ab3c 9d50 633c
000001f0: 2822 763c 6c3a 9e3c 1500 9f3c c6b9 883c
00000200: e087 54bc b097 fd3a 1671 173d 7369 17bc
00000210: 46ce 84bc 89ea 993c 50fc c53c 774d c63c
00000220: 9b54 003d d473 b5bb 7a1e 8e3b bbe8 c43b
00000230: a971 37bc a40d b53c 9179 62bc a2ce 813c
00000240: 3af1 243c 2729 3d3c bfd2 c63b 9fde 3cbc
00000250: 3a14 46bc 2548 0c3c 5b68 b038 8988 2e3c
00000260: 4017 36ba ba10 ca3c ae02 2d3d 17ad 1fbc
00000270: fcd6 883c 4e36 693c 0535 013d 0b07 743c
00000280: b806 af3c 145b bb3c 1496 b23c 3f64 8cba
00000290: 81b9 7ebc 65b5 653c 3689 08bc 455a fb3c
000002a0: 4fbd e43b b283 6d3b 1cd2 223c 4cc5 843c
000002b0: 530f be3c de2c 47bb c886 783c 873e e43b
000002c0: 43ce 6b3c 0542 23bc 87cf 82bb a42c 173d
000002d0: 7628 00bc a8ce 473c aff9 fc3c ced1 063d
000002e0: c648 8b3b 08ed 8f3c 39ae fc3b aa35 343c
000002f0: 3def f93c a820 133d d17c 613c 7afb a93c
00000300: 6143 fbbb 126b 43bc a1ff bb3c dddd cd3c
00000310: b079 bc3a d2db 4b3c 0700 ab3c 7d44 ed3c
00000320: 19a4 1cbb fa8b 513b d05a 053c 348d e63b
00000330: ac54 5f3b 0b5f 87bb fac5 c13c 078d d83b
00000340: c521 e8ba 678f 51bb 9ecf b43b 1da2 a6bb
00000350: 1235 603c a351 7f3c b7b0 da3c 9157 1a3a
00000360: e7b7 0f3c d737 343c 403f 83bb 4d03 5e3b
00000370: 1a9c b43c 9dc2 1b3d 70e8 7a3c 4f01 5a3c
00000380: 9804 9f3b 2f6f 09bb 5b7c 34bc 954a a83c
00000390: 2a2f cb3c a0e1 473d c125 2d3b a0a3 093d
000003a0: 129b 703c 35ec 5bbc 4813 ba3c b7df e0bb
000003b0: 2808 d7b9 1392 c23b a2b8 a73c 5f42 83bb
000003c0: 668b d73c 6def e13c aaff b6bb a8ee 283c
000003d0: a3c6 a43b 3f51 0f3d f01c 813c bbc7 153d
000003e0: 4dd0 da3b 7234 10bc e150 793c b6f1 d3bb
000003f0: 4e9b 83bb f880 6ab9 308c 953c e69f 383c

action_model._continuous_distribution.log_sigma f4 [1, 5]
-0.16594537 -0.11162062 -0.14081103 -0.04027122 -0.043629844
00000000: 95ed 29be 5a99 e4bd c430 10be 6ff3 24bd
00000010: 35b5 32bd

action_model._continuous_distribution.mu.weight f4 [5, 256]
-0.03209345 0.060010772 -0.031792816 0.051547516 -0.03377508 0.010128083 0.05248949 -0.00016239814
0.018565135 0.037874367 0.043023665 0.05991937 -0.0072043356 0.022307996 -0.028663328 -0.082315676
0.07735237 0.0003029983 -0.08280909 5.959593e-05 0.032799143 0.024495477 -0.08956157 0.025696177
-0.053453833 0.06409391 0.040356994 -0.0030917786 -0.027769191 0.0039082025 0.010522753 -0.01857251
-0.050715763 0.018461704 -0.0571045 0.050309233 -0.053737167 -0.033888955 0.033193525 0.03735561
-0.009881857 0.017032145 -0.013300386 -0.044850744 -0.04920354 -0.05476953 -0.04486265 -0.08682283
-0.026698189 -0.047935303 0.01209308 -0.0050156233 0.026435181 0.011210636 0.03134886 0.0136555545
0.028225977 0.020856312 -0.0036702761 0.031236026 0.00539129 0.05333421 -0.013788601 0.007319456
-0.03252125 -0.033457983 0.0469791 0.012610773 -0.049335014 0.008658143 0.086829536 -0.016492793
-0.035211097 -0.045254234 -0.0023722036 -0.011961367 -0.03172949 -0.017527014 -0.013631015 0.024716591
-0.00032768046 -0.03245538 0.026441561 0.015752435 0.0073812366 0.028405067 0.010998953 -0.0020456177
0.009328917 0.0041651865 -0.06412472 0.029211016 -0.06852916 -0.00059596245 -0.047871415 0.015213346
-0.009957631 0.004699478 0.043584608 -0.007465148 -0.013406693 0.02212004 0.007044593 0.00044489256
0.058827948 0.0075466596 0.0299588 0.040626805 0.026736544 0.038477357 -0.0049688574 -0.039931405
-0.013035202 0.041573264 -0.019814985 0.009741334 -0.003678482 -0.06234846 0.029416954 -0.009079556
0.0034141755 -0.07029378 -0.016684225 -0.054275606 0.046013623 0.031829588 0.0641918 0.02066829
0.017841386 0.06300172 -0.009541271 0.02476574 -0.026330879 0.053265255 0.040931433 0.02491744
-0.054647405 0.0077247866 -0.002557843 0.052856915 -0.027968256 -0.014938416 0.0220874 -0.008430862
-0.010580707 0.005067287 -0.0010007931 0.052874546 0.0004239073 0.045387886 0.0815957 -0.03766898
0.0057499083 0.013259473 -0.025691677 0.021792112 -0.05334033 0.04756822 0.017361877 -0.034946438
0.01564796 0.0116631165 -0.040132523 0.06458078 0.0068817683 0.08305932 0.004910229 0.0023310112
-0.08318662 -0.005680565 0.002978984 -0.012236523 0.0013539414 0.047817588 -0.035712615 -0.029579941
-0.013048492 -0.0018028365 -0.01067533 -0.015325077 -0.008746779 0.07222822 0.01804949 0.004478204
-0.011303169 0.02287457 0.032243554 0.025845211 0.007742271 -0.0013163436 -0.05652856 -0.05172174
0.022022014 -0.014177522 0.012414599 -0.06294312 -0.0065382714 -0.006874054 -0.024542352 -0.09986848
0.015992355 0.044863056 -0.015422371 0.0010240036 -0.011337575 0.04416027 0.0282382 0.026107168
0.0443674 -0.04942009 0.02900837 0.019163447 0.06005813 -0.029601516 -0.046881787 0.034063723
-0.038403556 0.007212864 0.008736206 0.02233189 -0.0003104716 -0.0001489475 0.0055762134 -0.0119745135
0.017808657 -0.058301058 -0.050168373 -0.0127096595 -0.01577143 -0.015925173 0.080267906 0.01429459
0.039448425 -0.0014854532 -0.0067661726 0.03454425 -0.017983202 0.020794941 -0.044032875 -0.020668592
-0.027165938 -0.027514847 0.067246236 0.049100313 -0.009424521 -0.05241864 -0.032812428 -0.09868538
0.037577618 0.007199253 0.0032263296 0.029075053 0.041135285 -0.053967595 0.027192594 0.021664053
00000000: 6c74 03bd dbcd 753d 2f39 02bd 7d23 533d
00000010: bd57 0abd 42f0 253c 38ff 563d 6b49 2ab9
00000020: e915 983c 2722 1b3d 9539 303d 036e 753d
00000030: 5912 ecbb 42bf b63c 5bcf eabc 1f95 a8bd
00000040: eb6a 9e3d bedb 9e39 d097 a9bd a5f6 7938
00000050: 6558 063d bdaa c83c 0e6c b7bd ca80 d23c
00000060: 68f2 5abd ab43 833d 604d 253d 709f 4abb
00000070: 377c e3bc 6110 803b a067 2c3c 6025 98bc
00000080: 55bb 4fbd 003d 973c 68e6 69bd 0e11 4e3d
00000090: 811b 5cbd 25cf 0abd eff5 073d 3202 193d
000000a0: 83e7 21bc ff86 8b3c dde9 59bc 6ab5 37bd
000000b0: a789 49bd 0456 60bd e6c1 37bd 2bd0 b1bd
000000c0: 29b6 dabc cf57 44bd 0e22 463c 195a a4bb
000000d0: 988e d83c d1ac 373c aa67 003d 8cbb 5f3c
000000e0: 2a3a e73c dbda aa3c 0489 70bb b2e2 ff3c
000000f0: 6ba9 b03b f974 5a3d 96e9 61bc 0cd8 ef3b
00000100: 0135 05bd 3d0b 09bd 286d 403d 6a9d 4e3c
00000110: 8313 4abd e2da 0d3c afd3 b13d e51b 87bc
00000120: 8339 10bd 815c 39bd f976 1bbb 9cf9 43bc
00000130: c8f6 01bd d094 8fbc 9f54 5fbc 737a ca3c
00000140: 87cc abb9 efef 04bd f99b d83c 400b 813c
00000150: 4dde f13b beb1 e83c f434 343c c50f 06bb
00000160: 50d8 183c 1e7c 883b d253 83bd f14b ef3c
00000170: 0459 8cbd 5d3a 1cba d114 44bd 6641 793c
00000180: 5525 23bc 14fe 993b c685 323d 339e f4bb
00000190: bfa7 5bbc 1635 b53c 54d6 e63b 7840 e939
000001a0: 93f5 703d f849 f73b 286c f53c 4b68 263d
000001b0: 9906 db3c 6f9a 1d3d ccd1 a2bb 1d8f 23bd
000001c0: 9a91 55bc ba48 2a3d 0953 a2bc 1e9a 1f3c
000001d0: b012 71bb 1961 7fbd d3fb f03c 6bc2 14bc
000001e0: 5cc0 5f3b 2ff6 8fbd 5bad 88bc 1950 5ebd
000001f0: c878 3c3d be5f 023d fe76 833d 8c50 a93c
00000200: 1928 923c 0c07 813d fe52 1cbc 85e1 ca3c
00000210: dbb3 d7bc ab2c 5a3d b8a7 273d a91f cc3c
00000220: f5d5 5fbd 3520 fd3b 7ca1 27bb 7e80 583d
00000230: af1d e5bc 42c0 74bc a3f0 b43c 9921 0abc
00000240: b45a 2dbc 7c0b a63b 0b2d 83ba fb92 583d
00000250: e03f de39 a6e8 393d a51b a73d ca4a 1abd
00000260: ba69 bc3b 433e 593c 5a77 d2bc 5f85 b23c
00000270: 647b 5abd e5d6 423d 7f3a 8e3c ff23 0fbd
00000280: 2730 803c a816 3f3c 0062 24bd ee42 843d
00000290: 7580 e13b 011b aa3d fce5 a03b e1c3 183b
000002a0: bf5d aabd 0824 babb 0f3b 433b b37b 48bc
000002b0: bc76 b13a 60dc 433d 6447 12bd a251 f2bc
000002c0: 58c9 55bc 284d ecba 94e7 2ebc 0816 7bbc
000002d0: a64e 0fbc 64ec 933d 86dc 933c e6bd 923b
000002e0: ed30 39bc 7363 bb3c d111 043d 56b9 d33c
000002f0: e0b2 fd3b 2989 acba 7e8a 67bd 2dda 53bd
00000300: 8367 b43c d648 68bc 9a66 4b3c 53e8 80bd
00000310: ff3e d6bb bf3f e1bb 0b0d c9bc d887 ccbd
00000320: 6602 833c 53c2 373d 1dae 7cbc dc37 863a
00000330: 3cc1 39bc 66e1 343d cc53 e73c b3de d53c
00000340: 97ba 353d b86c 4abd f6a2 ed3c a9fc 9c3c
00000350: 84ff 753d e17e f2bc 1e07 40bd 6786 0b3d
00000360: 0c4d 1dbd e359 ec3b 4e22 0f3c 5ef1 b63c
00000370: cbc6 a2b9 ca2e 1cb9 abb8 b63b c030 44bc
00000380: 76e3 913c 17cd 6ebd 5a7d 4dbd 2d3c 50bc
00000390: 1633 81bc 8275 82bc 8063 a43d db33 6a3c
000003a0: ac94 213d 8ab3 c2ba c5b6 ddbb 467e 0d3d
000003b0: 8251 93bc 275a aa3c d15b 34bd 2e51 a9bc
000003c0: 1a8b debc d166 e1bc 65b8 893d 691d 493d
000003d0: 4e69 1abc eeb4 56bd 5366 06bd 8f1b cabd
000003e0: fdea 193d b6e7 eb3b d470 533b ce2e ee3c
000003f0: 797d 283d 200d 5dbd 01c3 de3c d078 b13c

action_model._continuous_distribution.mu.bias f4 [5]
-0.0004446997 0.01632984 -0.008938657 0.003533513 -0.0051975455
00000000: 9526 e9b9 28c6 853c 7273 12bc 8392 673b
00000010: 2c50 aabb
