configfiles/results/hb_01/Hummingbird/Hummingbird-4499968.onnx (onnx, 330176 bytes, 7 tensors)

network_body._body_endoder.seq_layers.0.weight f4 [256, 55]
000000 be cb 1c bd 87 8a dd 3d 7d bf 05 be 07 5d a9 3c
       -0.03828024 0.108174376 -0.13061328 0.020674242
000010 dd 44 dc 3b 9c 67 8a 3d 7b 67 a8 3c 83 1a 38 3e
       0.0067220763 0.06758043 0.020557156 0.17978863
000020 74 94 c2 bd 7a c9 75 3d c1 8c 99 3d 9d 5b 03 3d
       -0.095009714 0.060006596 0.0749755 0.03206979
000030 92 47 53 bd 14 c4 c8 3d 91 35 81 3c 66 9d 28 3e
       -0.051581927 0.09803024 0.015772613 0.16466293
000040 29 d0 eb 3c fb 85 d6 3c 7c c2 81 3d c6 c0 67 3d
       0.028785782 0.026186934 0.06335923 0.056580327
000050 7c 50 d9 3d 78 11 52 3e 76 1e ac 3d 5b 5d 86 3d
       0.10611054 0.20514476 0.084042475 0.06560775
000060 a1 91 28 bc c6 e3 e1 3d d0 4b 86 bc db 47 4e bd
       -0.010288627 0.110297725 -0.016393572 -0.050361495
000070 66 07 8e 3d da 25 f4 3c 4c 26 1f 3e 5a 96 ad 3e
       0.06935005 0.029803205 0.15541953 0.33903772
000080 ff 2b 01 bd d5 b8 30 be 83 84 02 bc b1 d2 69 be
       -0.0315361 -0.17258008 -0.007966164 -0.22834279
000090 fe 70 3a 3e 35 0d 6c 3e 0b ed cc bd f6 cd 33 3e
       0.18207166 0.23051913 -0.1000615 0.17559037
0000a0 58 3d ec bc e9 dc 97 3d cf 5a 96 bd 5a e2 db bd
       -0.028837845 0.07415182 -0.07341539 -0.107365325
0000b0 13 5a 60 3e 65 c4 ea bd c4 c9 35 3d b9 cd 84 3e
       0.2190936 -0.114632405 0.04438187 0.25938204
0000c0 cd f5 c2 3d 18 85 39 3e 79 46 0a be f6 ad 96 be
       0.09519539 0.18117177 -0.13503446 -0.29429597
0000d0 e1 07 63 3e d0 de 44 3e aa 23 fa 3d cd d9 97 3c
       0.22170974 0.19225621 0.12213834 0.018536473
0000e0 d0 02 3d 3e 98 68 40 3e ee 79 84 bd ae 12 12 3e
       0.18458104 0.187899 -0.06468569 0.14264938
0000f0 3c 40 bc bd 54 99 df 3d 15 fa d2 3d e4 10 ba 3d
       -0.09191939 0.10917917 0.103016056 0.09085253
000100 8d 79 58 3d 7a 17 9d bc 51 3c f6 3c 88 07 22 be
       0.052850295 -0.019176234 0.030058058 -0.15823185
000110 91 a1 a7 bd 47 c3 2e 3e 59 08 4b bc 9a 02 a9 3e
       -0.08185113 0.1706668 -0.012392127 0.33009797
000120 5c c2 75 3d bb 30 9b be 1b 34 ae be 96 c4 de 3d
       0.05999981 -0.30310616 -0.34024128 0.108773395
000130 8e 7e 12 3d 79 e7 9d 3c de 6b 89 3e ac d3 c7 bd
       0.035765223 0.019275414 0.2684011 -0.0975717
000140 0a 7f 96 3e b5 ee 5c 3d cb 8c af bc fc ed 17 3e
       0.29393798 0.053938586 -0.02142944 0.14836878
000150 ee 17 8e be 37 dd e6 3d 72 a5 14 3e 75 bb db bd
       -0.27752632 0.11272662 0.14516237 -0.10729114
000160 2b ce 5e be 5d 89 4d be f6 a4 62 3e 6b 66 4d be
       -0.21758334 -0.20071931 0.2213324 -0.200586
000170 37 f9 7f bc 79 ec bd bd 66 33 c3 3d 86 b2 a9 bd
       -0.015623382 -0.09273619 0.09531288 -0.08286004
000180 c7 36 a3 3c 11 a9 a8 bd 78 df 03 3e be cd 86 3e
       0.01992358 -0.08235372 0.12878215 0.26328844
000190 37 c7 02 be 7b be 63 be e4 a8 e0 3d 33 0f 2f be
       -0.12771307 -0.22240631 0.10969713 -0.17095642
0001a0 8a 91 03 3d 37 f0 22 3e 1b 21 b6 bd 4f 33 ad be
       0.03212122 0.15911947 -0.08893033 -0.33828208
0001b0 5a 75 99 be 1d 36 da 3d bc 07 a2 3d a1 c6 14 3d
       -0.29972345 0.106548525 0.079116315 0.03632224
0001c0 1a d4 80 bd 8b 5d 12 3e d1 79 19 be cb fc 45 3d
       -0.06290455 0.14293496 -0.14987876 0.048336785
0001d0 6b fd 97 be 29 94 fe 3a 35 58 c4 3c 3e 00 6a bc
       -0.2968553 0.0019422817 0.023967842 -0.014282284
0001e0 d5 33 d3 3d f3 c6 a9 bb a7 e9 ef 3d be 52 40 be
       0.103126206 -0.0051811873 0.117144875 -0.18781564
0001f0 b8 2d dd 3d f6 5e 08 3e 6c c4 73 3e 39 7b 0f be
       0.10799736 0.13317475 0.23805398 -0.1401185
000200 c5 18 18 be e4 39 1f 3e ba ab 70 3d d8 04 e1 3d
       -0.14853199 0.15549427 0.05875752 0.10987252
000210 0c c1 7f 3e 81 ed 6b 3e 60 c9 8e bd f3 66 31 be
       0.24975985 0.2303982 -0.06972003 -0.17324428
000220 88 e0 86 bd d7 f9 38 3e 79 b1 18 be ef 1f 9e be
       -0.06585795 0.18064056 -0.1491145 -0.30883738
000230 98 be 3a 3e c0 28 a0 bd cb 23 e4 3d 7f 2f 9a 3c
       0.18236768 -0.078202724 0.111396395 0.018821476
000240 72 52 91 3d ad 00 cc bd 28 46 e7 3c 42 aa c7 bd
       0.07095803 -0.099610664 0.028231695 -0.09749271
000250 78 54 35 3d 8f e7 70 bd 06 bb 2d 3e ad 3e 29 3e
       0.04427001 -0.05881458 0.16965875 0.16527815
000260 58 b9 ab 3c 9e a2 b2 bd 28 83 e0 bc c0 6a 4e 3d
       0.020962402 -0.08722423 -0.02740629 0.050394773
000270 09 4f 83 bd 0b ed 6e 3e f9 0e d2 bd 19 38 77 be
       -0.06411559 0.23332612 -0.10256762 -0.24142493
000280 0e c5 15 be e1 3a 82 3e 6c 0f db bb b7 30 e5 3d
       -0.14625952 0.25435546 -0.006685188 0.11190932
000290 d2 3e bd 3d 9c 6f 6d 3e 6d 8b 4f be cc 14 91 be
       0.09240498 0.23187107 -0.2026803 -0.2833618
0002a0 b9 cf 95 3d 47 73 ac 3d ca 72 0d be e8 52 80 bd
       0.073150106 0.08420425 -0.1381332 -0.06265813
0002b0 35 38 1e bd 0c 29 49 bd 7e 90 91 3d 76 c2 72 bd
       -0.038627822 -0.04911141 0.07107638 -0.059267484
0002c0 d6 db 21 be 9f d9 8b 3c 11 11 c5 bd 0e 31 e9 bd
       -0.15806517 0.017071543 -0.09622396 -0.113863096
0002d0 06 81 61 3d 11 64 8b 3e 15 a8 68 3d 5f 5b e0 bd
       0.055054687 0.27224782 0.05680092 -0.10954928
0002e0 96 3a 9a bd 75 8e 33 bd fc 26 64 be 6b 0e 4d bd
       -0.07530706 -0.04383703 -0.22280496 -0.05006258
0002f0 0b a4 45 3d bb df 46 3d c1 1b bb 3d bf 5a 16 be
       0.048252147 0.04855321 0.09136153 -0.14683054
000300 13 7c 9f 3b 67 20 88 bc 0e ae b8 3c d3 6e de 3b
       0.0048670857 -0.016617013 0.022543933 0.0067881136
000310 df c1 49 bc 94 5c c2 bc 92 86 f4 bd 49 20 d4 bd
       -0.012314289 -0.023725785 -0.1193973 -0.103577204
000320 f4 88 0c 3e 26 1b a1 3e 35 92 05 bd e6 7f df 3c
       0.13724118 0.31466025 -0.032610137 0.027282666
000330 fe 30 9b 3c 6c f5 25 bd 54 a3 af 3d a3 9c 60 be
       0.01894426 -0.040517256 0.08576074 -0.21934752
000340 dd 15 e1 bd 93 be b4 3d 03 e4 10 3e 23 ae b9 3d
       -0.10990498 0.08825412 0.1414948 0.09066417
000350 b9 da d9 3d f6 be aa 3c 15 6a 9a 3e cb 1d 25 be
       0.10637421 0.02084301 0.3015906 -0.16124646
000360 9a 94 88 3e 27 a3 da bd ac b5 19 3c e0 a0 63 bd
       0.26675874 -0.1067565 0.009381693 -0.055573344
000370 71 90 a3 3d 47 ad 58 bd f2 08 83 bd 7b b4 22 be
       0.079865344 -0.052899625 -0.063981906 -0.1588916
000380 18 2b 17 3e 8d 23 52 3a 8f fb a7 3d 1e 0c 26 bb
       0.14762533 0.0008016162 0.08202278 -0.0025336812
000390 53 04 22 3d c6 1d 3d bd f4 20 75 3d 27 18 45 bd
       0.039554905 -0.046170972 0.05984588 -0.048118737
0003a0 30 25 5f be 64 97 84 be 1d 71 fe 3d df 00 d1 3d
       -0.2179153 -0.25896752 0.124239184 0.10205244
0003b0 88 0c a2 bd 52 bc 11 be af 38 e6 bd 3c 15 ba bd
       -0.079125464 -0.14231995 -0.1124128 -0.090860814
0003c0 9f 2e 18 3d 5c c9 81 3c 81 51 cd 3c 47 da 25 be
       0.037153836 0.015843086 0.025063278 -0.16196547
0003d0 df b1 0e 3d 20 73 21 be 55 69 be bc 19 7a f1 3d
       0.0348376 -0.15766573 -0.023243586 0.117908664
0003e0 a2 92 4b 3e 06 ea 1c 3e 0c 95 1d 3e 42 50 fa 3d
       0.19880155 0.15323648 0.15388888 0.12222339
0003f0 3f 49 51 be 5c 0b 86 3d e1 2a 57 bd 7c 60 8e bd
       -0.20438097 0.065451354 -0.052531127 -0.06951997

network_body._body_endoder.seq_layers.0.bias f4 [256]
000000 d8 34 4a b9 37 b0 48 3d 0f 32 99 3c 8f 4d d5 bb
       -0.00019283907 0.048996177 0.018700628 -0.00650949
000010 66 34 60 3d 33 9d 19 3d 51 23 2d 3c e8 10 1e 3c
       0.05473747 0.037503432 0.010567502 0.009647585
000020 de 4b 12 bc 75 8e 08 bd dd 3a 9c 3c 46 1e 4c bc
       -0.008929221 -0.033338983 0.019071037 -0.01245839
000030 95 79 87 ba e1 41 f3 3b bd 2d e0 3c 3b 36 20 3b
       -0.0010335917 0.007423625 0.02736556 0.0024446386
000040 c7 5f 49 3d b9 79 b8 3c a5 ab 8c 3c bd 8f 00 bb
       0.049163606 0.02251898 0.01717169 -0.0019616925
000050 db e4 8c bc 78 62 f6 3b 8c 17 c4 3c 64 d6 23 3d
       -0.01719897 0.0075190626 0.02393701 0.03999938
000060 42 a5 44 3d 0e 31 c7 3c d5 cd 15 3d 0a 0a 4c bc
       0.048009165 0.024315383 0.03657325 -0.012453565
000070 8d 75 08 bc fd 9c 1f bb 99 ed 01 3d d8 3e 3e 3c
       -0.008328808 -0.0024355047 0.03172073 0.011611663
000080 1f 0c 48 bb db 62 59 3c 6e 23 b2 3b 1e e2 b2 3c
       -0.0030524803 0.013268198 0.0054363525 0.021836337
000090 f0 5d c8 3c 4a 1d 01 3d 23 03 e4 bc 3a 31 4e 3c
       0.024458855 0.031522073 -0.027833527 0.012584979
0000a0 08 87 a9 3c 8b 0d 9c 38 11 4f 02 3d dc 7e 04 3c
       0.02069427 7.441182e-05 0.031813685 0.008086886
0000b0 5d ab c3 3c de 07 45 3b a0 d8 e2 3c a8 db 19 3b
       0.023885423 0.0030064504 0.027691185 0.0023476873
0000c0 75 16 af bc 3b ec 58 3d 83 2c c1 bc 16 28 9b 3c
       -0.021373013 0.052959662 -0.023580795 0.018940013
0000d0 81 27 98 3c f5 53 e3 3c 0d f0 ed 3b 62 a4 f4 3c
       0.018573524 0.027749995 0.0072612823 0.02986354
0000e0 34 9b 8e 3c d1 a7 80 3c a6 a7 a5 bb 02 3a ba ba
       0.017407991 0.015705021 -0.0050553856 -0.0014207962
0000f0 50 70 15 3d 0e 6a 52 3c 2a b5 a0 3b eb d8 ec 39
       0.036484063 0.012842668 0.004904409 0.00045175044
000100 2f b7 c6 3b 33 f9 4c bb 95 8a 0f 38 43 57 16 3c
       0.0060643177 -0.0031276464 3.422292e-05 0.009176078
000110 09 75 c8 3c 23 fe 62 3d 4b 51 af 3c f4 4d 83 3c
       0.02446987 0.055418145 0.021401068 0.016028382
000120 1c 54 f0 3c d2 85 ab 3c 60 01 78 3d 8a bc 50 bc
       0.029336981 0.020937834 0.060548186 -0.012740264
000130 fe 6b f9 3c d9 aa c7 bb 3a 23 fe 3c 50 09 0b 3c
       0.030447003 -0.0060933647 0.031022657 0.008486107
000140 d2 2b bc 3c 86 e6 dd 3c 9c d1 8f 3c d1 04 d2 3c
       0.022970114 0.027087461 0.017556004 0.025637062
000150 de 59 04 3d 5c a8 0b 3d fe f5 7b 3d e0 6a 40 3d
       0.032312267 0.034096107 0.061513893 0.046976924
000160 76 fb 13 3c d5 bf 10 3b 32 8e 8e 3c fd 37 11 bb
       0.009032121 0.0022086997 0.017401788 -0.0022158616
000170 bd 30 e2 3c a8 da e0 bb 6f 6a 2e 3d 97 ab a7 bc
       0.02761113 -0.0068620034 0.04258197 -0.020467563
000180 8a a6 f3 ba 1c fa 75 3b 44 10 a1 3c f5 b9 05 3b
       -0.0018589061 0.003753311 0.019661076 0.0020405028
000190 2c 8a 0f 3c 4a c1 67 bb e6 78 83 3c 7a db d1 3b
       0.00876097 -0.0035363012 0.01604886 0.0064043375
0001a0 e8 a4 9c 3b 14 db 5d 3c 72 1e 18 3c 62 a8 e9 bb
       0.0047804005 0.013541002 0.0092846025 -0.0071306685
0001b0 ec 60 b7 bb 29 ea 09 bc 1f 93 28 3a 55 1e f6 3c
       -0.005596271 -0.008417645 0.0006430614 0.03004376
0001c0 5c 44 1e 3c c9 12 3c 3c 1c 22 2a 3c 95 3a c1 3b
       0.009659853 0.011479088 0.010384109 0.005896876
0001d0 30 3d 0a 3d f3 8e cc bb f6 25 cb 3c 83 26 bb 39
       0.03374976 -0.006242627 0.024798375 0.00035696113
0001e0 55 ac d3 3c cd 0c 3d bc e8 a4 8a bc 0c 5b 71 3c
       0.02583901 -0.0115386965 -0.016924337 0.01473118
0001f0 eb c6 30 3d 10 33 10 3c 32 c0 b8 3c 71 54 94 3c
       0.043158453 0.008801237 0.022552583 0.018106671
000200 49 33 e4 3b ef 2c a0 3b e5 b0 4b 3d 60 c5 87 3c
       0.0069641215 0.004888169 0.049729247 0.016573608
000210 aa 05 e0 3c 47 90 9f 3c db 45 09 3d 9e 89 a4 3c
       0.02734645 0.019477976 0.033513885 0.020085152
000220 1c 28 c1 ba c4 d8 78 3c d9 d5 db 3c 9f a7 d9 3c
       -0.0014736685 0.0151884 0.026835369 0.026569186
000230 6f d7 68 bc e4 0d 9c 3b 5b 06 eb 3b 84 59 06 3d
       -0.01421152 0.004762398 0.0071723885 0.032800213
000240 20 29 43 ba 82 da 18 3d 8d 78 f6 3c 74 6a 08 3d
       -0.0007444788 0.03731776 0.03008678 0.033304647
000250 7f 04 47 bc 63 35 13 3d d5 6d de 3b 09 a2 36 3d
       -0.012147068 0.035939585 0.0067879953 0.044588123
000260 cd f6 ca 3c af 41 2b bb bc e8 78 bb 30 d0 04 3d
       0.024775887 -0.002613168 -0.0037980517 0.032425106
000270 63 24 d9 3c 3b 1b e8 3b 5b a4 94 3d f0 19 5c bb
       0.026506608 0.0070833242 0.07257911 -0.0033584796
000280 1c b6 d9 bb 57 0d a3 3c fb 65 c6 3b 1f 15 a4 3c
       -0.0066440236 0.019903822 0.0060546375 0.020029603
000290 14 0f 7a 3c cc 2b 63 3a 2d 8c db 3c 30 6f 0b 3c
       0.015262384 0.0008665889 0.02680024 0.008510396
0002a0 1e a2 9f 3c 28 80 88 3c 42 4d af 3b b9 51 26 3d
       0.019486483 0.016662672 0.005349786 0.04060528
0002b0 34 2e 2a 3c 7a e9 14 3b 4a 02 3b 3d df 3a e0 3b
       0.010386992 0.002272217 0.04565648 0.0068429555
0002c0 ac fc 1d 3d 7f 7b a4 ba a4 b0 ce 3c 47 fb 08 3d
       0.038571045 -0.0012549012 0.025230713 0.03344276
0002d0 6b 9b 8c bc 0c df 6e bc 09 12 45 3c df 93 0b 3d
       -0.017163953 -0.014579546 0.012028226 0.034076568
0002e0 b0 43 a1 3c 60 03 6b 3c c1 51 4a bb 42 f4 a4 3c
       0.019685596 0.014344066 -0.0030871483 0.020136002
0002f0 fb 99 84 3c 1b fa 10 3d 5a 8c 70 3c 48 72 65 3c
       0.016186705 0.03539477 0.0146819 0.014004298
000300 61 ec 90 b9 f7 d8 c6 3c 75 24 4d 3c 1b 77 6f bb
       -0.00027641936 0.024273379 0.012520899 -0.0036539498
000310 21 84 c5 3c 07 4b b1 3a 2b db f1 3a c2 b3 a2 3c
       0.024110856 0.0013526388 0.0018452158 0.019861106
000320 bd 8c 23 3d 8b 7c f0 3c a1 92 82 bc 28 b2 8d 3c
       0.03992914 0.029356262 -0.015939059 0.017296866
000330 6d 20 ac 3b 7c 2a ec bb 73 8e 89 3c cb 11 89 3c
       0.005252889 -0.007207213 0.016791558 0.016732117
000340 8e 22 72 3c 49 11 3b 3b 5c dc e7 3c e6 88 2f bc
       0.014778746 0.0028544238 0.028303318 -0.0107137915
000350 b9 32 f3 3c a7 da 1f 3d 00 01 59 3d 16 d4 e7 3c
       0.029687272 0.039026882 0.05297947 0.028299373
000360 80 a2 05 3d 64 47 e3 3c 57 5c 8e 3d 58 39 87 3c
       0.032625675 0.027744003 0.06951206 0.016506836
000370 96 c4 19 bd 6f 2b c9 bb 98 2a 1c 3c 9f e4 e4 bb
       -0.037540995 -0.006139211 0.0095316395 -0.0069852616
000380 f6 e1 64 3c 92 c3 0a 3d b6 0e 10 ba 89 20 0a bc
       0.013969889 0.033877917 -0.0005495356 -0.008430609
000390 ce ef ea bb 4d 7f 2b bb c9 ca a0 3c 88 b4 0c 3d
       -0.0071697 -0.0026168406 0.019627945 0.034351856
0003a0 fe a9 da 3c bf 34 47 3c 03 d5 93 3b 08 2f a2 3c
       0.026692387 0.012158572 0.004511477 0.019797817
0003b0 3f c7 a3 bc d8 e6 36 bc 22 47 69 bb c2 fc 07 3d
       -0.019992469 -0.011163436 -0.0035595377 0.033200033
0003c0 70 5d 10 3d 03 ef 4c 3c 36 de 46 3c 72 5e 74 3d
       0.03524536 0.012508157 0.01213794 0.059660383
0003d0 77 4d 39 bd af 26 2f 3c 1f d4 90 3c 47 87 b2 3c
       -0.04523989 0.010690375 0.017679272 0.02179302
0003e0 30 51 67 3c af 83 b1 3b 88 0f 84 3c 54 b8 a9 3c
       0.014118478 0.0054173092 0.016120687 0.020717777
0003f0 7b eb 6c 3d b5 85 57 3d d8 dd a9 3c 92 0a 20 3d
       0.05784176 0.052617747 0.020735666 0.03907258

network_body._body_endoder.seq_layers.2.weight f4 [256, 256]
000000 6c 57 44 3d a1 72 c7 bd 57 a3 95 3d 26 c8 06 bd
       0.047934934 -0.097386606 0.07306545 -0.03290572
000010 57 17 0a be 5e ab b7 bd a7 97 1d bd ae 1a 82 bd
       -0.13485466 -0.089682326 -0.038474705 -0.06352745
000020 30 2c b8 bd 89 41 59 3d 25 62 d7 bb 9e b0 e8 bc
       -0.08992803 0.053041015 -0.006572979 -0.02840453
000030 3f 46 9d 3d e4 14 c0 3c 83 2d e8 bb 97 40 2e 3e
       0.07679414 0.023447461 -0.0070855035 0.17016827
000040 30 d0 6e 3d e4 70 a1 bd 22 4b a2 3d c1 ed 2c bd
       0.05830401 -0.0788286 0.07924487 -0.042218927
000050 8d 58 5c bd 97 30 e8 3d 96 3d 8a 3e cb 72 85 bd
       -0.053795386 0.11337393 0.2700011 -0.06516036
000060 a7 62 ec bc 5f 1b a8 3c 54 cb 71 bd 96 34 37 3d
       -0.028855635 0.020520864 -0.0590318 0.044727884
000070 e8 f3 89 3d 2e 1b 32 3d 9f 62 bd bd 8f 06 4e 3d
       0.067359746 0.04348295 -0.09247326 0.050299224
000080 84 19 fe 3d 1a 79 9b 3b ba 60 07 3e 4c 82 15 bd
       0.124072105 0.004744661 0.13220492 -0.036501214
000090 35 30 90 bd 3d fe 50 bc 27 53 87 be 20 dd e6 bc
       -0.07040445 -0.012755928 -0.26430628 -0.028181612
0000a0 68 55 b1 bb e1 5e 1c 3d 0a 35 48 3d 42 01 a8 bb
       -0.0054117925 0.03817642 0.048878707 -0.005127103
0000b0 0c 47 1e bc 7d 16 80 3d 4c 3f c1 bd 10 ed 62 bd
       -0.009660494 0.06254289 -0.09435901 -0.05540186
0000c0 3a 40 ec bc b2 86 6c b9 35 3d f5 3d e3 3f f6 3d
       -0.02883922 -0.00022556892 0.11974565 0.12023904
0000d0 f8 2d 14 3e 15 53 16 bd 27 98 a3 3d 3b a2 f2 bd
       0.1447066 -0.036700327 0.07988005 -0.11847349
0000e0 1b 1b ba 3d 1d 01 4a 3d 69 8c 8b bd 05 3e 05 bb
       0.09087201 0.049317468 -0.068138905 -0.0020331156
0000f0 f7 12 44 3d 7b 16 ae bd bd a2 a2 bc 41 1a f4 3c
       0.04786965 -0.085003816 -0.01985299 0.029797675
000100 8a 8f d9 bd 4e ea cc bd e3 82 5d 3e da 41 14 3e
       -0.10623081 -0.100056276 0.2163196 0.14478245
000110 65 a9 99 bd de 59 60 3d d7 31 52 bd c4 ee 90 bc
       -0.075030126 0.054773204 -0.051317062 -0.017691977
000120 fd 0a d5 bd a9 db e0 3c 25 cd 96 3d f2 37 82 3a
       -0.104024865 0.027448492 0.07363347 0.0009934886
000130 9b 2d 28 be db ef c9 3c a5 01 41 bd 89 2b f9 3d
       -0.16423647 0.024650505 -0.04712071 0.12166507
000140 26 99 52 3d 80 fb 2d 3c 91 ab fd bc 51 4b 72 3d
       0.051415585 0.010619044 -0.030965598 0.05915386
000150 cf ac be 3d 66 ba 99 bc b6 6a 31 bc 65 31 7a bd
       0.093103044 -0.01876564 -0.0108286645 -0.061082263
000160 0c fe 2c bd be 42 b1 3d 70 e5 8a 3d 61 6b a2 3d
       -0.042234465 0.08655308 0.06782043 0.07930637
000170 9d d2 15 bc b6 52 9f 3c c3 8b 88 3c be ac ea 3c
       -0.009144452 0.01944862 0.016668206 0.028646823
000180 93 08 13 bd 10 85 60 bd 3e c6 5f 3d d9 a9 69 bd
       -0.03589685 -0.0548144 0.054632418 -0.057046745
000190 72 00 4f bc 17 20 c7 3d 09 4a 08 be 21 87 73 be
       -0.0126343835 0.097229175 -0.13309492 -0.23782016
0001a0 d3 37 d8 bc da dc 41 3e e8 e4 96 3c 55 22 c6 3d
       -0.026393807 0.18931904 0.018419698 0.09674517
0001b0 99 ac da bc b2 ec bd 3b 84 46 82 3d d2 99 15 3e
       -0.02669363 0.0057960385 0.06361106 0.14609459
0001c0 cb 16 c5 3d 81 68 26 bc b2 67 1c be f5 2c 6d bd
       0.09623488 -0.010156752 -0.15273932 -0.057904202
0001d0 70 61 50 bc 84 92 90 3d ed a7 82 bd da 81 87 bc
       -0.012718543 0.07059196 -0.063796856 -0.01654141
0001e0 12 e1 11 3d 33 bf fe 3c 58 da ea 3c 01 21 4d bc
       0.035615034 0.03109703 0.028668568 -0.012520076
0001f0 29 22 81 bd 1d 6d 89 3b 4b 1d fe 3c 06 24 e1 3b
       -0.06305344 0.0041939155 0.031019827 0.0068707494
000200 d4 a0 7c 3b a8 8f 0c 3b 23 85 34 bd 9d ad c9 3c
       0.003854801 0.002144793 -0.04407228 0.024618918
000210 f0 b0 38 3d fc ba 98 3d ab ed 82 bd 31 17 1e bb
       0.045090616 0.074575394 -0.06392988 -0.002412271
000220 92 51 be bc 66 16 96 3c 2a 27 fd bc 53 ff c6 3b
       -0.023232255 0.018321227 -0.030902464 0.0060729175
000230 c6 1b 4c 3d 84 1a 19 3d 44 07 ab 3c 36 39 32 bd
       0.049831174 0.037378803 0.020877488 -0.04351159
000240 56 15 04 3e 3e 1a b9 bc 46 e4 17 3d f7 94 75 bd
       0.12898764 -0.022595521 0.037082933 -0.059956517
000250 73 63 84 b9 52 5b 82 bd 8a 38 04 3e 0f 87 41 bd
       -0.00025251097 -0.06365074 0.12912193 -0.047247943
000260 52 96 5d 3d 26 b6 35 3d dc d9 85 3d 31 fa ca bd
       0.054098435 0.044363163 0.06535694 -0.099110015
000270 9c 54 0f 3d 2c 34 51 3d d1 39 45 3b 54 76 99 3d
       0.0349928 0.051075146 0.0030094276 0.074932724
000280 4c 2c c5 bc 47 4f 27 3d c2 05 5c bd e2 8e ee 3c
       -0.024068974 0.04084709 -0.05371643 0.029120866
000290 14 9f b6 bd b9 7c 53 3c a0 c7 43 3e 44 4e 68 3d
       -0.089170605 0.012908154 0.1911912 0.056715265
0002a0 99 b7 54 3d fa a7 65 3d c5 9f 94 3d ad 76 33 3c
       0.051932905 0.056068398 0.07257036 0.0109535875
0002b0 76 73 09 bc 2b 5b c1 bc b7 11 1f 3d 36 7c 96 bb
       -0.008389344 -0.023603043 0.038835254 -0.004592444
0002c0 f7 bb a0 bd 21 a1 b7 3d 9e 60 05 3e 0e 56 a5 3d
       -0.078483514 0.0896628 0.13025138 0.08073054
0002d0 ad 33 0b 3e c2 c5 54 bd c0 eb ba bd 49 5c 5f 3c
       0.13593931 -0.05194641 -0.09126997 0.013632842
0002e0 19 e5 a8 3d 51 64 1c bd ef 32 41 bd 87 6d 04 be
       0.08246822 -0.038181607 -0.047167715 -0.12932406
0002f0 aa 58 b6 bd d2 be 21 3d c9 36 c6 bc 8c 90 9c 3d
       -0.0890363 0.03948862 -0.024196045 0.07644758
000300 6a 6e 80 bb 3c 30 d8 bd 40 3a b4 bd 87 94 c4 ba
       -0.0039194124 -0.10556075 -0.08800173 -0.0014997878
000310 da c8 29 bd 3f 79 c6 bc 54 ec 8b 39 b5 f3 77 bd
       -0.041451313 -0.024227737 0.00026688224 -0.06053515
000320 0b e2 c7 bd 85 85 26 3d 94 4d 0c bd 34 54 ae 3d
       -0.09759911 0.040654678 -0.03425367 0.08512154
000330 4d 3c 92 3d 7f f3 0a bd a5 6d 51 bc 91 87 f9 bd
       0.07140408 -0.033923622 -0.012782489 -0.1218406
000340 45 05 1d 3e 18 e8 4a 3d 25 d4 2f bd 45 b8 85 3d
       0.15334041 0.049537748 -0.042926926 0.06529287
000350 46 71 b4 bd 3f c3 12 be ee d6 a9 bd 10 7f a6 3c
       -0.08810668 -0.14332293 -0.08292948 0.02032426
000360 fb 82 6e 3d 72 1f 4f bd fc ef 1e be 1e d9 0a bd
       0.05823038 -0.050567098 -0.15521234 -0.033898465
000370 e5 7b d4 3d ca 77 3f 3e 52 c4 fd bd 3d 1f 97 3d
       0.103751935 0.1869804 -0.12390961 0.07379005
000380 f7 01 ba 3d 13 2e df bd b8 f6 a3 3d 89 04 b6 3d
       0.09082406 -0.1089746 0.08006042 0.08887584
000390 a2 ae 85 bd e3 d6 d0 bc 16 61 e8 bd 19 73 20 3c
       -0.06527449 -0.025493091 -0.11346643 0.009793066
0003a0 29 f9 04 bd 76 ce db 3c 6b 17 2f be cf ce 11 3e
       -0.03246418 0.026831847 -0.17098777 0.14239047
0003b0 26 16 26 3d 43 1c 8f 3c 75 be 8b bd 36 ca c0 bd
       0.040548466 0.01746953 -0.06823436 -0.09413569
0003c0 e8 c2 da bb 57 b1 95 bd 69 2d 1d 3e ac 5a 8d bd
       -0.0066760667 -0.073092155 0.15349354 -0.0690206
0003d0 ce 4f e6 3d 00 d0 6c 3d b8 b1 dc bd a6 02 19 be
       0.1124569 0.05781555 -0.10776085 -0.14942417
0003e0 87 d6 1e 3e 76 ac 1d 3d f6 35 0e 3c f9 d9 2b be
       0.15511523 0.03849455 0.0086798575 -0.16782369
0003f0 eb 0f 39 bd 7b 82 7b bb 57 7c 9b 3d 52 2e 6f bd
       -0.045181196 -0.0038377333 0.07592075 -0.058393784

network_body._body_endoder.seq_layers.2.bias f4 [256]
000000 bd 26 b9 3b e3 b3 ee 3b 05 a8 02 3c cd b0 56 3a
       0.00565037 0.0072846278 0.007974629 0.00081897975
000010 87 e2 84 3c 6b 83 12 3d 2f a9 39 ba 94 b9 dd bb
       0.016221298 0.03576986 -0.00070824 -0.0067665074
000020 64 c1 ef 3c 52 6c 1f bc 68 d6 e4 3c 68 1e 7e 3b
       0.02926702 -0.009730415 0.027934268 0.0038775448
000030 74 c9 08 3d 72 6b ca 3c ce ba 06 bc 14 ce 1c 3c
       0.033395246 0.024709437 -0.008223249 0.009570617
000040 eb 77 0f 3a d2 f8 10 3c ce b5 99 3c 5c f9 80 bb
       0.0005472886 0.008848386 0.018763449 -0.003935976
000050 41 5c 39 3b 72 0a c7 3b 89 57 41 3c 2e 11 a8 3c
       0.0028283747 0.006074243 0.011800655 0.020516004
000060 d2 56 c9 3c 62 f8 34 3c fe c5 0c 3c 24 d4 32 3d
       0.024577532 0.011045547 0.008592127 0.043659344
000070 c5 5f 27 3a 58 86 b9 3c 1f 6d ec bb 4b eb 3b bc
       0.0006384815 0.022647068 -0.0072151567 -0.011469672
000080 0a b7 0e bc 3a 66 22 bb 2e 58 17 3d e4 bc c0 3c
       -0.008710632 -0.002478017 0.03694933 0.02352757
000090 82 d0 86 3c 7b a0 25 bc 04 a7 5f 3c 0f c0 7f 3c
       0.016456846 -0.010109062 0.0136506595 0.015609755
0000a0 f7 c7 ee bb c7 25 0d 3c 57 a4 1a 3d 09 45 be 3c
       -0.0072870213 0.008614964 0.037754383 0.023226278
0000b0 93 d3 fe 3c 25 75 fa bb a9 f9 ba 3b 41 cc 6e b8
       0.031106746 -0.0076433592 0.0057060313 -5.6933848e-05
0000c0 16 df 4c 3c e6 8b a0 3c b6 40 b9 3c 9f 64 c2 3b
       0.01250436 0.019597959 0.022613864 0.005932405
0000d0 26 c5 9e bb 1c 4e 70 3c 9b eb d3 3c 56 20 70 bc
       -0.0048452793 0.01466706 0.025869181 -0.014656147
0000e0 4d 45 00 3d 61 14 e0 3b 36 fe 20 3d fa 19 e2 3c
       0.03131609 0.006838367 0.039304934 0.027600277
0000f0 bd 11 08 3d 7f 54 30 3c 23 f2 ab 3c d2 59 4f 3c
       0.03322004 0.010762333 0.020989483 0.012655692
000100 42 56 e9 3c 2c d6 87 3c 82 b7 77 3a 01 83 db 3c
       0.028483514 0.016581617 0.0009449647 0.026795866
000110 8a d7 55 3c 2d 4a 0d bc 05 45 af bb 80 9e 68 3c
       0.013051877 -0.008623642 -0.005348804 0.014197946
000120 a6 82 72 3c 75 b6 2a 3d 89 57 21 3c ea d4 45 3d
       0.014801657 0.04167791 0.00984753 0.048298754
000130 d0 b3 89 3c a0 be 04 3c d8 73 94 3b 31 58 db 3b
       0.016809374 0.008102089 0.004530411 0.006693863
000140 c4 e0 ce 3c b5 61 0e 3d 8b 64 16 bb 13 4f 00 3d
       0.025253661 0.03476115 -0.0022948112 0.03132541
000150 96 42 ae bb 63 e1 46 3c 11 51 a7 3c 51 21 70 3b
       -0.0053179963 0.012138697 0.020424398 0.0036640952
000160 07 42 0c 3d 9e 35 a1 3c 4e 1c 58 3c 3c 9e 3f bc
       0.034242656 0.019678887 0.013190342 -0.011695441
000170 22 c0 f0 b9 b1 52 35 bb f5 ed 43 3b c5 95 fa 3c
       -0.00045919517 -0.0027667696 0.0029896472 0.030588994
000180 87 5e e4 ba b4 7b c5 ba e8 7f c1 3c 10 68 6d 3c
       -0.0017423191 -0.0015066774 0.02362056 0.014490142
000190 87 aa 41 3c 02 23 1a 3d 3e 03 6b 3c ec 83 05 3c
       0.011820442 0.037631042 0.014344035 0.008149128
0001a0 1e dc 40 bb f5 81 36 bc d6 7d 20 3b 93 0b b3 bb
       -0.0029428075 -0.011139383 0.0024489067 -0.0054640262
0001b0 49 55 d1 bb f3 c7 e5 3b 30 25 3d ba 3e ae a5 3c
       -0.0063883406 0.007012361 -0.0007215319 0.020224687
0001c0 23 c9 14 3d df 32 7d bc 8f 38 8c 38 4f 6b 30 3d
       0.03632463 -0.015454023 6.686255e-05 0.043071087
0001d0 9b 1e f6 3c 1f 17 70 3b 4d 53 8e 3c 9b 63 01 bc
       0.03004389 0.0036634875 0.017373705 -0.007897283
0001e0 5b 1f 16 3b ed 56 71 bb 59 80 b0 3c 57 4e 63 3c
       0.0022906873 -0.0036825493 0.021545576 0.013873658
0001f0 cf fc 89 3c 42 0f ae 3c d2 dc a8 3c 3f c7 90 3c
       0.016844181 0.02124751 0.020613108 0.017673133
000200 c5 e7 61 bc 77 aa f3 3a 37 d3 1a 3d 44 42 13 bc
       -0.013788168 0.0018590231 0.037799086 -0.008987967
000210 a9 7e 89 bc fe 63 ab 3c 2d 02 d5 3c 4f 93 cc 3c
       -0.01678403 0.020921703 0.026002014 0.024972586
000220 86 9a 04 3d 8e 8e d0 bb ce f4 95 3b e3 97 e7 3b
       0.032373928 -0.00636465 0.004576302 0.007067667
000230 f7 1d 45 bc a7 1e bc 3c 05 b9 56 bc d8 28 85 3c
       -0.01203107 0.022963835 -0.0131056355 0.016254827
000240 58 ac 2b 3c a4 b1 41 3c c0 d9 cc 3b fd 5f 36 bc
       0.010478102 0.011822138 0.0062515438 -0.011131284
000250 a0 96 46 bc f9 d6 10 3c 5e f9 57 39 cb 43 33 3c
       -0.012120873 0.008840316 0.00020596894 0.010941456
000260 97 ad c5 b9 07 4e d7 3c 77 2c 2f 3d 24 e9 27 bc
       -0.00037704103 0.026282324 0.042767014 -0.010248456
000270 65 dd 8d 3c d0 87 82 3c 03 d6 07 3d 8e 51 84 3c
       0.017317483 0.015933901 0.03316308 0.01615217
000280 0f 5a af 3c ab ae c2 3c 93 9f b6 3c 18 79 df b9
       0.021405248 0.023764929 0.022292888 -0.00042624096
000290 51 82 82 bc 48 79 69 3c 87 22 07 bc 51 7f 04 3d
       -0.01593128 0.014250107 -0.008247978 0.03234798
0002a0 39 75 d8 3b a0 ba 8a 3b 7e c9 1c 3c 4b 70 92 3c
       0.006605771 0.004233673 0.009569524 0.017875811
0002b0 fd 11 c9 3c 17 c7 36 bb 6c a4 79 3c 04 a1 e3 3b
       0.02454471 -0.0027889663 0.015236955 0.006946685
0002c0 ba 57 6e 3c 3b 5d 2e bc 0e 30 87 bb ec 10 1c 3d
       0.014547283 -0.010642345 -0.0041256016 0.038102075
0002d0 0a a6 ef bb e2 81 50 3c 35 d4 04 3d 43 a8 0d 3d
       -0.0073134946 0.012726279 0.03242894 0.034584295
0002e0 87 78 6f 3b 19 a0 8b 3c f6 aa 15 3c 02 d8 3e 3c
       0.0036540346 0.017044114 0.009134999 0.01164818
0002f0 72 ca 03 3d d3 5d 15 3d e8 18 57 3c ab 9e ac 3c
       0.03217549 0.03646643 0.013128497 0.021071753
000300 14 a1 f1 bb d8 be 50 bc a0 3c c0 3c 6b 08 d1 3c
       -0.0073739383 -0.012740813 0.023466408 0.02551671
000310 a5 9d aa 3a a9 2b 64 3c ce 8c b5 3c ef 58 e9 3c
       0.0013016952 0.013926425 0.022161867 0.02848479
000320 9b 53 0a bb b0 74 69 3b 5a f6 13 3c 35 66 ee 3b
       -0.0021106962 0.003562253 0.009030903 0.0072753676
000330 73 75 8a 3b 2d cd 7e bb db 38 cd 3c b8 71 cc 3b
       0.004225427 -0.0038879619 0.025051525 0.0062391423
000340 ba ee 4c ba 40 24 44 bb 0b 81 c2 3b a8 46 b7 bb
       -0.00078175555 -0.0029928833 0.0059357933 -0.0055931397
000350 7c 26 6e 3c c6 fc 81 3c 9f 9c db 3c a4 73 75 3a
       0.014535543 0.015867602 0.026808081 0.000936324
000360 c6 2e 13 3c 7a 0b 43 3c f1 c5 71 bb ef 4e 7f 3b
       0.00898332 0.011904592 -0.0036891664 0.003895696
000370 3b d6 b7 3c 9b 04 21 3d e5 4f 8a 3c 7f 7a 44 3c
       0.02244102 0.039311033 0.0168838 0.011992096
000380 bb 6f 99 3b e7 2b 33 bb 9f 41 3a bc 45 2f af 3c
       0.0046825088 -0.00273394 -0.011368184 0.021384845
000390 37 e7 d4 3c 58 9f 4d 3d 94 8a 39 3b 96 71 0f 3d
       0.025989158 0.05020079 0.0028311359 0.035020433
0003a0 2f 75 8a 3c 99 b3 5b bc f9 df bf 3c 61 ed c6 bb
       0.01690158 -0.013409519 0.023422228 -0.0060707782
0003b0 cc 01 a0 b9 33 ae c8 3b aa 59 af 3c b2 ef 80 bb
       -0.00030518917 0.006124282 0.02140506 -0.003934824
0003c0 4d 62 d9 3c 34 7d e6 3c ef 4b af bb 09 63 41 3c
       0.026536131 0.028135873 -0.005349628 0.011803397
0003d0 70 6f 87 3b 7d cf 11 3d ff c2 89 3c 01 aa 15 3d
       0.0041331574 0.035598267 0.016816614 0.03653908
0003e0 9f 9a ed 3b 9e 84 09 bc d1 59 70 3c a4 4e cf bb
       0.0072510983 -0.008393435 0.014669851 -0.0063265134
0003f0 3d 09 54 bb 81 e5 83 b9 37 eb 96 3c 78 0a 44 3c
       -0.003235414 -0.0002515726 0.018422706 0.011965387

action_model._continuous_distribution.log_sigma f4 [1, 5]
000000 3c ba 39 be 30 25 04 be 79 ba 1f be 06 06 3e bd
       -0.18137449 -0.12904811 -0.15598477 -0.046392463
000010 47 d6 6a bd
       -0.057333257

action_model._continuous_distribution.mu.weight f4 [5, 256]
000000 26 ba 0d bd 48 e8 7b 3d 4a 63 05 bd 3e bd 56 3d
       -0.034601353 0.061500818 -0.032565393 0.05242657
000010 37 32 05 bd cb 41 35 3c 06 9a 61 3d fd d1 dd ba
       -0.03251859 0.01106305 0.05507853 -0.0016923543
000020 bc dc c3 3c ef 5f 1f 3d 7c 16 34 3d 91 63 72 3d
       0.023908965 0.03890985 0.043966755 0.059176985
000030 45 63 e4 bb ec 6a d3 3c d7 b9 f0 bc 31 b9 ad bd
       -0.0069698417 0.02580782 -0.02938549 -0.08482588
000040 35 ee a2 3d 31 72 2f 3b 9f 27 ac bd 72 ca f8 ba
       0.07955591 0.0026770944 -0.084059946 -0.0018981232
000050 f5 f8 e7 3c 08 6b dd 3c c9 5b b5 bd a8 3d d4 3c
       0.028316954 0.027028576 -0.08855397 0.025908306
000060 d3 4a 58 bd 4a 4e 85 3d e9 b4 3c 3d f4 48 ed ba
       -0.052805733 0.06509073 0.046070967 -0.0018103407
000070 70 91 e8 bc 81 42 cb 3b 58 35 0b 3c 31 cf 98 bc
       -0.028389663 0.0062029962 0.008496605 -0.018653484
000080 61 30 57 bd eb c3 a7 3c 14 88 64 bd 0d f1 55 3d
       -0.052536372 0.020479163 -0.055793837 0.052231837
000090 38 95 59 bd 8c 21 0e bd 6e 6b 15 3d a6 b9 13 3d
       -0.05312082 -0.03469996 0.036479406 0.03606572
0000a0 29 60 10 bc 3d 90 81 3c 4d 8a 18 bc 3a 1e 2b bd
       -0.008811989 0.015815848 -0.009310317 -0.041776873
0000b0 66 bc 46 bd c7 0f 65 bd 90 39 38 bd 79 da b6 bd
       -0.048519515 -0.05592325 -0.04497677 -0.08928389
0000c0 a4 0e e8 bc 23 c0 51 bd 80 aa 8d 3c fe 5c 86 bb
       -0.028327294 -0.051208626 0.017293215 -0.004100441
0000d0 25 2c c6 3c 7f 20 55 3c c8 5b 05 3d 2a e3 5c 3c
       0.024190972 0.013008236 0.032558233 0.0134818945
0000e0 8e 39 01 3d 48 3b ae 3c 33 e0 49 bb 93 9b 03 3d
       0.03154903 0.021268502 -0.00308038 0.03213079
0000f0 4b cd 26 3c 16 33 5a 3d 25 97 4a bc 0b dc f8 3b
       0.010180782 0.053271376 -0.012365137 0.0075945905
000100 02 ca 04 bd 66 67 03 bd 97 2f 46 3d 2a bb 6d 3c
       -0.032419212 -0.03208103 0.04838523 0.014509955
000110 ae c6 51 bd 23 23 a6 3b 12 9a b8 3d 10 46 88 bc
       -0.051214866 0.0050701066 0.090137616 -0.01663497
000120 9d 3d 1f bd 41 84 30 bd 42 f9 2e bb f7 d6 15 bc
       -0.03887712 -0.043094877 -0.0026698862 -0.00914549
000130 1d 23 f2 bc e0 7b a6 bc 4d 77 84 bc 85 e2 d9 3c
       -0.029557759 -0.02032274 -0.016170168 0.02659727
000140 21 e7 d7 3a b2 39 f8 bc 1b 8b d0 3c 0c f7 91 3c
       0.001647208 -0.030300949 0.025456956 0.017817996
000150 9a be d8 3b d9 bb fa 3c 0d 23 41 3c 10 f0 a3 3a
       0.0066145184 0.03060715 0.011788142 0.0012507457
000160 66 12 25 3c cf 30 74 3b 4e f6 81 bd cc 78 e8 3c
       0.010075187 0.0037260538 -0.06345807 0.028377913
000170 2f 64 90 bd 07 65 e4 ba b1 26 48 bd 06 af 93 3c
       -0.070503585 -0.0017425128 -0.048865024 0.018027794
000180 6f d0 52 bc f4 59 0c 3b 03 26 29 3d f7 05 72 bb
       -0.012867077 0.002141592 0.041296016 -0.0036929825
000190 a0 90 82 bc 37 23 c3 3c a0 22 d1 3b 10 f8 63 b8
       -0.015938103 0.023820503 0.0063823014 -5.4352044e-05
0001a0 6c 68 69 3d 8f 6e ff 3b 34 ce e8 3c 4b c8 31 3d
       0.05698435 0.007795162 0.028418638 0.043403905
0001b0 e7 17 d0 3c 6d 47 20 3d 29 2d 99 bb 93 0d 2d bd
       0.025402023 0.039130617 -0.004674573 -0.042249274
0001c0 b2 60 20 bc a7 aa 21 3d 3d 48 a9 bc 37 0b 4f 3c
       -0.009788679 0.039469387 -0.020664329 0.012636951
0001d0 f7 28 6d bb b6 72 83 bd aa 88 fd 3c 54 b1 3a bc
       -0.0036187747 -0.06418364 0.030948956 -0.011394817
0001e0 9b e0 8c 3b b4 86 90 bd 2e 07 8b bc 16 8c 59 bd
       0.004299236 -0.070569426 -0.016971197 -0.053112112
0001f0 4f e8 45 3d dd 73 05 3d 82 f4 84 3d 00 bc 9f 3c
       0.04831725 0.0325812 0.06491949 0.019498825
000200 26 ed 93 3c 2c 52 85 3d 48 39 25 bc 88 4f c1 3c
       0.018057417 0.06509814 -0.010084458 0.023597494
000210 9f 7c e6 bc a4 a5 5f 3d f4 2e 36 3d 06 79 e3 3c
       -0.028135596 0.054601327 0.04447837 0.02776767
000220 7a 2e 5b bd 77 10 1f 3c ee f0 f4 bb 45 2e 5a 3d
       -0.05351112 0.009708515 -0.00747501 0.053266782
000230 9b cc ea bc 50 1f 45 bc bd cb ae 3c 72 a4 b1 bb
       -0.028662017 -0.012031391 0.021337384 -0.0054212147
000240 ac 1a ca bb 52 e4 26 3b 07 96 0e 38 49 7d 58 3d
       -0.0061677303 0.002546568 3.3995162e-05 0.052853856
000250 f8 ff 05 ba bd eb 3c 3d ca 0d ac 3d 31 d8 1d bd
       -0.00051116897 0.046123255 0.084010676 -0.038536254
000260 fc 89 6b 3b 9b b5 85 3c a3 43 c7 bc 1d 57 bc 3c
       0.00359404 0.016321948 -0.024324244 0.022990758
000270 e5 9a 52 bd bf 40 52 3d ca b1 8f 3c 27 44 0f bd
       -0.05141725 0.051331278 0.017540831 -0.034977105
000280 22 7a 81 3c 5f 28 5e 3c b0 02 1c bd 8c 6f 85 3d
       0.015805308 0.01355943 -0.0380885 0.065154165
000290 42 a0 df 3b 56 23 ac 3d fc fe a9 3b 56 93 f0 3a
       0.006824524 0.08405177 0.005187867 0.0018354456
0002a0 d7 63 ae bd 1c 5e f7 bb e1 40 10 3b 8b c4 3d bc
       -0.08515137 -0.0075490605 0.0022011327 -0.011582504
0002b0 0e 25 d1 3a e9 36 42 3d 50 0c 27 bd d4 f2 03 bd
       0.0015956478 0.047415648 -0.040783226 -0.032214
0002c0 4f 6d 56 bc 63 dc f2 b8 5d 1a 77 bc 68 9d 5b bc
       -0.013087585 -0.000115805095 -0.015081969 -0.013404228
0002d0 8e 14 2e bc f0 0c 93 3d e4 b8 aa 3c d4 22 bf 3b
       -0.010625018 0.07180202 0.020840116 0.0058330093
0002e0 f5 42 3a bc 07 05 a7 3c 39 df 0d 3d 97 3e e9 3c
       -0.011368503 0.02038814 0.03463671 0.028472228
0002f0 50 6b 23 3c a8 92 45 bb b6 b4 62 bd 80 2d 49 bd
       0.009974316 -0.0030147228 -0.05534812 -0.049115658
000300 0a 0f ad 3c 4e 54 88 bc c3 c8 39 3c 72 c2 81 bd
       0.021125335 -0.016641762 0.011339369 -0.063359156
000310 8d e3 c9 bb 7d c2 f0 bb 69 cd bb bc 6b 47 cf bd
       -0.0061611594 -0.0073474036 -0.022925096 -0.10121044
000320 10 32 83 3c 9c d1 3e 3d 23 34 88 bc 9a 9b 8b 3b
       0.016015083 0.046586618 -0.016626423 0.0042604925
000330 79 5b 30 bc 6f 90 32 3d 87 d1 ed 3c f0 7d b7 3c
       -0.010763996 0.043594774 0.029030574 0.022398919
000340 8a 96 35 3d 47 2a 58 bd eb c3 de 3c 45 ca ab 3c
       0.04433302 -0.052774694 0.02719303 0.020970473
000350 c5 d3 82 3d 00 39 e5 bc e8 75 32 bd 4a 02 08 3d
       0.06388048 -0.027981281 -0.043569475 0.033205308
000360 d4 83 29 bd ad 99 a7 3b 27 5e cd 3b 5d 60 b2 3c
       -0.041385487 0.005114755 0.0062673273 0.021774465
000370 32 95 b9 ba 63 ed 65 3a fe 1a c0 3b e4 05 0e bc
       -0.0014158844 0.000877103 0.0058625927 -0.008668397
000380 24 2c 98 3c cd 20 74 bd 7f a5 56 bd 13 8b 54 bc
       0.018575735 -0.059601594 -0.052403923 -0.012972611
000390 f4 41 80 bc 87 ac 6e bc f1 0c a5 3d 8f 47 84 3c
       -0.015656449 -0.014567501 0.08059109 0.016147403
0003a0 d2 5a 34 3d c4 8d 7f ba 39 47 cb ba ae 25 11 3d
       0.044031925 -0.0009748603 -0.0015508897 0.035436325
0003b0 80 f2 92 bc c2 c3 91 3c 5f 30 2f bd 73 9f b1 bc
       -0.017937899 0.01779354 -0.04277074 -0.021682477
0003c0 85 70 c6 bc 09 67 e6 bc ce 90 8b 3d 15 e6 4a 3d
       -0.024223575 -0.028125303 0.06814729 0.04953583
0003d0 d3 f9 ae bb 63 3f 4d bd 80 92 0a bd cb 26 c8 bd
       -0.00533984 -0.05010928 -0.03383112 -0.09773024
0003e0 b8 7a 1d 3d d1 6b a1 3b 0e 8f 47 3b b8 18 df 3c
       0.03844711 0.004926183 0.0030450257 0.027233467
0003f0 52 e8 18 3d ae e3 66 bd 13 7d fb 3c a3 a0 b0 3c
       0.037330933 -0.056369476 0.030699288 0.021560973

action_model._continuous_distribution.mu.bias f4 [5]
000000 04 a2 4f 3a 5d 89 8c 3c 4e 97 15 bc 9d 8c 76 3b
       0.00079205655 0.017155344 -0.009130312 0.0037620433
000010 6b 7f aa bb
       -0.0052031777
